def @main(%data: Tensor[(1, 3, 224, 224), float32] /* ty=Tensor[(1, 3, 224, 224), float32] */, %conv1_weight: Tensor[(64, 3, 7, 7), float32] /* ty=Tensor[(64, 3, 7, 7), float32] */, %batch1_gamma: Tensor[(64), float32] /* ty=Tensor[(64), float32] */, %batch1_beta: Tensor[(64), float32] /* ty=Tensor[(64), float32] */, %batch1_moving_mean: Tensor[(64), float32] /* ty=Tensor[(64), float32] */, %batch1_moving_var: Tensor[(64), float32] /* ty=Tensor[(64), float32] */, %batch_1_0_0_gamma: Tensor[(64), float32] /* ty=Tensor[(64), float32] */, %batch_1_0_0_beta: Tensor[(64), float32] /* ty=Tensor[(64), float32] */, %batch_1_0_0_moving_mean: Tensor[(64), float32] /* ty=Tensor[(64), float32] */, %batch_1_0_0_moving_var: Tensor[(64), float32] /* ty=Tensor[(64), float32] */, %conv2d_1_0_0_weight: Tensor[(128, 64, 1, 1), float32] /* ty=Tensor[(128, 64, 1, 1), float32] */, %batch_2_0_0_gamma: Tensor[(128), float32] /* ty=Tensor[(128), float32] */, %batch_2_0_0_beta: Tensor[(128), float32] /* ty=Tensor[(128), float32] */, %batch_2_0_0_moving_mean: Tensor[(128), float32] /* ty=Tensor[(128), float32] */, %batch_2_0_0_moving_var: Tensor[(128), float32] /* ty=Tensor[(128), float32] */, %conv2d_2_0_0_weight: Tensor[(32, 128, 3, 3), float32] /* ty=Tensor[(32, 128, 3, 3), float32] */, %batch_1_0_1_gamma: Tensor[(32), float32] /* ty=Tensor[(32), float32] */, %batch_1_0_1_beta: Tensor[(32), float32] /* ty=Tensor[(32), float32] */, %batch_1_0_1_moving_mean: Tensor[(32), float32] /* ty=Tensor[(32), float32] */, %batch_1_0_1_moving_var: Tensor[(32), float32] /* ty=Tensor[(32), float32] */, %conv2d_1_0_1_weight: Tensor[(128, 32, 1, 1), float32] /* ty=Tensor[(128, 32, 1, 1), float32] */, %batch_2_0_1_gamma: Tensor[(128), float32] /* ty=Tensor[(128), float32] */, %batch_2_0_1_beta: Tensor[(128), float32] /* ty=Tensor[(128), float32] */, %batch_2_0_1_moving_mean: Tensor[(128), float32] /* ty=Tensor[(128), float32] */, %batch_2_0_1_moving_var: Tensor[(128), float32] /* ty=Tensor[(128), float32] */, %conv2d_2_0_1_weight: Tensor[(32, 128, 3, 3), float32] /* ty=Tensor[(32, 128, 3, 3), float32] */, %batch_1_0_2_gamma: Tensor[(32), float32] /* ty=Tensor[(32), float32] */, %batch_1_0_2_beta: Tensor[(32), float32] /* ty=Tensor[(32), float32] */, %batch_1_0_2_moving_mean: Tensor[(32), float32] /* ty=Tensor[(32), float32] */, %batch_1_0_2_moving_var: Tensor[(32), float32] /* ty=Tensor[(32), float32] */, %conv2d_1_0_2_weight: Tensor[(128, 32, 1, 1), float32] /* ty=Tensor[(128, 32, 1, 1), float32] */, %batch_2_0_2_gamma: Tensor[(128), float32] /* ty=Tensor[(128), float32] */, %batch_2_0_2_beta: Tensor[(128), float32] /* ty=Tensor[(128), float32] */, %batch_2_0_2_moving_mean: Tensor[(128), float32] /* ty=Tensor[(128), float32] */, %batch_2_0_2_moving_var: Tensor[(128), float32] /* ty=Tensor[(128), float32] */, %conv2d_2_0_2_weight: Tensor[(32, 128, 3, 3), float32] /* ty=Tensor[(32, 128, 3, 3), float32] */, %batch_1_0_3_gamma: Tensor[(32), float32] /* ty=Tensor[(32), float32] */, %batch_1_0_3_beta: Tensor[(32), float32] /* ty=Tensor[(32), float32] */, %batch_1_0_3_moving_mean: Tensor[(32), float32] /* ty=Tensor[(32), float32] */, %batch_1_0_3_moving_var: Tensor[(32), float32] /* ty=Tensor[(32), float32] */, %conv2d_1_0_3_weight: Tensor[(128, 32, 1, 1), float32] /* ty=Tensor[(128, 32, 1, 1), float32] */, %batch_2_0_3_gamma: Tensor[(128), float32] /* ty=Tensor[(128), float32] */, %batch_2_0_3_beta: Tensor[(128), float32] /* ty=Tensor[(128), float32] */, %batch_2_0_3_moving_mean: Tensor[(128), float32] /* ty=Tensor[(128), float32] */, %batch_2_0_3_moving_var: Tensor[(128), float32] /* ty=Tensor[(128), float32] */, %conv2d_2_0_3_weight: Tensor[(32, 128, 3, 3), float32] /* ty=Tensor[(32, 128, 3, 3), float32] */, %batch_1_0_4_gamma: Tensor[(32), float32] /* ty=Tensor[(32), float32] */, %batch_1_0_4_beta: Tensor[(32), float32] /* ty=Tensor[(32), float32] */, %batch_1_0_4_moving_mean: Tensor[(32), float32] /* ty=Tensor[(32), float32] */, %batch_1_0_4_moving_var: Tensor[(32), float32] /* ty=Tensor[(32), float32] */, %conv2d_1_0_4_weight: Tensor[(128, 32, 1, 1), float32] /* ty=Tensor[(128, 32, 1, 1), float32] */, %batch_2_0_4_gamma: Tensor[(128), float32] /* ty=Tensor[(128), float32] */, %batch_2_0_4_beta: Tensor[(128), float32] /* ty=Tensor[(128), float32] */, %batch_2_0_4_moving_mean: Tensor[(128), float32] /* ty=Tensor[(128), float32] */, %batch_2_0_4_moving_var: Tensor[(128), float32] /* ty=Tensor[(128), float32] */, %conv2d_2_0_4_weight: Tensor[(32, 128, 3, 3), float32] /* ty=Tensor[(32, 128, 3, 3), float32] */, %batch_1_0_5_gamma: Tensor[(32), float32] /* ty=Tensor[(32), float32] */, %batch_1_0_5_beta: Tensor[(32), float32] /* ty=Tensor[(32), float32] */, %batch_1_0_5_moving_mean: Tensor[(32), float32] /* ty=Tensor[(32), float32] */, %batch_1_0_5_moving_var: Tensor[(32), float32] /* ty=Tensor[(32), float32] */, %conv2d_1_0_5_weight: Tensor[(128, 32, 1, 1), float32] /* ty=Tensor[(128, 32, 1, 1), float32] */, %batch_2_0_5_gamma: Tensor[(128), float32] /* ty=Tensor[(128), float32] */, %batch_2_0_5_beta: Tensor[(128), float32] /* ty=Tensor[(128), float32] */, %batch_2_0_5_moving_mean: Tensor[(128), float32] /* ty=Tensor[(128), float32] */, %batch_2_0_5_moving_var: Tensor[(128), float32] /* ty=Tensor[(128), float32] */, %conv2d_2_0_5_weight: Tensor[(32, 128, 3, 3), float32] /* ty=Tensor[(32, 128, 3, 3), float32] */, %batch_t_0_gamma: Tensor[(192), float32] /* ty=Tensor[(192), float32] */, %batch_t_0_beta: Tensor[(192), float32] /* ty=Tensor[(192), float32] */, %batch_t_0_moving_mean: Tensor[(192), float32] /* ty=Tensor[(192), float32] */, %batch_t_0_moving_var: Tensor[(192), float32] /* ty=Tensor[(192), float32] */, %conv_t_0_weight: Tensor[(128, 192, 1, 1), float32] /* ty=Tensor[(128, 192, 1, 1), float32] */, %batch_1_1_0_gamma: Tensor[(128), float32] /* ty=Tensor[(128), float32] */, %batch_1_1_0_beta: Tensor[(128), float32] /* ty=Tensor[(128), float32] */, %batch_1_1_0_moving_mean: Tensor[(128), float32] /* ty=Tensor[(128), float32] */, %batch_1_1_0_moving_var: Tensor[(128), float32] /* ty=Tensor[(128), float32] */, %conv2d_1_1_0_weight: Tensor[(128, 128, 1, 1), float32] /* ty=Tensor[(128, 128, 1, 1), float32] */, %batch_2_1_0_gamma: Tensor[(128), float32] /* ty=Tensor[(128), float32] */, %batch_2_1_0_beta: Tensor[(128), float32] /* ty=Tensor[(128), float32] */, %batch_2_1_0_moving_mean: Tensor[(128), float32] /* ty=Tensor[(128), float32] */, %batch_2_1_0_moving_var: Tensor[(128), float32] /* ty=Tensor[(128), float32] */, %conv2d_2_1_0_weight: Tensor[(32, 128, 3, 3), float32] /* ty=Tensor[(32, 128, 3, 3), float32] */, %batch_1_1_1_gamma: Tensor[(32), float32] /* ty=Tensor[(32), float32] */, %batch_1_1_1_beta: Tensor[(32), float32] /* ty=Tensor[(32), float32] */, %batch_1_1_1_moving_mean: Tensor[(32), float32] /* ty=Tensor[(32), float32] */, %batch_1_1_1_moving_var: Tensor[(32), float32] /* ty=Tensor[(32), float32] */, %conv2d_1_1_1_weight: Tensor[(128, 32, 1, 1), float32] /* ty=Tensor[(128, 32, 1, 1), float32] */, %batch_2_1_1_gamma: Tensor[(128), float32] /* ty=Tensor[(128), float32] */, %batch_2_1_1_beta: Tensor[(128), float32] /* ty=Tensor[(128), float32] */, %batch_2_1_1_moving_mean: Tensor[(128), float32] /* ty=Tensor[(128), float32] */, %batch_2_1_1_moving_var: Tensor[(128), float32] /* ty=Tensor[(128), float32] */, %conv2d_2_1_1_weight: Tensor[(32, 128, 3, 3), float32] /* ty=Tensor[(32, 128, 3, 3), float32] */, %batch_1_1_2_gamma: Tensor[(32), float32] /* ty=Tensor[(32), float32] */, %batch_1_1_2_beta: Tensor[(32), float32] /* ty=Tensor[(32), float32] */, %batch_1_1_2_moving_mean: Tensor[(32), float32] /* ty=Tensor[(32), float32] */, %batch_1_1_2_moving_var: Tensor[(32), float32] /* ty=Tensor[(32), float32] */, %conv2d_1_1_2_weight: Tensor[(128, 32, 1, 1), float32] /* ty=Tensor[(128, 32, 1, 1), float32] */, %batch_2_1_2_gamma: Tensor[(128), float32] /* ty=Tensor[(128), float32] */, %batch_2_1_2_beta: Tensor[(128), float32] /* ty=Tensor[(128), float32] */, %batch_2_1_2_moving_mean: Tensor[(128), float32] /* ty=Tensor[(128), float32] */, %batch_2_1_2_moving_var: Tensor[(128), float32] /* ty=Tensor[(128), float32] */, %conv2d_2_1_2_weight: Tensor[(32, 128, 3, 3), float32] /* ty=Tensor[(32, 128, 3, 3), float32] */, %batch_1_1_3_gamma: Tensor[(32), float32] /* ty=Tensor[(32), float32] */, %batch_1_1_3_beta: Tensor[(32), float32] /* ty=Tensor[(32), float32] */, %batch_1_1_3_moving_mean: Tensor[(32), float32] /* ty=Tensor[(32), float32] */, %batch_1_1_3_moving_var: Tensor[(32), float32] /* ty=Tensor[(32), float32] */, %conv2d_1_1_3_weight: Tensor[(128, 32, 1, 1), float32] /* ty=Tensor[(128, 32, 1, 1), float32] */, %batch_2_1_3_gamma: Tensor[(128), float32] /* ty=Tensor[(128), float32] */, %batch_2_1_3_beta: Tensor[(128), float32] /* ty=Tensor[(128), float32] */, %batch_2_1_3_moving_mean: Tensor[(128), float32] /* ty=Tensor[(128), float32] */, %batch_2_1_3_moving_var: Tensor[(128), float32] /* ty=Tensor[(128), float32] */, %conv2d_2_1_3_weight: Tensor[(32, 128, 3, 3), float32] /* ty=Tensor[(32, 128, 3, 3), float32] */, %batch_1_1_4_gamma: Tensor[(32), float32] /* ty=Tensor[(32), float32] */, %batch_1_1_4_beta: Tensor[(32), float32] /* ty=Tensor[(32), float32] */, %batch_1_1_4_moving_mean: Tensor[(32), float32] /* ty=Tensor[(32), float32] */, %batch_1_1_4_moving_var: Tensor[(32), float32] /* ty=Tensor[(32), float32] */, %conv2d_1_1_4_weight: Tensor[(128, 32, 1, 1), float32] /* ty=Tensor[(128, 32, 1, 1), float32] */, %batch_2_1_4_gamma: Tensor[(128), float32] /* ty=Tensor[(128), float32] */, %batch_2_1_4_beta: Tensor[(128), float32] /* ty=Tensor[(128), float32] */, %batch_2_1_4_moving_mean: Tensor[(128), float32] /* ty=Tensor[(128), float32] */, %batch_2_1_4_moving_var: Tensor[(128), float32] /* ty=Tensor[(128), float32] */, %conv2d_2_1_4_weight: Tensor[(32, 128, 3, 3), float32] /* ty=Tensor[(32, 128, 3, 3), float32] */, %batch_1_1_5_gamma: Tensor[(32), float32] /* ty=Tensor[(32), float32] */, %batch_1_1_5_beta: Tensor[(32), float32] /* ty=Tensor[(32), float32] */, %batch_1_1_5_moving_mean: Tensor[(32), float32] /* ty=Tensor[(32), float32] */, %batch_1_1_5_moving_var: Tensor[(32), float32] /* ty=Tensor[(32), float32] */, %conv2d_1_1_5_weight: Tensor[(128, 32, 1, 1), float32] /* ty=Tensor[(128, 32, 1, 1), float32] */, %batch_2_1_5_gamma: Tensor[(128), float32] /* ty=Tensor[(128), float32] */, %batch_2_1_5_beta: Tensor[(128), float32] /* ty=Tensor[(128), float32] */, %batch_2_1_5_moving_mean: Tensor[(128), float32] /* ty=Tensor[(128), float32] */, %batch_2_1_5_moving_var: Tensor[(128), float32] /* ty=Tensor[(128), float32] */, %conv2d_2_1_5_weight: Tensor[(32, 128, 3, 3), float32] /* ty=Tensor[(32, 128, 3, 3), float32] */, %batch_1_1_6_gamma: Tensor[(32), float32] /* ty=Tensor[(32), float32] */, %batch_1_1_6_beta: Tensor[(32), float32] /* ty=Tensor[(32), float32] */, %batch_1_1_6_moving_mean: Tensor[(32), float32] /* ty=Tensor[(32), float32] */, %batch_1_1_6_moving_var: Tensor[(32), float32] /* ty=Tensor[(32), float32] */, %conv2d_1_1_6_weight: Tensor[(128, 32, 1, 1), float32] /* ty=Tensor[(128, 32, 1, 1), float32] */, %batch_2_1_6_gamma: Tensor[(128), float32] /* ty=Tensor[(128), float32] */, %batch_2_1_6_beta: Tensor[(128), float32] /* ty=Tensor[(128), float32] */, %batch_2_1_6_moving_mean: Tensor[(128), float32] /* ty=Tensor[(128), float32] */, %batch_2_1_6_moving_var: Tensor[(128), float32] /* ty=Tensor[(128), float32] */, %conv2d_2_1_6_weight: Tensor[(32, 128, 3, 3), float32] /* ty=Tensor[(32, 128, 3, 3), float32] */, %batch_1_1_7_gamma: Tensor[(32), float32] /* ty=Tensor[(32), float32] */, %batch_1_1_7_beta: Tensor[(32), float32] /* ty=Tensor[(32), float32] */, %batch_1_1_7_moving_mean: Tensor[(32), float32] /* ty=Tensor[(32), float32] */, %batch_1_1_7_moving_var: Tensor[(32), float32] /* ty=Tensor[(32), float32] */, %conv2d_1_1_7_weight: Tensor[(128, 32, 1, 1), float32] /* ty=Tensor[(128, 32, 1, 1), float32] */, %batch_2_1_7_gamma: Tensor[(128), float32] /* ty=Tensor[(128), float32] */, %batch_2_1_7_beta: Tensor[(128), float32] /* ty=Tensor[(128), float32] */, %batch_2_1_7_moving_mean: Tensor[(128), float32] /* ty=Tensor[(128), float32] */, %batch_2_1_7_moving_var: Tensor[(128), float32] /* ty=Tensor[(128), float32] */, %conv2d_2_1_7_weight: Tensor[(32, 128, 3, 3), float32] /* ty=Tensor[(32, 128, 3, 3), float32] */, %batch_1_1_8_gamma: Tensor[(32), float32] /* ty=Tensor[(32), float32] */, %batch_1_1_8_beta: Tensor[(32), float32] /* ty=Tensor[(32), float32] */, %batch_1_1_8_moving_mean: Tensor[(32), float32] /* ty=Tensor[(32), float32] */, %batch_1_1_8_moving_var: Tensor[(32), float32] /* ty=Tensor[(32), float32] */, %conv2d_1_1_8_weight: Tensor[(128, 32, 1, 1), float32] /* ty=Tensor[(128, 32, 1, 1), float32] */, %batch_2_1_8_gamma: Tensor[(128), float32] /* ty=Tensor[(128), float32] */, %batch_2_1_8_beta: Tensor[(128), float32] /* ty=Tensor[(128), float32] */, %batch_2_1_8_moving_mean: Tensor[(128), float32] /* ty=Tensor[(128), float32] */, %batch_2_1_8_moving_var: Tensor[(128), float32] /* ty=Tensor[(128), float32] */, %conv2d_2_1_8_weight: Tensor[(32, 128, 3, 3), float32] /* ty=Tensor[(32, 128, 3, 3), float32] */, %batch_1_1_9_gamma: Tensor[(32), float32] /* ty=Tensor[(32), float32] */, %batch_1_1_9_beta: Tensor[(32), float32] /* ty=Tensor[(32), float32] */, %batch_1_1_9_moving_mean: Tensor[(32), float32] /* ty=Tensor[(32), float32] */, %batch_1_1_9_moving_var: Tensor[(32), float32] /* ty=Tensor[(32), float32] */, %conv2d_1_1_9_weight: Tensor[(128, 32, 1, 1), float32] /* ty=Tensor[(128, 32, 1, 1), float32] */, %batch_2_1_9_gamma: Tensor[(128), float32] /* ty=Tensor[(128), float32] */, %batch_2_1_9_beta: Tensor[(128), float32] /* ty=Tensor[(128), float32] */, %batch_2_1_9_moving_mean: Tensor[(128), float32] /* ty=Tensor[(128), float32] */, %batch_2_1_9_moving_var: Tensor[(128), float32] /* ty=Tensor[(128), float32] */, %conv2d_2_1_9_weight: Tensor[(32, 128, 3, 3), float32] /* ty=Tensor[(32, 128, 3, 3), float32] */, %batch_1_1_10_gamma: Tensor[(32), float32] /* ty=Tensor[(32), float32] */, %batch_1_1_10_beta: Tensor[(32), float32] /* ty=Tensor[(32), float32] */, %batch_1_1_10_moving_mean: Tensor[(32), float32] /* ty=Tensor[(32), float32] */, %batch_1_1_10_moving_var: Tensor[(32), float32] /* ty=Tensor[(32), float32] */, %conv2d_1_1_10_weight: Tensor[(128, 32, 1, 1), float32] /* ty=Tensor[(128, 32, 1, 1), float32] */, %batch_2_1_10_gamma: Tensor[(128), float32] /* ty=Tensor[(128), float32] */, %batch_2_1_10_beta: Tensor[(128), float32] /* ty=Tensor[(128), float32] */, %batch_2_1_10_moving_mean: Tensor[(128), float32] /* ty=Tensor[(128), float32] */, %batch_2_1_10_moving_var: Tensor[(128), float32] /* ty=Tensor[(128), float32] */, %conv2d_2_1_10_weight: Tensor[(32, 128, 3, 3), float32] /* ty=Tensor[(32, 128, 3, 3), float32] */, %batch_1_1_11_gamma: Tensor[(32), float32] /* ty=Tensor[(32), float32] */, %batch_1_1_11_beta: Tensor[(32), float32] /* ty=Tensor[(32), float32] */, %batch_1_1_11_moving_mean: Tensor[(32), float32] /* ty=Tensor[(32), float32] */, %batch_1_1_11_moving_var: Tensor[(32), float32] /* ty=Tensor[(32), float32] */, %conv2d_1_1_11_weight: Tensor[(128, 32, 1, 1), float32] /* ty=Tensor[(128, 32, 1, 1), float32] */, %batch_2_1_11_gamma: Tensor[(128), float32] /* ty=Tensor[(128), float32] */, %batch_2_1_11_beta: Tensor[(128), float32] /* ty=Tensor[(128), float32] */, %batch_2_1_11_moving_mean: Tensor[(128), float32] /* ty=Tensor[(128), float32] */, %batch_2_1_11_moving_var: Tensor[(128), float32] /* ty=Tensor[(128), float32] */, %conv2d_2_1_11_weight: Tensor[(32, 128, 3, 3), float32] /* ty=Tensor[(32, 128, 3, 3), float32] */, %batch_t_1_gamma: Tensor[(384), float32] /* ty=Tensor[(384), float32] */, %batch_t_1_beta: Tensor[(384), float32] /* ty=Tensor[(384), float32] */, %batch_t_1_moving_mean: Tensor[(384), float32] /* ty=Tensor[(384), float32] */, %batch_t_1_moving_var: Tensor[(384), float32] /* ty=Tensor[(384), float32] */, %conv_t_1_weight: Tensor[(256, 384, 1, 1), float32] /* ty=Tensor[(256, 384, 1, 1), float32] */, %batch_1_2_0_gamma: Tensor[(256), float32] /* ty=Tensor[(256), float32] */, %batch_1_2_0_beta: Tensor[(256), float32] /* ty=Tensor[(256), float32] */, %batch_1_2_0_moving_mean: Tensor[(256), float32] /* ty=Tensor[(256), float32] */, %batch_1_2_0_moving_var: Tensor[(256), float32] /* ty=Tensor[(256), float32] */, %conv2d_1_2_0_weight: Tensor[(128, 256, 1, 1), float32] /* ty=Tensor[(128, 256, 1, 1), float32] */, %batch_2_2_0_gamma: Tensor[(128), float32] /* ty=Tensor[(128), float32] */, %batch_2_2_0_beta: Tensor[(128), float32] /* ty=Tensor[(128), float32] */, %batch_2_2_0_moving_mean: Tensor[(128), float32] /* ty=Tensor[(128), float32] */, %batch_2_2_0_moving_var: Tensor[(128), float32] /* ty=Tensor[(128), float32] */, %conv2d_2_2_0_weight: Tensor[(32, 128, 3, 3), float32] /* ty=Tensor[(32, 128, 3, 3), float32] */, %batch_1_2_1_gamma: Tensor[(32), float32] /* ty=Tensor[(32), float32] */, %batch_1_2_1_beta: Tensor[(32), float32] /* ty=Tensor[(32), float32] */, %batch_1_2_1_moving_mean: Tensor[(32), float32] /* ty=Tensor[(32), float32] */, %batch_1_2_1_moving_var: Tensor[(32), float32] /* ty=Tensor[(32), float32] */, %conv2d_1_2_1_weight: Tensor[(128, 32, 1, 1), float32] /* ty=Tensor[(128, 32, 1, 1), float32] */, %batch_2_2_1_gamma: Tensor[(128), float32] /* ty=Tensor[(128), float32] */, %batch_2_2_1_beta: Tensor[(128), float32] /* ty=Tensor[(128), float32] */, %batch_2_2_1_moving_mean: Tensor[(128), float32] /* ty=Tensor[(128), float32] */, %batch_2_2_1_moving_var: Tensor[(128), float32] /* ty=Tensor[(128), float32] */, %conv2d_2_2_1_weight: Tensor[(32, 128, 3, 3), float32] /* ty=Tensor[(32, 128, 3, 3), float32] */, %batch_1_2_2_gamma: Tensor[(32), float32] /* ty=Tensor[(32), float32] */, %batch_1_2_2_beta: Tensor[(32), float32] /* ty=Tensor[(32), float32] */, %batch_1_2_2_moving_mean: Tensor[(32), float32] /* ty=Tensor[(32), float32] */, %batch_1_2_2_moving_var: Tensor[(32), float32] /* ty=Tensor[(32), float32] */, %conv2d_1_2_2_weight: Tensor[(128, 32, 1, 1), float32] /* ty=Tensor[(128, 32, 1, 1), float32] */, %batch_2_2_2_gamma: Tensor[(128), float32] /* ty=Tensor[(128), float32] */, %batch_2_2_2_beta: Tensor[(128), float32] /* ty=Tensor[(128), float32] */, %batch_2_2_2_moving_mean: Tensor[(128), float32] /* ty=Tensor[(128), float32] */, %batch_2_2_2_moving_var: Tensor[(128), float32] /* ty=Tensor[(128), float32] */, %conv2d_2_2_2_weight: Tensor[(32, 128, 3, 3), float32] /* ty=Tensor[(32, 128, 3, 3), float32] */, %batch_1_2_3_gamma: Tensor[(32), float32] /* ty=Tensor[(32), float32] */, %batch_1_2_3_beta: Tensor[(32), float32] /* ty=Tensor[(32), float32] */, %batch_1_2_3_moving_mean: Tensor[(32), float32] /* ty=Tensor[(32), float32] */, %batch_1_2_3_moving_var: Tensor[(32), float32] /* ty=Tensor[(32), float32] */, %conv2d_1_2_3_weight: Tensor[(128, 32, 1, 1), float32] /* ty=Tensor[(128, 32, 1, 1), float32] */, %batch_2_2_3_gamma: Tensor[(128), float32] /* ty=Tensor[(128), float32] */, %batch_2_2_3_beta: Tensor[(128), float32] /* ty=Tensor[(128), float32] */, %batch_2_2_3_moving_mean: Tensor[(128), float32] /* ty=Tensor[(128), float32] */, %batch_2_2_3_moving_var: Tensor[(128), float32] /* ty=Tensor[(128), float32] */, %conv2d_2_2_3_weight: Tensor[(32, 128, 3, 3), float32] /* ty=Tensor[(32, 128, 3, 3), float32] */, %batch_1_2_4_gamma: Tensor[(32), float32] /* ty=Tensor[(32), float32] */, %batch_1_2_4_beta: Tensor[(32), float32] /* ty=Tensor[(32), float32] */, %batch_1_2_4_moving_mean: Tensor[(32), float32] /* ty=Tensor[(32), float32] */, %batch_1_2_4_moving_var: Tensor[(32), float32] /* ty=Tensor[(32), float32] */, %conv2d_1_2_4_weight: Tensor[(128, 32, 1, 1), float32] /* ty=Tensor[(128, 32, 1, 1), float32] */, %batch_2_2_4_gamma: Tensor[(128), float32] /* ty=Tensor[(128), float32] */, %batch_2_2_4_beta: Tensor[(128), float32] /* ty=Tensor[(128), float32] */, %batch_2_2_4_moving_mean: Tensor[(128), float32] /* ty=Tensor[(128), float32] */, %batch_2_2_4_moving_var: Tensor[(128), float32] /* ty=Tensor[(128), float32] */, %conv2d_2_2_4_weight: Tensor[(32, 128, 3, 3), float32] /* ty=Tensor[(32, 128, 3, 3), float32] */, %batch_1_2_5_gamma: Tensor[(32), float32] /* ty=Tensor[(32), float32] */, %batch_1_2_5_beta: Tensor[(32), float32] /* ty=Tensor[(32), float32] */, %batch_1_2_5_moving_mean: Tensor[(32), float32] /* ty=Tensor[(32), float32] */, %batch_1_2_5_moving_var: Tensor[(32), float32] /* ty=Tensor[(32), float32] */, %conv2d_1_2_5_weight: Tensor[(128, 32, 1, 1), float32] /* ty=Tensor[(128, 32, 1, 1), float32] */, %batch_2_2_5_gamma: Tensor[(128), float32] /* ty=Tensor[(128), float32] */, %batch_2_2_5_beta: Tensor[(128), float32] /* ty=Tensor[(128), float32] */, %batch_2_2_5_moving_mean: Tensor[(128), float32] /* ty=Tensor[(128), float32] */, %batch_2_2_5_moving_var: Tensor[(128), float32] /* ty=Tensor[(128), float32] */, %conv2d_2_2_5_weight: Tensor[(32, 128, 3, 3), float32] /* ty=Tensor[(32, 128, 3, 3), float32] */, %batch_1_2_6_gamma: Tensor[(32), float32] /* ty=Tensor[(32), float32] */, %batch_1_2_6_beta: Tensor[(32), float32] /* ty=Tensor[(32), float32] */, %batch_1_2_6_moving_mean: Tensor[(32), float32] /* ty=Tensor[(32), float32] */, %batch_1_2_6_moving_var: Tensor[(32), float32] /* ty=Tensor[(32), float32] */, %conv2d_1_2_6_weight: Tensor[(128, 32, 1, 1), float32] /* ty=Tensor[(128, 32, 1, 1), float32] */, %batch_2_2_6_gamma: Tensor[(128), float32] /* ty=Tensor[(128), float32] */, %batch_2_2_6_beta: Tensor[(128), float32] /* ty=Tensor[(128), float32] */, %batch_2_2_6_moving_mean: Tensor[(128), float32] /* ty=Tensor[(128), float32] */, %batch_2_2_6_moving_var: Tensor[(128), float32] /* ty=Tensor[(128), float32] */, %conv2d_2_2_6_weight: Tensor[(32, 128, 3, 3), float32] /* ty=Tensor[(32, 128, 3, 3), float32] */, %batch_1_2_7_gamma: Tensor[(32), float32] /* ty=Tensor[(32), float32] */, %batch_1_2_7_beta: Tensor[(32), float32] /* ty=Tensor[(32), float32] */, %batch_1_2_7_moving_mean: Tensor[(32), float32] /* ty=Tensor[(32), float32] */, %batch_1_2_7_moving_var: Tensor[(32), float32] /* ty=Tensor[(32), float32] */, %conv2d_1_2_7_weight: Tensor[(128, 32, 1, 1), float32] /* ty=Tensor[(128, 32, 1, 1), float32] */, %batch_2_2_7_gamma: Tensor[(128), float32] /* ty=Tensor[(128), float32] */, %batch_2_2_7_beta: Tensor[(128), float32] /* ty=Tensor[(128), float32] */, %batch_2_2_7_moving_mean: Tensor[(128), float32] /* ty=Tensor[(128), float32] */, %batch_2_2_7_moving_var: Tensor[(128), float32] /* ty=Tensor[(128), float32] */, %conv2d_2_2_7_weight: Tensor[(32, 128, 3, 3), float32] /* ty=Tensor[(32, 128, 3, 3), float32] */, %batch_1_2_8_gamma: Tensor[(32), float32] /* ty=Tensor[(32), float32] */, %batch_1_2_8_beta: Tensor[(32), float32] /* ty=Tensor[(32), float32] */, %batch_1_2_8_moving_mean: Tensor[(32), float32] /* ty=Tensor[(32), float32] */, %batch_1_2_8_moving_var: Tensor[(32), float32] /* ty=Tensor[(32), float32] */, %conv2d_1_2_8_weight: Tensor[(128, 32, 1, 1), float32] /* ty=Tensor[(128, 32, 1, 1), float32] */, %batch_2_2_8_gamma: Tensor[(128), float32] /* ty=Tensor[(128), float32] */, %batch_2_2_8_beta: Tensor[(128), float32] /* ty=Tensor[(128), float32] */, %batch_2_2_8_moving_mean: Tensor[(128), float32] /* ty=Tensor[(128), float32] */, %batch_2_2_8_moving_var: Tensor[(128), float32] /* ty=Tensor[(128), float32] */, %conv2d_2_2_8_weight: Tensor[(32, 128, 3, 3), float32] /* ty=Tensor[(32, 128, 3, 3), float32] */, %batch_1_2_9_gamma: Tensor[(32), float32] /* ty=Tensor[(32), float32] */, %batch_1_2_9_beta: Tensor[(32), float32] /* ty=Tensor[(32), float32] */, %batch_1_2_9_moving_mean: Tensor[(32), float32] /* ty=Tensor[(32), float32] */, %batch_1_2_9_moving_var: Tensor[(32), float32] /* ty=Tensor[(32), float32] */, %conv2d_1_2_9_weight: Tensor[(128, 32, 1, 1), float32] /* ty=Tensor[(128, 32, 1, 1), float32] */, %batch_2_2_9_gamma: Tensor[(128), float32] /* ty=Tensor[(128), float32] */, %batch_2_2_9_beta: Tensor[(128), float32] /* ty=Tensor[(128), float32] */, %batch_2_2_9_moving_mean: Tensor[(128), float32] /* ty=Tensor[(128), float32] */, %batch_2_2_9_moving_var: Tensor[(128), float32] /* ty=Tensor[(128), float32] */, %conv2d_2_2_9_weight: Tensor[(32, 128, 3, 3), float32] /* ty=Tensor[(32, 128, 3, 3), float32] */, %batch_1_2_10_gamma: Tensor[(32), float32] /* ty=Tensor[(32), float32] */, %batch_1_2_10_beta: Tensor[(32), float32] /* ty=Tensor[(32), float32] */, %batch_1_2_10_moving_mean: Tensor[(32), float32] /* ty=Tensor[(32), float32] */, %batch_1_2_10_moving_var: Tensor[(32), float32] /* ty=Tensor[(32), float32] */, %conv2d_1_2_10_weight: Tensor[(128, 32, 1, 1), float32] /* ty=Tensor[(128, 32, 1, 1), float32] */, %batch_2_2_10_gamma: Tensor[(128), float32] /* ty=Tensor[(128), float32] */, %batch_2_2_10_beta: Tensor[(128), float32] /* ty=Tensor[(128), float32] */, %batch_2_2_10_moving_mean: Tensor[(128), float32] /* ty=Tensor[(128), float32] */, %batch_2_2_10_moving_var: Tensor[(128), float32] /* ty=Tensor[(128), float32] */, %conv2d_2_2_10_weight: Tensor[(32, 128, 3, 3), float32] /* ty=Tensor[(32, 128, 3, 3), float32] */, %batch_1_2_11_gamma: Tensor[(32), float32] /* ty=Tensor[(32), float32] */, %batch_1_2_11_beta: Tensor[(32), float32] /* ty=Tensor[(32), float32] */, %batch_1_2_11_moving_mean: Tensor[(32), float32] /* ty=Tensor[(32), float32] */, %batch_1_2_11_moving_var: Tensor[(32), float32] /* ty=Tensor[(32), float32] */, %conv2d_1_2_11_weight: Tensor[(128, 32, 1, 1), float32] /* ty=Tensor[(128, 32, 1, 1), float32] */, %batch_2_2_11_gamma: Tensor[(128), float32] /* ty=Tensor[(128), float32] */, %batch_2_2_11_beta: Tensor[(128), float32] /* ty=Tensor[(128), float32] */, %batch_2_2_11_moving_mean: Tensor[(128), float32] /* ty=Tensor[(128), float32] */, %batch_2_2_11_moving_var: Tensor[(128), float32] /* ty=Tensor[(128), float32] */, %conv2d_2_2_11_weight: Tensor[(32, 128, 3, 3), float32] /* ty=Tensor[(32, 128, 3, 3), float32] */, %batch_1_2_12_gamma: Tensor[(32), float32] /* ty=Tensor[(32), float32] */, %batch_1_2_12_beta: Tensor[(32), float32] /* ty=Tensor[(32), float32] */, %batch_1_2_12_moving_mean: Tensor[(32), float32] /* ty=Tensor[(32), float32] */, %batch_1_2_12_moving_var: Tensor[(32), float32] /* ty=Tensor[(32), float32] */, %conv2d_1_2_12_weight: Tensor[(128, 32, 1, 1), float32] /* ty=Tensor[(128, 32, 1, 1), float32] */, %batch_2_2_12_gamma: Tensor[(128), float32] /* ty=Tensor[(128), float32] */, %batch_2_2_12_beta: Tensor[(128), float32] /* ty=Tensor[(128), float32] */, %batch_2_2_12_moving_mean: Tensor[(128), float32] /* ty=Tensor[(128), float32] */, %batch_2_2_12_moving_var: Tensor[(128), float32] /* ty=Tensor[(128), float32] */, %conv2d_2_2_12_weight: Tensor[(32, 128, 3, 3), float32] /* ty=Tensor[(32, 128, 3, 3), float32] */, %batch_1_2_13_gamma: Tensor[(32), float32] /* ty=Tensor[(32), float32] */, %batch_1_2_13_beta: Tensor[(32), float32] /* ty=Tensor[(32), float32] */, %batch_1_2_13_moving_mean: Tensor[(32), float32] /* ty=Tensor[(32), float32] */, %batch_1_2_13_moving_var: Tensor[(32), float32] /* ty=Tensor[(32), float32] */, %conv2d_1_2_13_weight: Tensor[(128, 32, 1, 1), float32] /* ty=Tensor[(128, 32, 1, 1), float32] */, %batch_2_2_13_gamma: Tensor[(128), float32] /* ty=Tensor[(128), float32] */, %batch_2_2_13_beta: Tensor[(128), float32] /* ty=Tensor[(128), float32] */, %batch_2_2_13_moving_mean: Tensor[(128), float32] /* ty=Tensor[(128), float32] */, %batch_2_2_13_moving_var: Tensor[(128), float32] /* ty=Tensor[(128), float32] */, %conv2d_2_2_13_weight: Tensor[(32, 128, 3, 3), float32] /* ty=Tensor[(32, 128, 3, 3), float32] */, %batch_1_2_14_gamma: Tensor[(32), float32] /* ty=Tensor[(32), float32] */, %batch_1_2_14_beta: Tensor[(32), float32] /* ty=Tensor[(32), float32] */, %batch_1_2_14_moving_mean: Tensor[(32), float32] /* ty=Tensor[(32), float32] */, %batch_1_2_14_moving_var: Tensor[(32), float32] /* ty=Tensor[(32), float32] */, %conv2d_1_2_14_weight: Tensor[(128, 32, 1, 1), float32] /* ty=Tensor[(128, 32, 1, 1), float32] */, %batch_2_2_14_gamma: Tensor[(128), float32] /* ty=Tensor[(128), float32] */, %batch_2_2_14_beta: Tensor[(128), float32] /* ty=Tensor[(128), float32] */, %batch_2_2_14_moving_mean: Tensor[(128), float32] /* ty=Tensor[(128), float32] */, %batch_2_2_14_moving_var: Tensor[(128), float32] /* ty=Tensor[(128), float32] */, %conv2d_2_2_14_weight: Tensor[(32, 128, 3, 3), float32] /* ty=Tensor[(32, 128, 3, 3), float32] */, %batch_1_2_15_gamma: Tensor[(32), float32] /* ty=Tensor[(32), float32] */, %batch_1_2_15_beta: Tensor[(32), float32] /* ty=Tensor[(32), float32] */, %batch_1_2_15_moving_mean: Tensor[(32), float32] /* ty=Tensor[(32), float32] */, %batch_1_2_15_moving_var: Tensor[(32), float32] /* ty=Tensor[(32), float32] */, %conv2d_1_2_15_weight: Tensor[(128, 32, 1, 1), float32] /* ty=Tensor[(128, 32, 1, 1), float32] */, %batch_2_2_15_gamma: Tensor[(128), float32] /* ty=Tensor[(128), float32] */, %batch_2_2_15_beta: Tensor[(128), float32] /* ty=Tensor[(128), float32] */, %batch_2_2_15_moving_mean: Tensor[(128), float32] /* ty=Tensor[(128), float32] */, %batch_2_2_15_moving_var: Tensor[(128), float32] /* ty=Tensor[(128), float32] */, %conv2d_2_2_15_weight: Tensor[(32, 128, 3, 3), float32] /* ty=Tensor[(32, 128, 3, 3), float32] */, %batch_1_2_16_gamma: Tensor[(32), float32] /* ty=Tensor[(32), float32] */, %batch_1_2_16_beta: Tensor[(32), float32] /* ty=Tensor[(32), float32] */, %batch_1_2_16_moving_mean: Tensor[(32), float32] /* ty=Tensor[(32), float32] */, %batch_1_2_16_moving_var: Tensor[(32), float32] /* ty=Tensor[(32), float32] */, %conv2d_1_2_16_weight: Tensor[(128, 32, 1, 1), float32] /* ty=Tensor[(128, 32, 1, 1), float32] */, %batch_2_2_16_gamma: Tensor[(128), float32] /* ty=Tensor[(128), float32] */, %batch_2_2_16_beta: Tensor[(128), float32] /* ty=Tensor[(128), float32] */, %batch_2_2_16_moving_mean: Tensor[(128), float32] /* ty=Tensor[(128), float32] */, %batch_2_2_16_moving_var: Tensor[(128), float32] /* ty=Tensor[(128), float32] */, %conv2d_2_2_16_weight: Tensor[(32, 128, 3, 3), float32] /* ty=Tensor[(32, 128, 3, 3), float32] */, %batch_1_2_17_gamma: Tensor[(32), float32] /* ty=Tensor[(32), float32] */, %batch_1_2_17_beta: Tensor[(32), float32] /* ty=Tensor[(32), float32] */, %batch_1_2_17_moving_mean: Tensor[(32), float32] /* ty=Tensor[(32), float32] */, %batch_1_2_17_moving_var: Tensor[(32), float32] /* ty=Tensor[(32), float32] */, %conv2d_1_2_17_weight: Tensor[(128, 32, 1, 1), float32] /* ty=Tensor[(128, 32, 1, 1), float32] */, %batch_2_2_17_gamma: Tensor[(128), float32] /* ty=Tensor[(128), float32] */, %batch_2_2_17_beta: Tensor[(128), float32] /* ty=Tensor[(128), float32] */, %batch_2_2_17_moving_mean: Tensor[(128), float32] /* ty=Tensor[(128), float32] */, %batch_2_2_17_moving_var: Tensor[(128), float32] /* ty=Tensor[(128), float32] */, %conv2d_2_2_17_weight: Tensor[(32, 128, 3, 3), float32] /* ty=Tensor[(32, 128, 3, 3), float32] */, %batch_1_2_18_gamma: Tensor[(32), float32] /* ty=Tensor[(32), float32] */, %batch_1_2_18_beta: Tensor[(32), float32] /* ty=Tensor[(32), float32] */, %batch_1_2_18_moving_mean: Tensor[(32), float32] /* ty=Tensor[(32), float32] */, %batch_1_2_18_moving_var: Tensor[(32), float32] /* ty=Tensor[(32), float32] */, %conv2d_1_2_18_weight: Tensor[(128, 32, 1, 1), float32] /* ty=Tensor[(128, 32, 1, 1), float32] */, %batch_2_2_18_gamma: Tensor[(128), float32] /* ty=Tensor[(128), float32] */, %batch_2_2_18_beta: Tensor[(128), float32] /* ty=Tensor[(128), float32] */, %batch_2_2_18_moving_mean: Tensor[(128), float32] /* ty=Tensor[(128), float32] */, %batch_2_2_18_moving_var: Tensor[(128), float32] /* ty=Tensor[(128), float32] */, %conv2d_2_2_18_weight: Tensor[(32, 128, 3, 3), float32] /* ty=Tensor[(32, 128, 3, 3), float32] */, %batch_1_2_19_gamma: Tensor[(32), float32] /* ty=Tensor[(32), float32] */, %batch_1_2_19_beta: Tensor[(32), float32] /* ty=Tensor[(32), float32] */, %batch_1_2_19_moving_mean: Tensor[(32), float32] /* ty=Tensor[(32), float32] */, %batch_1_2_19_moving_var: Tensor[(32), float32] /* ty=Tensor[(32), float32] */, %conv2d_1_2_19_weight: Tensor[(128, 32, 1, 1), float32] /* ty=Tensor[(128, 32, 1, 1), float32] */, %batch_2_2_19_gamma: Tensor[(128), float32] /* ty=Tensor[(128), float32] */, %batch_2_2_19_beta: Tensor[(128), float32] /* ty=Tensor[(128), float32] */, %batch_2_2_19_moving_mean: Tensor[(128), float32] /* ty=Tensor[(128), float32] */, %batch_2_2_19_moving_var: Tensor[(128), float32] /* ty=Tensor[(128), float32] */, %conv2d_2_2_19_weight: Tensor[(32, 128, 3, 3), float32] /* ty=Tensor[(32, 128, 3, 3), float32] */, %batch_1_2_20_gamma: Tensor[(32), float32] /* ty=Tensor[(32), float32] */, %batch_1_2_20_beta: Tensor[(32), float32] /* ty=Tensor[(32), float32] */, %batch_1_2_20_moving_mean: Tensor[(32), float32] /* ty=Tensor[(32), float32] */, %batch_1_2_20_moving_var: Tensor[(32), float32] /* ty=Tensor[(32), float32] */, %conv2d_1_2_20_weight: Tensor[(128, 32, 1, 1), float32] /* ty=Tensor[(128, 32, 1, 1), float32] */, %batch_2_2_20_gamma: Tensor[(128), float32] /* ty=Tensor[(128), float32] */, %batch_2_2_20_beta: Tensor[(128), float32] /* ty=Tensor[(128), float32] */, %batch_2_2_20_moving_mean: Tensor[(128), float32] /* ty=Tensor[(128), float32] */, %batch_2_2_20_moving_var: Tensor[(128), float32] /* ty=Tensor[(128), float32] */, %conv2d_2_2_20_weight: Tensor[(32, 128, 3, 3), float32] /* ty=Tensor[(32, 128, 3, 3), float32] */, %batch_1_2_21_gamma: Tensor[(32), float32] /* ty=Tensor[(32), float32] */, %batch_1_2_21_beta: Tensor[(32), float32] /* ty=Tensor[(32), float32] */, %batch_1_2_21_moving_mean: Tensor[(32), float32] /* ty=Tensor[(32), float32] */, %batch_1_2_21_moving_var: Tensor[(32), float32] /* ty=Tensor[(32), float32] */, %conv2d_1_2_21_weight: Tensor[(128, 32, 1, 1), float32] /* ty=Tensor[(128, 32, 1, 1), float32] */, %batch_2_2_21_gamma: Tensor[(128), float32] /* ty=Tensor[(128), float32] */, %batch_2_2_21_beta: Tensor[(128), float32] /* ty=Tensor[(128), float32] */, %batch_2_2_21_moving_mean: Tensor[(128), float32] /* ty=Tensor[(128), float32] */, %batch_2_2_21_moving_var: Tensor[(128), float32] /* ty=Tensor[(128), float32] */, %conv2d_2_2_21_weight: Tensor[(32, 128, 3, 3), float32] /* ty=Tensor[(32, 128, 3, 3), float32] */, %batch_1_2_22_gamma: Tensor[(32), float32] /* ty=Tensor[(32), float32] */, %batch_1_2_22_beta: Tensor[(32), float32] /* ty=Tensor[(32), float32] */, %batch_1_2_22_moving_mean: Tensor[(32), float32] /* ty=Tensor[(32), float32] */, %batch_1_2_22_moving_var: Tensor[(32), float32] /* ty=Tensor[(32), float32] */, %conv2d_1_2_22_weight: Tensor[(128, 32, 1, 1), float32] /* ty=Tensor[(128, 32, 1, 1), float32] */, %batch_2_2_22_gamma: Tensor[(128), float32] /* ty=Tensor[(128), float32] */, %batch_2_2_22_beta: Tensor[(128), float32] /* ty=Tensor[(128), float32] */, %batch_2_2_22_moving_mean: Tensor[(128), float32] /* ty=Tensor[(128), float32] */, %batch_2_2_22_moving_var: Tensor[(128), float32] /* ty=Tensor[(128), float32] */, %conv2d_2_2_22_weight: Tensor[(32, 128, 3, 3), float32] /* ty=Tensor[(32, 128, 3, 3), float32] */, %batch_1_2_23_gamma: Tensor[(32), float32] /* ty=Tensor[(32), float32] */, %batch_1_2_23_beta: Tensor[(32), float32] /* ty=Tensor[(32), float32] */, %batch_1_2_23_moving_mean: Tensor[(32), float32] /* ty=Tensor[(32), float32] */, %batch_1_2_23_moving_var: Tensor[(32), float32] /* ty=Tensor[(32), float32] */, %conv2d_1_2_23_weight: Tensor[(128, 32, 1, 1), float32] /* ty=Tensor[(128, 32, 1, 1), float32] */, %batch_2_2_23_gamma: Tensor[(128), float32] /* ty=Tensor[(128), float32] */, %batch_2_2_23_beta: Tensor[(128), float32] /* ty=Tensor[(128), float32] */, %batch_2_2_23_moving_mean: Tensor[(128), float32] /* ty=Tensor[(128), float32] */, %batch_2_2_23_moving_var: Tensor[(128), float32] /* ty=Tensor[(128), float32] */, %conv2d_2_2_23_weight: Tensor[(32, 128, 3, 3), float32] /* ty=Tensor[(32, 128, 3, 3), float32] */, %batch_t_2_gamma: Tensor[(768), float32] /* ty=Tensor[(768), float32] */, %batch_t_2_beta: Tensor[(768), float32] /* ty=Tensor[(768), float32] */, %batch_t_2_moving_mean: Tensor[(768), float32] /* ty=Tensor[(768), float32] */, %batch_t_2_moving_var: Tensor[(768), float32] /* ty=Tensor[(768), float32] */, %conv_t_2_weight: Tensor[(512, 768, 1, 1), float32] /* ty=Tensor[(512, 768, 1, 1), float32] */, %batch_1_3_0_gamma: Tensor[(512), float32] /* ty=Tensor[(512), float32] */, %batch_1_3_0_beta: Tensor[(512), float32] /* ty=Tensor[(512), float32] */, %batch_1_3_0_moving_mean: Tensor[(512), float32] /* ty=Tensor[(512), float32] */, %batch_1_3_0_moving_var: Tensor[(512), float32] /* ty=Tensor[(512), float32] */, %conv2d_1_3_0_weight: Tensor[(128, 512, 1, 1), float32] /* ty=Tensor[(128, 512, 1, 1), float32] */, %batch_2_3_0_gamma: Tensor[(128), float32] /* ty=Tensor[(128), float32] */, %batch_2_3_0_beta: Tensor[(128), float32] /* ty=Tensor[(128), float32] */, %batch_2_3_0_moving_mean: Tensor[(128), float32] /* ty=Tensor[(128), float32] */, %batch_2_3_0_moving_var: Tensor[(128), float32] /* ty=Tensor[(128), float32] */, %conv2d_2_3_0_weight: Tensor[(32, 128, 3, 3), float32] /* ty=Tensor[(32, 128, 3, 3), float32] */, %batch_1_3_1_gamma: Tensor[(32), float32] /* ty=Tensor[(32), float32] */, %batch_1_3_1_beta: Tensor[(32), float32] /* ty=Tensor[(32), float32] */, %batch_1_3_1_moving_mean: Tensor[(32), float32] /* ty=Tensor[(32), float32] */, %batch_1_3_1_moving_var: Tensor[(32), float32] /* ty=Tensor[(32), float32] */, %conv2d_1_3_1_weight: Tensor[(128, 32, 1, 1), float32] /* ty=Tensor[(128, 32, 1, 1), float32] */, %batch_2_3_1_gamma: Tensor[(128), float32] /* ty=Tensor[(128), float32] */, %batch_2_3_1_beta: Tensor[(128), float32] /* ty=Tensor[(128), float32] */, %batch_2_3_1_moving_mean: Tensor[(128), float32] /* ty=Tensor[(128), float32] */, %batch_2_3_1_moving_var: Tensor[(128), float32] /* ty=Tensor[(128), float32] */, %conv2d_2_3_1_weight: Tensor[(32, 128, 3, 3), float32] /* ty=Tensor[(32, 128, 3, 3), float32] */, %batch_1_3_2_gamma: Tensor[(32), float32] /* ty=Tensor[(32), float32] */, %batch_1_3_2_beta: Tensor[(32), float32] /* ty=Tensor[(32), float32] */, %batch_1_3_2_moving_mean: Tensor[(32), float32] /* ty=Tensor[(32), float32] */, %batch_1_3_2_moving_var: Tensor[(32), float32] /* ty=Tensor[(32), float32] */, %conv2d_1_3_2_weight: Tensor[(128, 32, 1, 1), float32] /* ty=Tensor[(128, 32, 1, 1), float32] */, %batch_2_3_2_gamma: Tensor[(128), float32] /* ty=Tensor[(128), float32] */, %batch_2_3_2_beta: Tensor[(128), float32] /* ty=Tensor[(128), float32] */, %batch_2_3_2_moving_mean: Tensor[(128), float32] /* ty=Tensor[(128), float32] */, %batch_2_3_2_moving_var: Tensor[(128), float32] /* ty=Tensor[(128), float32] */, %conv2d_2_3_2_weight: Tensor[(32, 128, 3, 3), float32] /* ty=Tensor[(32, 128, 3, 3), float32] */, %batch_1_3_3_gamma: Tensor[(32), float32] /* ty=Tensor[(32), float32] */, %batch_1_3_3_beta: Tensor[(32), float32] /* ty=Tensor[(32), float32] */, %batch_1_3_3_moving_mean: Tensor[(32), float32] /* ty=Tensor[(32), float32] */, %batch_1_3_3_moving_var: Tensor[(32), float32] /* ty=Tensor[(32), float32] */, %conv2d_1_3_3_weight: Tensor[(128, 32, 1, 1), float32] /* ty=Tensor[(128, 32, 1, 1), float32] */, %batch_2_3_3_gamma: Tensor[(128), float32] /* ty=Tensor[(128), float32] */, %batch_2_3_3_beta: Tensor[(128), float32] /* ty=Tensor[(128), float32] */, %batch_2_3_3_moving_mean: Tensor[(128), float32] /* ty=Tensor[(128), float32] */, %batch_2_3_3_moving_var: Tensor[(128), float32] /* ty=Tensor[(128), float32] */, %conv2d_2_3_3_weight: Tensor[(32, 128, 3, 3), float32] /* ty=Tensor[(32, 128, 3, 3), float32] */, %batch_1_3_4_gamma: Tensor[(32), float32] /* ty=Tensor[(32), float32] */, %batch_1_3_4_beta: Tensor[(32), float32] /* ty=Tensor[(32), float32] */, %batch_1_3_4_moving_mean: Tensor[(32), float32] /* ty=Tensor[(32), float32] */, %batch_1_3_4_moving_var: Tensor[(32), float32] /* ty=Tensor[(32), float32] */, %conv2d_1_3_4_weight: Tensor[(128, 32, 1, 1), float32] /* ty=Tensor[(128, 32, 1, 1), float32] */, %batch_2_3_4_gamma: Tensor[(128), float32] /* ty=Tensor[(128), float32] */, %batch_2_3_4_beta: Tensor[(128), float32] /* ty=Tensor[(128), float32] */, %batch_2_3_4_moving_mean: Tensor[(128), float32] /* ty=Tensor[(128), float32] */, %batch_2_3_4_moving_var: Tensor[(128), float32] /* ty=Tensor[(128), float32] */, %conv2d_2_3_4_weight: Tensor[(32, 128, 3, 3), float32] /* ty=Tensor[(32, 128, 3, 3), float32] */, %batch_1_3_5_gamma: Tensor[(32), float32] /* ty=Tensor[(32), float32] */, %batch_1_3_5_beta: Tensor[(32), float32] /* ty=Tensor[(32), float32] */, %batch_1_3_5_moving_mean: Tensor[(32), float32] /* ty=Tensor[(32), float32] */, %batch_1_3_5_moving_var: Tensor[(32), float32] /* ty=Tensor[(32), float32] */, %conv2d_1_3_5_weight: Tensor[(128, 32, 1, 1), float32] /* ty=Tensor[(128, 32, 1, 1), float32] */, %batch_2_3_5_gamma: Tensor[(128), float32] /* ty=Tensor[(128), float32] */, %batch_2_3_5_beta: Tensor[(128), float32] /* ty=Tensor[(128), float32] */, %batch_2_3_5_moving_mean: Tensor[(128), float32] /* ty=Tensor[(128), float32] */, %batch_2_3_5_moving_var: Tensor[(128), float32] /* ty=Tensor[(128), float32] */, %conv2d_2_3_5_weight: Tensor[(32, 128, 3, 3), float32] /* ty=Tensor[(32, 128, 3, 3), float32] */, %batch_1_3_6_gamma: Tensor[(32), float32] /* ty=Tensor[(32), float32] */, %batch_1_3_6_beta: Tensor[(32), float32] /* ty=Tensor[(32), float32] */, %batch_1_3_6_moving_mean: Tensor[(32), float32] /* ty=Tensor[(32), float32] */, %batch_1_3_6_moving_var: Tensor[(32), float32] /* ty=Tensor[(32), float32] */, %conv2d_1_3_6_weight: Tensor[(128, 32, 1, 1), float32] /* ty=Tensor[(128, 32, 1, 1), float32] */, %batch_2_3_6_gamma: Tensor[(128), float32] /* ty=Tensor[(128), float32] */, %batch_2_3_6_beta: Tensor[(128), float32] /* ty=Tensor[(128), float32] */, %batch_2_3_6_moving_mean: Tensor[(128), float32] /* ty=Tensor[(128), float32] */, %batch_2_3_6_moving_var: Tensor[(128), float32] /* ty=Tensor[(128), float32] */, %conv2d_2_3_6_weight: Tensor[(32, 128, 3, 3), float32] /* ty=Tensor[(32, 128, 3, 3), float32] */, %batch_1_3_7_gamma: Tensor[(32), float32] /* ty=Tensor[(32), float32] */, %batch_1_3_7_beta: Tensor[(32), float32] /* ty=Tensor[(32), float32] */, %batch_1_3_7_moving_mean: Tensor[(32), float32] /* ty=Tensor[(32), float32] */, %batch_1_3_7_moving_var: Tensor[(32), float32] /* ty=Tensor[(32), float32] */, %conv2d_1_3_7_weight: Tensor[(128, 32, 1, 1), float32] /* ty=Tensor[(128, 32, 1, 1), float32] */, %batch_2_3_7_gamma: Tensor[(128), float32] /* ty=Tensor[(128), float32] */, %batch_2_3_7_beta: Tensor[(128), float32] /* ty=Tensor[(128), float32] */, %batch_2_3_7_moving_mean: Tensor[(128), float32] /* ty=Tensor[(128), float32] */, %batch_2_3_7_moving_var: Tensor[(128), float32] /* ty=Tensor[(128), float32] */, %conv2d_2_3_7_weight: Tensor[(32, 128, 3, 3), float32] /* ty=Tensor[(32, 128, 3, 3), float32] */, %batch_1_3_8_gamma: Tensor[(32), float32] /* ty=Tensor[(32), float32] */, %batch_1_3_8_beta: Tensor[(32), float32] /* ty=Tensor[(32), float32] */, %batch_1_3_8_moving_mean: Tensor[(32), float32] /* ty=Tensor[(32), float32] */, %batch_1_3_8_moving_var: Tensor[(32), float32] /* ty=Tensor[(32), float32] */, %conv2d_1_3_8_weight: Tensor[(128, 32, 1, 1), float32] /* ty=Tensor[(128, 32, 1, 1), float32] */, %batch_2_3_8_gamma: Tensor[(128), float32] /* ty=Tensor[(128), float32] */, %batch_2_3_8_beta: Tensor[(128), float32] /* ty=Tensor[(128), float32] */, %batch_2_3_8_moving_mean: Tensor[(128), float32] /* ty=Tensor[(128), float32] */, %batch_2_3_8_moving_var: Tensor[(128), float32] /* ty=Tensor[(128), float32] */, %conv2d_2_3_8_weight: Tensor[(32, 128, 3, 3), float32] /* ty=Tensor[(32, 128, 3, 3), float32] */, %batch_1_3_9_gamma: Tensor[(32), float32] /* ty=Tensor[(32), float32] */, %batch_1_3_9_beta: Tensor[(32), float32] /* ty=Tensor[(32), float32] */, %batch_1_3_9_moving_mean: Tensor[(32), float32] /* ty=Tensor[(32), float32] */, %batch_1_3_9_moving_var: Tensor[(32), float32] /* ty=Tensor[(32), float32] */, %conv2d_1_3_9_weight: Tensor[(128, 32, 1, 1), float32] /* ty=Tensor[(128, 32, 1, 1), float32] */, %batch_2_3_9_gamma: Tensor[(128), float32] /* ty=Tensor[(128), float32] */, %batch_2_3_9_beta: Tensor[(128), float32] /* ty=Tensor[(128), float32] */, %batch_2_3_9_moving_mean: Tensor[(128), float32] /* ty=Tensor[(128), float32] */, %batch_2_3_9_moving_var: Tensor[(128), float32] /* ty=Tensor[(128), float32] */, %conv2d_2_3_9_weight: Tensor[(32, 128, 3, 3), float32] /* ty=Tensor[(32, 128, 3, 3), float32] */, %batch_1_3_10_gamma: Tensor[(32), float32] /* ty=Tensor[(32), float32] */, %batch_1_3_10_beta: Tensor[(32), float32] /* ty=Tensor[(32), float32] */, %batch_1_3_10_moving_mean: Tensor[(32), float32] /* ty=Tensor[(32), float32] */, %batch_1_3_10_moving_var: Tensor[(32), float32] /* ty=Tensor[(32), float32] */, %conv2d_1_3_10_weight: Tensor[(128, 32, 1, 1), float32] /* ty=Tensor[(128, 32, 1, 1), float32] */, %batch_2_3_10_gamma: Tensor[(128), float32] /* ty=Tensor[(128), float32] */, %batch_2_3_10_beta: Tensor[(128), float32] /* ty=Tensor[(128), float32] */, %batch_2_3_10_moving_mean: Tensor[(128), float32] /* ty=Tensor[(128), float32] */, %batch_2_3_10_moving_var: Tensor[(128), float32] /* ty=Tensor[(128), float32] */, %conv2d_2_3_10_weight: Tensor[(32, 128, 3, 3), float32] /* ty=Tensor[(32, 128, 3, 3), float32] */, %batch_1_3_11_gamma: Tensor[(32), float32] /* ty=Tensor[(32), float32] */, %batch_1_3_11_beta: Tensor[(32), float32] /* ty=Tensor[(32), float32] */, %batch_1_3_11_moving_mean: Tensor[(32), float32] /* ty=Tensor[(32), float32] */, %batch_1_3_11_moving_var: Tensor[(32), float32] /* ty=Tensor[(32), float32] */, %conv2d_1_3_11_weight: Tensor[(128, 32, 1, 1), float32] /* ty=Tensor[(128, 32, 1, 1), float32] */, %batch_2_3_11_gamma: Tensor[(128), float32] /* ty=Tensor[(128), float32] */, %batch_2_3_11_beta: Tensor[(128), float32] /* ty=Tensor[(128), float32] */, %batch_2_3_11_moving_mean: Tensor[(128), float32] /* ty=Tensor[(128), float32] */, %batch_2_3_11_moving_var: Tensor[(128), float32] /* ty=Tensor[(128), float32] */, %conv2d_2_3_11_weight: Tensor[(32, 128, 3, 3), float32] /* ty=Tensor[(32, 128, 3, 3), float32] */, %batch_1_3_12_gamma: Tensor[(32), float32] /* ty=Tensor[(32), float32] */, %batch_1_3_12_beta: Tensor[(32), float32] /* ty=Tensor[(32), float32] */, %batch_1_3_12_moving_mean: Tensor[(32), float32] /* ty=Tensor[(32), float32] */, %batch_1_3_12_moving_var: Tensor[(32), float32] /* ty=Tensor[(32), float32] */, %conv2d_1_3_12_weight: Tensor[(128, 32, 1, 1), float32] /* ty=Tensor[(128, 32, 1, 1), float32] */, %batch_2_3_12_gamma: Tensor[(128), float32] /* ty=Tensor[(128), float32] */, %batch_2_3_12_beta: Tensor[(128), float32] /* ty=Tensor[(128), float32] */, %batch_2_3_12_moving_mean: Tensor[(128), float32] /* ty=Tensor[(128), float32] */, %batch_2_3_12_moving_var: Tensor[(128), float32] /* ty=Tensor[(128), float32] */, %conv2d_2_3_12_weight: Tensor[(32, 128, 3, 3), float32] /* ty=Tensor[(32, 128, 3, 3), float32] */, %batch_1_3_13_gamma: Tensor[(32), float32] /* ty=Tensor[(32), float32] */, %batch_1_3_13_beta: Tensor[(32), float32] /* ty=Tensor[(32), float32] */, %batch_1_3_13_moving_mean: Tensor[(32), float32] /* ty=Tensor[(32), float32] */, %batch_1_3_13_moving_var: Tensor[(32), float32] /* ty=Tensor[(32), float32] */, %conv2d_1_3_13_weight: Tensor[(128, 32, 1, 1), float32] /* ty=Tensor[(128, 32, 1, 1), float32] */, %batch_2_3_13_gamma: Tensor[(128), float32] /* ty=Tensor[(128), float32] */, %batch_2_3_13_beta: Tensor[(128), float32] /* ty=Tensor[(128), float32] */, %batch_2_3_13_moving_mean: Tensor[(128), float32] /* ty=Tensor[(128), float32] */, %batch_2_3_13_moving_var: Tensor[(128), float32] /* ty=Tensor[(128), float32] */, %conv2d_2_3_13_weight: Tensor[(32, 128, 3, 3), float32] /* ty=Tensor[(32, 128, 3, 3), float32] */, %batch_1_3_14_gamma: Tensor[(32), float32] /* ty=Tensor[(32), float32] */, %batch_1_3_14_beta: Tensor[(32), float32] /* ty=Tensor[(32), float32] */, %batch_1_3_14_moving_mean: Tensor[(32), float32] /* ty=Tensor[(32), float32] */, %batch_1_3_14_moving_var: Tensor[(32), float32] /* ty=Tensor[(32), float32] */, %conv2d_1_3_14_weight: Tensor[(128, 32, 1, 1), float32] /* ty=Tensor[(128, 32, 1, 1), float32] */, %batch_2_3_14_gamma: Tensor[(128), float32] /* ty=Tensor[(128), float32] */, %batch_2_3_14_beta: Tensor[(128), float32] /* ty=Tensor[(128), float32] */, %batch_2_3_14_moving_mean: Tensor[(128), float32] /* ty=Tensor[(128), float32] */, %batch_2_3_14_moving_var: Tensor[(128), float32] /* ty=Tensor[(128), float32] */, %conv2d_2_3_14_weight: Tensor[(32, 128, 3, 3), float32] /* ty=Tensor[(32, 128, 3, 3), float32] */, %batch_1_3_15_gamma: Tensor[(32), float32] /* ty=Tensor[(32), float32] */, %batch_1_3_15_beta: Tensor[(32), float32] /* ty=Tensor[(32), float32] */, %batch_1_3_15_moving_mean: Tensor[(32), float32] /* ty=Tensor[(32), float32] */, %batch_1_3_15_moving_var: Tensor[(32), float32] /* ty=Tensor[(32), float32] */, %conv2d_1_3_15_weight: Tensor[(128, 32, 1, 1), float32] /* ty=Tensor[(128, 32, 1, 1), float32] */, %batch_2_3_15_gamma: Tensor[(128), float32] /* ty=Tensor[(128), float32] */, %batch_2_3_15_beta: Tensor[(128), float32] /* ty=Tensor[(128), float32] */, %batch_2_3_15_moving_mean: Tensor[(128), float32] /* ty=Tensor[(128), float32] */, %batch_2_3_15_moving_var: Tensor[(128), float32] /* ty=Tensor[(128), float32] */, %conv2d_2_3_15_weight: Tensor[(32, 128, 3, 3), float32] /* ty=Tensor[(32, 128, 3, 3), float32] */, %batch2_gamma: Tensor[(512), float32] /* ty=Tensor[(512), float32] */, %batch2_beta: Tensor[(512), float32] /* ty=Tensor[(512), float32] */, %batch2_moving_mean: Tensor[(512), float32] /* ty=Tensor[(512), float32] */, %batch2_moving_var: Tensor[(512), float32] /* ty=Tensor[(512), float32] */, %dense_weight: Tensor[(1000, 512), float32] /* ty=Tensor[(1000, 512), float32] */, %dense_bias: Tensor[(1000), float32] /* ty=Tensor[(1000), float32] */) -> Tensor[(1, 1000), float32] {
  %0 = nn.conv2d(%data, %conv1_weight, strides=[2, 2], padding=[3, 3, 3, 3], channels=64, kernel_size=[7, 7]) /* ty=Tensor[(1, 64, 112, 112), float32] */;
  %1 = nn.batch_norm(%0, %batch1_gamma, %batch1_beta, %batch1_moving_mean, %batch1_moving_var) /* ty=(Tensor[(1, 64, 112, 112), float32], Tensor[(64), float32], Tensor[(64), float32]) */;
  %2 = %1.0 /* ty=Tensor[(1, 64, 112, 112), float32] */;
  %3 = nn.relu(%2) /* ty=Tensor[(1, 64, 112, 112), float32] */;
  %4 = nn.max_pool2d(%3, pool_size=[3, 3], strides=[2, 2], padding=[1, 1, 1, 1]) /* ty=Tensor[(1, 64, 56, 56), float32] */;
  %5 = nn.batch_norm(%4, %batch_1_0_0_gamma, %batch_1_0_0_beta, %batch_1_0_0_moving_mean, %batch_1_0_0_moving_var) /* ty=(Tensor[(1, 64, 56, 56), float32], Tensor[(64), float32], Tensor[(64), float32]) */;
  %6 = %5.0 /* ty=Tensor[(1, 64, 56, 56), float32] */;
  %7 = nn.relu(%6) /* ty=Tensor[(1, 64, 56, 56), float32] */;
  %8 = nn.conv2d(%7, %conv2d_1_0_0_weight, padding=[0, 0, 0, 0], channels=128, kernel_size=[1, 1]) /* ty=Tensor[(1, 128, 56, 56), float32] */;
  %9 = nn.batch_norm(%8, %batch_2_0_0_gamma, %batch_2_0_0_beta, %batch_2_0_0_moving_mean, %batch_2_0_0_moving_var) /* ty=(Tensor[(1, 128, 56, 56), float32], Tensor[(128), float32], Tensor[(128), float32]) */;
  %10 = %9.0 /* ty=Tensor[(1, 128, 56, 56), float32] */;
  %11 = nn.relu(%10) /* ty=Tensor[(1, 128, 56, 56), float32] */;
  %12 = nn.conv2d(%11, %conv2d_2_0_0_weight, padding=[1, 1, 1, 1], channels=32, kernel_size=[3, 3]) /* ty=Tensor[(1, 32, 56, 56), float32] */;
  %13 = nn.batch_norm(%12, %batch_1_0_1_gamma, %batch_1_0_1_beta, %batch_1_0_1_moving_mean, %batch_1_0_1_moving_var) /* ty=(Tensor[(1, 32, 56, 56), float32], Tensor[(32), float32], Tensor[(32), float32]) */;
  %14 = %13.0 /* ty=Tensor[(1, 32, 56, 56), float32] */;
  %15 = nn.relu(%14) /* ty=Tensor[(1, 32, 56, 56), float32] */;
  %16 = nn.conv2d(%15, %conv2d_1_0_1_weight, padding=[0, 0, 0, 0], channels=128, kernel_size=[1, 1]) /* ty=Tensor[(1, 128, 56, 56), float32] */;
  %17 = nn.batch_norm(%16, %batch_2_0_1_gamma, %batch_2_0_1_beta, %batch_2_0_1_moving_mean, %batch_2_0_1_moving_var) /* ty=(Tensor[(1, 128, 56, 56), float32], Tensor[(128), float32], Tensor[(128), float32]) */;
  %18 = %17.0 /* ty=Tensor[(1, 128, 56, 56), float32] */;
  %19 = nn.relu(%18) /* ty=Tensor[(1, 128, 56, 56), float32] */;
  %20 = nn.conv2d(%19, %conv2d_2_0_1_weight, padding=[1, 1, 1, 1], channels=32, kernel_size=[3, 3]) /* ty=Tensor[(1, 32, 56, 56), float32] */;
  %21 = nn.batch_norm(%20, %batch_1_0_2_gamma, %batch_1_0_2_beta, %batch_1_0_2_moving_mean, %batch_1_0_2_moving_var) /* ty=(Tensor[(1, 32, 56, 56), float32], Tensor[(32), float32], Tensor[(32), float32]) */;
  %22 = %21.0 /* ty=Tensor[(1, 32, 56, 56), float32] */;
  %23 = nn.relu(%22) /* ty=Tensor[(1, 32, 56, 56), float32] */;
  %24 = nn.conv2d(%23, %conv2d_1_0_2_weight, padding=[0, 0, 0, 0], channels=128, kernel_size=[1, 1]) /* ty=Tensor[(1, 128, 56, 56), float32] */;
  %25 = nn.batch_norm(%24, %batch_2_0_2_gamma, %batch_2_0_2_beta, %batch_2_0_2_moving_mean, %batch_2_0_2_moving_var) /* ty=(Tensor[(1, 128, 56, 56), float32], Tensor[(128), float32], Tensor[(128), float32]) */;
  %26 = %25.0 /* ty=Tensor[(1, 128, 56, 56), float32] */;
  %27 = nn.relu(%26) /* ty=Tensor[(1, 128, 56, 56), float32] */;
  %28 = nn.conv2d(%27, %conv2d_2_0_2_weight, padding=[1, 1, 1, 1], channels=32, kernel_size=[3, 3]) /* ty=Tensor[(1, 32, 56, 56), float32] */;
  %29 = nn.batch_norm(%28, %batch_1_0_3_gamma, %batch_1_0_3_beta, %batch_1_0_3_moving_mean, %batch_1_0_3_moving_var) /* ty=(Tensor[(1, 32, 56, 56), float32], Tensor[(32), float32], Tensor[(32), float32]) */;
  %30 = %29.0 /* ty=Tensor[(1, 32, 56, 56), float32] */;
  %31 = nn.relu(%30) /* ty=Tensor[(1, 32, 56, 56), float32] */;
  %32 = nn.conv2d(%31, %conv2d_1_0_3_weight, padding=[0, 0, 0, 0], channels=128, kernel_size=[1, 1]) /* ty=Tensor[(1, 128, 56, 56), float32] */;
  %33 = nn.batch_norm(%32, %batch_2_0_3_gamma, %batch_2_0_3_beta, %batch_2_0_3_moving_mean, %batch_2_0_3_moving_var) /* ty=(Tensor[(1, 128, 56, 56), float32], Tensor[(128), float32], Tensor[(128), float32]) */;
  %34 = %33.0 /* ty=Tensor[(1, 128, 56, 56), float32] */;
  %35 = nn.relu(%34) /* ty=Tensor[(1, 128, 56, 56), float32] */;
  %36 = nn.conv2d(%35, %conv2d_2_0_3_weight, padding=[1, 1, 1, 1], channels=32, kernel_size=[3, 3]) /* ty=Tensor[(1, 32, 56, 56), float32] */;
  %37 = nn.batch_norm(%36, %batch_1_0_4_gamma, %batch_1_0_4_beta, %batch_1_0_4_moving_mean, %batch_1_0_4_moving_var) /* ty=(Tensor[(1, 32, 56, 56), float32], Tensor[(32), float32], Tensor[(32), float32]) */;
  %38 = %37.0 /* ty=Tensor[(1, 32, 56, 56), float32] */;
  %39 = nn.relu(%38) /* ty=Tensor[(1, 32, 56, 56), float32] */;
  %40 = nn.conv2d(%39, %conv2d_1_0_4_weight, padding=[0, 0, 0, 0], channels=128, kernel_size=[1, 1]) /* ty=Tensor[(1, 128, 56, 56), float32] */;
  %41 = nn.batch_norm(%40, %batch_2_0_4_gamma, %batch_2_0_4_beta, %batch_2_0_4_moving_mean, %batch_2_0_4_moving_var) /* ty=(Tensor[(1, 128, 56, 56), float32], Tensor[(128), float32], Tensor[(128), float32]) */;
  %42 = %41.0 /* ty=Tensor[(1, 128, 56, 56), float32] */;
  %43 = nn.relu(%42) /* ty=Tensor[(1, 128, 56, 56), float32] */;
  %44 = nn.conv2d(%43, %conv2d_2_0_4_weight, padding=[1, 1, 1, 1], channels=32, kernel_size=[3, 3]) /* ty=Tensor[(1, 32, 56, 56), float32] */;
  %45 = nn.batch_norm(%44, %batch_1_0_5_gamma, %batch_1_0_5_beta, %batch_1_0_5_moving_mean, %batch_1_0_5_moving_var) /* ty=(Tensor[(1, 32, 56, 56), float32], Tensor[(32), float32], Tensor[(32), float32]) */;
  %46 = %45.0 /* ty=Tensor[(1, 32, 56, 56), float32] */;
  %47 = nn.relu(%46) /* ty=Tensor[(1, 32, 56, 56), float32] */;
  %48 = nn.conv2d(%47, %conv2d_1_0_5_weight, padding=[0, 0, 0, 0], channels=128, kernel_size=[1, 1]) /* ty=Tensor[(1, 128, 56, 56), float32] */;
  %49 = nn.batch_norm(%48, %batch_2_0_5_gamma, %batch_2_0_5_beta, %batch_2_0_5_moving_mean, %batch_2_0_5_moving_var) /* ty=(Tensor[(1, 128, 56, 56), float32], Tensor[(128), float32], Tensor[(128), float32]) */;
  %50 = %49.0 /* ty=Tensor[(1, 128, 56, 56), float32] */;
  %51 = nn.relu(%50) /* ty=Tensor[(1, 128, 56, 56), float32] */;
  %52 = nn.conv2d(%51, %conv2d_2_0_5_weight, padding=[1, 1, 1, 1], channels=32, kernel_size=[3, 3]) /* ty=Tensor[(1, 32, 56, 56), float32] */;
  %53 = (%12, %20, %28, %36, %44, %52) /* ty=(Tensor[(1, 32, 56, 56), float32], Tensor[(1, 32, 56, 56), float32], Tensor[(1, 32, 56, 56), float32], Tensor[(1, 32, 56, 56), float32], Tensor[(1, 32, 56, 56), float32], Tensor[(1, 32, 56, 56), float32]) */;
  %54 = concatenate(%53, axis=1) /* ty=Tensor[(1, 192, 56, 56), float32] */;
  %55 = nn.batch_norm(%54, %batch_t_0_gamma, %batch_t_0_beta, %batch_t_0_moving_mean, %batch_t_0_moving_var) /* ty=(Tensor[(1, 192, 56, 56), float32], Tensor[(192), float32], Tensor[(192), float32]) */;
  %56 = %55.0 /* ty=Tensor[(1, 192, 56, 56), float32] */;
  %57 = nn.relu(%56) /* ty=Tensor[(1, 192, 56, 56), float32] */;
  %58 = nn.conv2d(%57, %conv_t_0_weight, padding=[0, 0, 0, 0], channels=128, kernel_size=[1, 1]) /* ty=Tensor[(1, 128, 56, 56), float32] */;
  %59 = nn.avg_pool2d(%58, pool_size=[2, 2], strides=[2, 2], padding=[0, 0, 0, 0]) /* ty=Tensor[(1, 128, 28, 28), float32] */;
  %60 = nn.batch_norm(%59, %batch_1_1_0_gamma, %batch_1_1_0_beta, %batch_1_1_0_moving_mean, %batch_1_1_0_moving_var) /* ty=(Tensor[(1, 128, 28, 28), float32], Tensor[(128), float32], Tensor[(128), float32]) */;
  %61 = %60.0 /* ty=Tensor[(1, 128, 28, 28), float32] */;
  %62 = nn.relu(%61) /* ty=Tensor[(1, 128, 28, 28), float32] */;
  %63 = nn.conv2d(%62, %conv2d_1_1_0_weight, padding=[0, 0, 0, 0], channels=128, kernel_size=[1, 1]) /* ty=Tensor[(1, 128, 28, 28), float32] */;
  %64 = nn.batch_norm(%63, %batch_2_1_0_gamma, %batch_2_1_0_beta, %batch_2_1_0_moving_mean, %batch_2_1_0_moving_var) /* ty=(Tensor[(1, 128, 28, 28), float32], Tensor[(128), float32], Tensor[(128), float32]) */;
  %65 = %64.0 /* ty=Tensor[(1, 128, 28, 28), float32] */;
  %66 = nn.relu(%65) /* ty=Tensor[(1, 128, 28, 28), float32] */;
  %67 = nn.conv2d(%66, %conv2d_2_1_0_weight, padding=[1, 1, 1, 1], channels=32, kernel_size=[3, 3]) /* ty=Tensor[(1, 32, 28, 28), float32] */;
  %68 = nn.batch_norm(%67, %batch_1_1_1_gamma, %batch_1_1_1_beta, %batch_1_1_1_moving_mean, %batch_1_1_1_moving_var) /* ty=(Tensor[(1, 32, 28, 28), float32], Tensor[(32), float32], Tensor[(32), float32]) */;
  %69 = %68.0 /* ty=Tensor[(1, 32, 28, 28), float32] */;
  %70 = nn.relu(%69) /* ty=Tensor[(1, 32, 28, 28), float32] */;
  %71 = nn.conv2d(%70, %conv2d_1_1_1_weight, padding=[0, 0, 0, 0], channels=128, kernel_size=[1, 1]) /* ty=Tensor[(1, 128, 28, 28), float32] */;
  %72 = nn.batch_norm(%71, %batch_2_1_1_gamma, %batch_2_1_1_beta, %batch_2_1_1_moving_mean, %batch_2_1_1_moving_var) /* ty=(Tensor[(1, 128, 28, 28), float32], Tensor[(128), float32], Tensor[(128), float32]) */;
  %73 = %72.0 /* ty=Tensor[(1, 128, 28, 28), float32] */;
  %74 = nn.relu(%73) /* ty=Tensor[(1, 128, 28, 28), float32] */;
  %75 = nn.conv2d(%74, %conv2d_2_1_1_weight, padding=[1, 1, 1, 1], channels=32, kernel_size=[3, 3]) /* ty=Tensor[(1, 32, 28, 28), float32] */;
  %76 = nn.batch_norm(%75, %batch_1_1_2_gamma, %batch_1_1_2_beta, %batch_1_1_2_moving_mean, %batch_1_1_2_moving_var) /* ty=(Tensor[(1, 32, 28, 28), float32], Tensor[(32), float32], Tensor[(32), float32]) */;
  %77 = %76.0 /* ty=Tensor[(1, 32, 28, 28), float32] */;
  %78 = nn.relu(%77) /* ty=Tensor[(1, 32, 28, 28), float32] */;
  %79 = nn.conv2d(%78, %conv2d_1_1_2_weight, padding=[0, 0, 0, 0], channels=128, kernel_size=[1, 1]) /* ty=Tensor[(1, 128, 28, 28), float32] */;
  %80 = nn.batch_norm(%79, %batch_2_1_2_gamma, %batch_2_1_2_beta, %batch_2_1_2_moving_mean, %batch_2_1_2_moving_var) /* ty=(Tensor[(1, 128, 28, 28), float32], Tensor[(128), float32], Tensor[(128), float32]) */;
  %81 = %80.0 /* ty=Tensor[(1, 128, 28, 28), float32] */;
  %82 = nn.relu(%81) /* ty=Tensor[(1, 128, 28, 28), float32] */;
  %83 = nn.conv2d(%82, %conv2d_2_1_2_weight, padding=[1, 1, 1, 1], channels=32, kernel_size=[3, 3]) /* ty=Tensor[(1, 32, 28, 28), float32] */;
  %84 = nn.batch_norm(%83, %batch_1_1_3_gamma, %batch_1_1_3_beta, %batch_1_1_3_moving_mean, %batch_1_1_3_moving_var) /* ty=(Tensor[(1, 32, 28, 28), float32], Tensor[(32), float32], Tensor[(32), float32]) */;
  %85 = %84.0 /* ty=Tensor[(1, 32, 28, 28), float32] */;
  %86 = nn.relu(%85) /* ty=Tensor[(1, 32, 28, 28), float32] */;
  %87 = nn.conv2d(%86, %conv2d_1_1_3_weight, padding=[0, 0, 0, 0], channels=128, kernel_size=[1, 1]) /* ty=Tensor[(1, 128, 28, 28), float32] */;
  %88 = nn.batch_norm(%87, %batch_2_1_3_gamma, %batch_2_1_3_beta, %batch_2_1_3_moving_mean, %batch_2_1_3_moving_var) /* ty=(Tensor[(1, 128, 28, 28), float32], Tensor[(128), float32], Tensor[(128), float32]) */;
  %89 = %88.0 /* ty=Tensor[(1, 128, 28, 28), float32] */;
  %90 = nn.relu(%89) /* ty=Tensor[(1, 128, 28, 28), float32] */;
  %91 = nn.conv2d(%90, %conv2d_2_1_3_weight, padding=[1, 1, 1, 1], channels=32, kernel_size=[3, 3]) /* ty=Tensor[(1, 32, 28, 28), float32] */;
  %92 = nn.batch_norm(%91, %batch_1_1_4_gamma, %batch_1_1_4_beta, %batch_1_1_4_moving_mean, %batch_1_1_4_moving_var) /* ty=(Tensor[(1, 32, 28, 28), float32], Tensor[(32), float32], Tensor[(32), float32]) */;
  %93 = %92.0 /* ty=Tensor[(1, 32, 28, 28), float32] */;
  %94 = nn.relu(%93) /* ty=Tensor[(1, 32, 28, 28), float32] */;
  %95 = nn.conv2d(%94, %conv2d_1_1_4_weight, padding=[0, 0, 0, 0], channels=128, kernel_size=[1, 1]) /* ty=Tensor[(1, 128, 28, 28), float32] */;
  %96 = nn.batch_norm(%95, %batch_2_1_4_gamma, %batch_2_1_4_beta, %batch_2_1_4_moving_mean, %batch_2_1_4_moving_var) /* ty=(Tensor[(1, 128, 28, 28), float32], Tensor[(128), float32], Tensor[(128), float32]) */;
  %97 = %96.0 /* ty=Tensor[(1, 128, 28, 28), float32] */;
  %98 = nn.relu(%97) /* ty=Tensor[(1, 128, 28, 28), float32] */;
  %99 = nn.conv2d(%98, %conv2d_2_1_4_weight, padding=[1, 1, 1, 1], channels=32, kernel_size=[3, 3]) /* ty=Tensor[(1, 32, 28, 28), float32] */;
  %100 = nn.batch_norm(%99, %batch_1_1_5_gamma, %batch_1_1_5_beta, %batch_1_1_5_moving_mean, %batch_1_1_5_moving_var) /* ty=(Tensor[(1, 32, 28, 28), float32], Tensor[(32), float32], Tensor[(32), float32]) */;
  %101 = %100.0 /* ty=Tensor[(1, 32, 28, 28), float32] */;
  %102 = nn.relu(%101) /* ty=Tensor[(1, 32, 28, 28), float32] */;
  %103 = nn.conv2d(%102, %conv2d_1_1_5_weight, padding=[0, 0, 0, 0], channels=128, kernel_size=[1, 1]) /* ty=Tensor[(1, 128, 28, 28), float32] */;
  %104 = nn.batch_norm(%103, %batch_2_1_5_gamma, %batch_2_1_5_beta, %batch_2_1_5_moving_mean, %batch_2_1_5_moving_var) /* ty=(Tensor[(1, 128, 28, 28), float32], Tensor[(128), float32], Tensor[(128), float32]) */;
  %105 = %104.0 /* ty=Tensor[(1, 128, 28, 28), float32] */;
  %106 = nn.relu(%105) /* ty=Tensor[(1, 128, 28, 28), float32] */;
  %107 = nn.conv2d(%106, %conv2d_2_1_5_weight, padding=[1, 1, 1, 1], channels=32, kernel_size=[3, 3]) /* ty=Tensor[(1, 32, 28, 28), float32] */;
  %108 = nn.batch_norm(%107, %batch_1_1_6_gamma, %batch_1_1_6_beta, %batch_1_1_6_moving_mean, %batch_1_1_6_moving_var) /* ty=(Tensor[(1, 32, 28, 28), float32], Tensor[(32), float32], Tensor[(32), float32]) */;
  %109 = %108.0 /* ty=Tensor[(1, 32, 28, 28), float32] */;
  %110 = nn.relu(%109) /* ty=Tensor[(1, 32, 28, 28), float32] */;
  %111 = nn.conv2d(%110, %conv2d_1_1_6_weight, padding=[0, 0, 0, 0], channels=128, kernel_size=[1, 1]) /* ty=Tensor[(1, 128, 28, 28), float32] */;
  %112 = nn.batch_norm(%111, %batch_2_1_6_gamma, %batch_2_1_6_beta, %batch_2_1_6_moving_mean, %batch_2_1_6_moving_var) /* ty=(Tensor[(1, 128, 28, 28), float32], Tensor[(128), float32], Tensor[(128), float32]) */;
  %113 = %112.0 /* ty=Tensor[(1, 128, 28, 28), float32] */;
  %114 = nn.relu(%113) /* ty=Tensor[(1, 128, 28, 28), float32] */;
  %115 = nn.conv2d(%114, %conv2d_2_1_6_weight, padding=[1, 1, 1, 1], channels=32, kernel_size=[3, 3]) /* ty=Tensor[(1, 32, 28, 28), float32] */;
  %116 = nn.batch_norm(%115, %batch_1_1_7_gamma, %batch_1_1_7_beta, %batch_1_1_7_moving_mean, %batch_1_1_7_moving_var) /* ty=(Tensor[(1, 32, 28, 28), float32], Tensor[(32), float32], Tensor[(32), float32]) */;
  %117 = %116.0 /* ty=Tensor[(1, 32, 28, 28), float32] */;
  %118 = nn.relu(%117) /* ty=Tensor[(1, 32, 28, 28), float32] */;
  %119 = nn.conv2d(%118, %conv2d_1_1_7_weight, padding=[0, 0, 0, 0], channels=128, kernel_size=[1, 1]) /* ty=Tensor[(1, 128, 28, 28), float32] */;
  %120 = nn.batch_norm(%119, %batch_2_1_7_gamma, %batch_2_1_7_beta, %batch_2_1_7_moving_mean, %batch_2_1_7_moving_var) /* ty=(Tensor[(1, 128, 28, 28), float32], Tensor[(128), float32], Tensor[(128), float32]) */;
  %121 = %120.0 /* ty=Tensor[(1, 128, 28, 28), float32] */;
  %122 = nn.relu(%121) /* ty=Tensor[(1, 128, 28, 28), float32] */;
  %123 = nn.conv2d(%122, %conv2d_2_1_7_weight, padding=[1, 1, 1, 1], channels=32, kernel_size=[3, 3]) /* ty=Tensor[(1, 32, 28, 28), float32] */;
  %124 = nn.batch_norm(%123, %batch_1_1_8_gamma, %batch_1_1_8_beta, %batch_1_1_8_moving_mean, %batch_1_1_8_moving_var) /* ty=(Tensor[(1, 32, 28, 28), float32], Tensor[(32), float32], Tensor[(32), float32]) */;
  %125 = %124.0 /* ty=Tensor[(1, 32, 28, 28), float32] */;
  %126 = nn.relu(%125) /* ty=Tensor[(1, 32, 28, 28), float32] */;
  %127 = nn.conv2d(%126, %conv2d_1_1_8_weight, padding=[0, 0, 0, 0], channels=128, kernel_size=[1, 1]) /* ty=Tensor[(1, 128, 28, 28), float32] */;
  %128 = nn.batch_norm(%127, %batch_2_1_8_gamma, %batch_2_1_8_beta, %batch_2_1_8_moving_mean, %batch_2_1_8_moving_var) /* ty=(Tensor[(1, 128, 28, 28), float32], Tensor[(128), float32], Tensor[(128), float32]) */;
  %129 = %128.0 /* ty=Tensor[(1, 128, 28, 28), float32] */;
  %130 = nn.relu(%129) /* ty=Tensor[(1, 128, 28, 28), float32] */;
  %131 = nn.conv2d(%130, %conv2d_2_1_8_weight, padding=[1, 1, 1, 1], channels=32, kernel_size=[3, 3]) /* ty=Tensor[(1, 32, 28, 28), float32] */;
  %132 = nn.batch_norm(%131, %batch_1_1_9_gamma, %batch_1_1_9_beta, %batch_1_1_9_moving_mean, %batch_1_1_9_moving_var) /* ty=(Tensor[(1, 32, 28, 28), float32], Tensor[(32), float32], Tensor[(32), float32]) */;
  %133 = %132.0 /* ty=Tensor[(1, 32, 28, 28), float32] */;
  %134 = nn.relu(%133) /* ty=Tensor[(1, 32, 28, 28), float32] */;
  %135 = nn.conv2d(%134, %conv2d_1_1_9_weight, padding=[0, 0, 0, 0], channels=128, kernel_size=[1, 1]) /* ty=Tensor[(1, 128, 28, 28), float32] */;
  %136 = nn.batch_norm(%135, %batch_2_1_9_gamma, %batch_2_1_9_beta, %batch_2_1_9_moving_mean, %batch_2_1_9_moving_var) /* ty=(Tensor[(1, 128, 28, 28), float32], Tensor[(128), float32], Tensor[(128), float32]) */;
  %137 = %136.0 /* ty=Tensor[(1, 128, 28, 28), float32] */;
  %138 = nn.relu(%137) /* ty=Tensor[(1, 128, 28, 28), float32] */;
  %139 = nn.conv2d(%138, %conv2d_2_1_9_weight, padding=[1, 1, 1, 1], channels=32, kernel_size=[3, 3]) /* ty=Tensor[(1, 32, 28, 28), float32] */;
  %140 = nn.batch_norm(%139, %batch_1_1_10_gamma, %batch_1_1_10_beta, %batch_1_1_10_moving_mean, %batch_1_1_10_moving_var) /* ty=(Tensor[(1, 32, 28, 28), float32], Tensor[(32), float32], Tensor[(32), float32]) */;
  %141 = %140.0 /* ty=Tensor[(1, 32, 28, 28), float32] */;
  %142 = nn.relu(%141) /* ty=Tensor[(1, 32, 28, 28), float32] */;
  %143 = nn.conv2d(%142, %conv2d_1_1_10_weight, padding=[0, 0, 0, 0], channels=128, kernel_size=[1, 1]) /* ty=Tensor[(1, 128, 28, 28), float32] */;
  %144 = nn.batch_norm(%143, %batch_2_1_10_gamma, %batch_2_1_10_beta, %batch_2_1_10_moving_mean, %batch_2_1_10_moving_var) /* ty=(Tensor[(1, 128, 28, 28), float32], Tensor[(128), float32], Tensor[(128), float32]) */;
  %145 = %144.0 /* ty=Tensor[(1, 128, 28, 28), float32] */;
  %146 = nn.relu(%145) /* ty=Tensor[(1, 128, 28, 28), float32] */;
  %147 = nn.conv2d(%146, %conv2d_2_1_10_weight, padding=[1, 1, 1, 1], channels=32, kernel_size=[3, 3]) /* ty=Tensor[(1, 32, 28, 28), float32] */;
  %148 = nn.batch_norm(%147, %batch_1_1_11_gamma, %batch_1_1_11_beta, %batch_1_1_11_moving_mean, %batch_1_1_11_moving_var) /* ty=(Tensor[(1, 32, 28, 28), float32], Tensor[(32), float32], Tensor[(32), float32]) */;
  %149 = %148.0 /* ty=Tensor[(1, 32, 28, 28), float32] */;
  %150 = nn.relu(%149) /* ty=Tensor[(1, 32, 28, 28), float32] */;
  %151 = nn.conv2d(%150, %conv2d_1_1_11_weight, padding=[0, 0, 0, 0], channels=128, kernel_size=[1, 1]) /* ty=Tensor[(1, 128, 28, 28), float32] */;
  %152 = nn.batch_norm(%151, %batch_2_1_11_gamma, %batch_2_1_11_beta, %batch_2_1_11_moving_mean, %batch_2_1_11_moving_var) /* ty=(Tensor[(1, 128, 28, 28), float32], Tensor[(128), float32], Tensor[(128), float32]) */;
  %153 = %152.0 /* ty=Tensor[(1, 128, 28, 28), float32] */;
  %154 = nn.relu(%153) /* ty=Tensor[(1, 128, 28, 28), float32] */;
  %155 = nn.conv2d(%154, %conv2d_2_1_11_weight, padding=[1, 1, 1, 1], channels=32, kernel_size=[3, 3]) /* ty=Tensor[(1, 32, 28, 28), float32] */;
  %156 = (%67, %75, %83, %91, %99, %107, %115, %123, %131, %139, %147, %155) /* ty=(Tensor[(1, 32, 28, 28), float32], Tensor[(1, 32, 28, 28), float32], Tensor[(1, 32, 28, 28), float32], Tensor[(1, 32, 28, 28), float32], Tensor[(1, 32, 28, 28), float32], Tensor[(1, 32, 28, 28), float32], Tensor[(1, 32, 28, 28), float32], Tensor[(1, 32, 28, 28), float32], Tensor[(1, 32, 28, 28), float32], Tensor[(1, 32, 28, 28), float32], Tensor[(1, 32, 28, 28), float32], Tensor[(1, 32, 28, 28), float32]) */;
  %157 = concatenate(%156, axis=1) /* ty=Tensor[(1, 384, 28, 28), float32] */;
  %158 = nn.batch_norm(%157, %batch_t_1_gamma, %batch_t_1_beta, %batch_t_1_moving_mean, %batch_t_1_moving_var) /* ty=(Tensor[(1, 384, 28, 28), float32], Tensor[(384), float32], Tensor[(384), float32]) */;
  %159 = %158.0 /* ty=Tensor[(1, 384, 28, 28), float32] */;
  %160 = nn.relu(%159) /* ty=Tensor[(1, 384, 28, 28), float32] */;
  %161 = nn.conv2d(%160, %conv_t_1_weight, padding=[0, 0, 0, 0], channels=256, kernel_size=[1, 1]) /* ty=Tensor[(1, 256, 28, 28), float32] */;
  %162 = nn.avg_pool2d(%161, pool_size=[2, 2], strides=[2, 2], padding=[0, 0, 0, 0]) /* ty=Tensor[(1, 256, 14, 14), float32] */;
  %163 = nn.batch_norm(%162, %batch_1_2_0_gamma, %batch_1_2_0_beta, %batch_1_2_0_moving_mean, %batch_1_2_0_moving_var) /* ty=(Tensor[(1, 256, 14, 14), float32], Tensor[(256), float32], Tensor[(256), float32]) */;
  %164 = %163.0 /* ty=Tensor[(1, 256, 14, 14), float32] */;
  %165 = nn.relu(%164) /* ty=Tensor[(1, 256, 14, 14), float32] */;
  %166 = nn.conv2d(%165, %conv2d_1_2_0_weight, padding=[0, 0, 0, 0], channels=128, kernel_size=[1, 1]) /* ty=Tensor[(1, 128, 14, 14), float32] */;
  %167 = nn.batch_norm(%166, %batch_2_2_0_gamma, %batch_2_2_0_beta, %batch_2_2_0_moving_mean, %batch_2_2_0_moving_var) /* ty=(Tensor[(1, 128, 14, 14), float32], Tensor[(128), float32], Tensor[(128), float32]) */;
  %168 = %167.0 /* ty=Tensor[(1, 128, 14, 14), float32] */;
  %169 = nn.relu(%168) /* ty=Tensor[(1, 128, 14, 14), float32] */;
  %170 = nn.conv2d(%169, %conv2d_2_2_0_weight, padding=[1, 1, 1, 1], channels=32, kernel_size=[3, 3]) /* ty=Tensor[(1, 32, 14, 14), float32] */;
  %171 = nn.batch_norm(%170, %batch_1_2_1_gamma, %batch_1_2_1_beta, %batch_1_2_1_moving_mean, %batch_1_2_1_moving_var) /* ty=(Tensor[(1, 32, 14, 14), float32], Tensor[(32), float32], Tensor[(32), float32]) */;
  %172 = %171.0 /* ty=Tensor[(1, 32, 14, 14), float32] */;
  %173 = nn.relu(%172) /* ty=Tensor[(1, 32, 14, 14), float32] */;
  %174 = nn.conv2d(%173, %conv2d_1_2_1_weight, padding=[0, 0, 0, 0], channels=128, kernel_size=[1, 1]) /* ty=Tensor[(1, 128, 14, 14), float32] */;
  %175 = nn.batch_norm(%174, %batch_2_2_1_gamma, %batch_2_2_1_beta, %batch_2_2_1_moving_mean, %batch_2_2_1_moving_var) /* ty=(Tensor[(1, 128, 14, 14), float32], Tensor[(128), float32], Tensor[(128), float32]) */;
  %176 = %175.0 /* ty=Tensor[(1, 128, 14, 14), float32] */;
  %177 = nn.relu(%176) /* ty=Tensor[(1, 128, 14, 14), float32] */;
  %178 = nn.conv2d(%177, %conv2d_2_2_1_weight, padding=[1, 1, 1, 1], channels=32, kernel_size=[3, 3]) /* ty=Tensor[(1, 32, 14, 14), float32] */;
  %179 = nn.batch_norm(%178, %batch_1_2_2_gamma, %batch_1_2_2_beta, %batch_1_2_2_moving_mean, %batch_1_2_2_moving_var) /* ty=(Tensor[(1, 32, 14, 14), float32], Tensor[(32), float32], Tensor[(32), float32]) */;
  %180 = %179.0 /* ty=Tensor[(1, 32, 14, 14), float32] */;
  %181 = nn.relu(%180) /* ty=Tensor[(1, 32, 14, 14), float32] */;
  %182 = nn.conv2d(%181, %conv2d_1_2_2_weight, padding=[0, 0, 0, 0], channels=128, kernel_size=[1, 1]) /* ty=Tensor[(1, 128, 14, 14), float32] */;
  %183 = nn.batch_norm(%182, %batch_2_2_2_gamma, %batch_2_2_2_beta, %batch_2_2_2_moving_mean, %batch_2_2_2_moving_var) /* ty=(Tensor[(1, 128, 14, 14), float32], Tensor[(128), float32], Tensor[(128), float32]) */;
  %184 = %183.0 /* ty=Tensor[(1, 128, 14, 14), float32] */;
  %185 = nn.relu(%184) /* ty=Tensor[(1, 128, 14, 14), float32] */;
  %186 = nn.conv2d(%185, %conv2d_2_2_2_weight, padding=[1, 1, 1, 1], channels=32, kernel_size=[3, 3]) /* ty=Tensor[(1, 32, 14, 14), float32] */;
  %187 = nn.batch_norm(%186, %batch_1_2_3_gamma, %batch_1_2_3_beta, %batch_1_2_3_moving_mean, %batch_1_2_3_moving_var) /* ty=(Tensor[(1, 32, 14, 14), float32], Tensor[(32), float32], Tensor[(32), float32]) */;
  %188 = %187.0 /* ty=Tensor[(1, 32, 14, 14), float32] */;
  %189 = nn.relu(%188) /* ty=Tensor[(1, 32, 14, 14), float32] */;
  %190 = nn.conv2d(%189, %conv2d_1_2_3_weight, padding=[0, 0, 0, 0], channels=128, kernel_size=[1, 1]) /* ty=Tensor[(1, 128, 14, 14), float32] */;
  %191 = nn.batch_norm(%190, %batch_2_2_3_gamma, %batch_2_2_3_beta, %batch_2_2_3_moving_mean, %batch_2_2_3_moving_var) /* ty=(Tensor[(1, 128, 14, 14), float32], Tensor[(128), float32], Tensor[(128), float32]) */;
  %192 = %191.0 /* ty=Tensor[(1, 128, 14, 14), float32] */;
  %193 = nn.relu(%192) /* ty=Tensor[(1, 128, 14, 14), float32] */;
  %194 = nn.conv2d(%193, %conv2d_2_2_3_weight, padding=[1, 1, 1, 1], channels=32, kernel_size=[3, 3]) /* ty=Tensor[(1, 32, 14, 14), float32] */;
  %195 = nn.batch_norm(%194, %batch_1_2_4_gamma, %batch_1_2_4_beta, %batch_1_2_4_moving_mean, %batch_1_2_4_moving_var) /* ty=(Tensor[(1, 32, 14, 14), float32], Tensor[(32), float32], Tensor[(32), float32]) */;
  %196 = %195.0 /* ty=Tensor[(1, 32, 14, 14), float32] */;
  %197 = nn.relu(%196) /* ty=Tensor[(1, 32, 14, 14), float32] */;
  %198 = nn.conv2d(%197, %conv2d_1_2_4_weight, padding=[0, 0, 0, 0], channels=128, kernel_size=[1, 1]) /* ty=Tensor[(1, 128, 14, 14), float32] */;
  %199 = nn.batch_norm(%198, %batch_2_2_4_gamma, %batch_2_2_4_beta, %batch_2_2_4_moving_mean, %batch_2_2_4_moving_var) /* ty=(Tensor[(1, 128, 14, 14), float32], Tensor[(128), float32], Tensor[(128), float32]) */;
  %200 = %199.0 /* ty=Tensor[(1, 128, 14, 14), float32] */;
  %201 = nn.relu(%200) /* ty=Tensor[(1, 128, 14, 14), float32] */;
  %202 = nn.conv2d(%201, %conv2d_2_2_4_weight, padding=[1, 1, 1, 1], channels=32, kernel_size=[3, 3]) /* ty=Tensor[(1, 32, 14, 14), float32] */;
  %203 = nn.batch_norm(%202, %batch_1_2_5_gamma, %batch_1_2_5_beta, %batch_1_2_5_moving_mean, %batch_1_2_5_moving_var) /* ty=(Tensor[(1, 32, 14, 14), float32], Tensor[(32), float32], Tensor[(32), float32]) */;
  %204 = %203.0 /* ty=Tensor[(1, 32, 14, 14), float32] */;
  %205 = nn.relu(%204) /* ty=Tensor[(1, 32, 14, 14), float32] */;
  %206 = nn.conv2d(%205, %conv2d_1_2_5_weight, padding=[0, 0, 0, 0], channels=128, kernel_size=[1, 1]) /* ty=Tensor[(1, 128, 14, 14), float32] */;
  %207 = nn.batch_norm(%206, %batch_2_2_5_gamma, %batch_2_2_5_beta, %batch_2_2_5_moving_mean, %batch_2_2_5_moving_var) /* ty=(Tensor[(1, 128, 14, 14), float32], Tensor[(128), float32], Tensor[(128), float32]) */;
  %208 = %207.0 /* ty=Tensor[(1, 128, 14, 14), float32] */;
  %209 = nn.relu(%208) /* ty=Tensor[(1, 128, 14, 14), float32] */;
  %210 = nn.conv2d(%209, %conv2d_2_2_5_weight, padding=[1, 1, 1, 1], channels=32, kernel_size=[3, 3]) /* ty=Tensor[(1, 32, 14, 14), float32] */;
  %211 = nn.batch_norm(%210, %batch_1_2_6_gamma, %batch_1_2_6_beta, %batch_1_2_6_moving_mean, %batch_1_2_6_moving_var) /* ty=(Tensor[(1, 32, 14, 14), float32], Tensor[(32), float32], Tensor[(32), float32]) */;
  %212 = %211.0 /* ty=Tensor[(1, 32, 14, 14), float32] */;
  %213 = nn.relu(%212) /* ty=Tensor[(1, 32, 14, 14), float32] */;
  %214 = nn.conv2d(%213, %conv2d_1_2_6_weight, padding=[0, 0, 0, 0], channels=128, kernel_size=[1, 1]) /* ty=Tensor[(1, 128, 14, 14), float32] */;
  %215 = nn.batch_norm(%214, %batch_2_2_6_gamma, %batch_2_2_6_beta, %batch_2_2_6_moving_mean, %batch_2_2_6_moving_var) /* ty=(Tensor[(1, 128, 14, 14), float32], Tensor[(128), float32], Tensor[(128), float32]) */;
  %216 = %215.0 /* ty=Tensor[(1, 128, 14, 14), float32] */;
  %217 = nn.relu(%216) /* ty=Tensor[(1, 128, 14, 14), float32] */;
  %218 = nn.conv2d(%217, %conv2d_2_2_6_weight, padding=[1, 1, 1, 1], channels=32, kernel_size=[3, 3]) /* ty=Tensor[(1, 32, 14, 14), float32] */;
  %219 = nn.batch_norm(%218, %batch_1_2_7_gamma, %batch_1_2_7_beta, %batch_1_2_7_moving_mean, %batch_1_2_7_moving_var) /* ty=(Tensor[(1, 32, 14, 14), float32], Tensor[(32), float32], Tensor[(32), float32]) */;
  %220 = %219.0 /* ty=Tensor[(1, 32, 14, 14), float32] */;
  %221 = nn.relu(%220) /* ty=Tensor[(1, 32, 14, 14), float32] */;
  %222 = nn.conv2d(%221, %conv2d_1_2_7_weight, padding=[0, 0, 0, 0], channels=128, kernel_size=[1, 1]) /* ty=Tensor[(1, 128, 14, 14), float32] */;
  %223 = nn.batch_norm(%222, %batch_2_2_7_gamma, %batch_2_2_7_beta, %batch_2_2_7_moving_mean, %batch_2_2_7_moving_var) /* ty=(Tensor[(1, 128, 14, 14), float32], Tensor[(128), float32], Tensor[(128), float32]) */;
  %224 = %223.0 /* ty=Tensor[(1, 128, 14, 14), float32] */;
  %225 = nn.relu(%224) /* ty=Tensor[(1, 128, 14, 14), float32] */;
  %226 = nn.conv2d(%225, %conv2d_2_2_7_weight, padding=[1, 1, 1, 1], channels=32, kernel_size=[3, 3]) /* ty=Tensor[(1, 32, 14, 14), float32] */;
  %227 = nn.batch_norm(%226, %batch_1_2_8_gamma, %batch_1_2_8_beta, %batch_1_2_8_moving_mean, %batch_1_2_8_moving_var) /* ty=(Tensor[(1, 32, 14, 14), float32], Tensor[(32), float32], Tensor[(32), float32]) */;
  %228 = %227.0 /* ty=Tensor[(1, 32, 14, 14), float32] */;
  %229 = nn.relu(%228) /* ty=Tensor[(1, 32, 14, 14), float32] */;
  %230 = nn.conv2d(%229, %conv2d_1_2_8_weight, padding=[0, 0, 0, 0], channels=128, kernel_size=[1, 1]) /* ty=Tensor[(1, 128, 14, 14), float32] */;
  %231 = nn.batch_norm(%230, %batch_2_2_8_gamma, %batch_2_2_8_beta, %batch_2_2_8_moving_mean, %batch_2_2_8_moving_var) /* ty=(Tensor[(1, 128, 14, 14), float32], Tensor[(128), float32], Tensor[(128), float32]) */;
  %232 = %231.0 /* ty=Tensor[(1, 128, 14, 14), float32] */;
  %233 = nn.relu(%232) /* ty=Tensor[(1, 128, 14, 14), float32] */;
  %234 = nn.conv2d(%233, %conv2d_2_2_8_weight, padding=[1, 1, 1, 1], channels=32, kernel_size=[3, 3]) /* ty=Tensor[(1, 32, 14, 14), float32] */;
  %235 = nn.batch_norm(%234, %batch_1_2_9_gamma, %batch_1_2_9_beta, %batch_1_2_9_moving_mean, %batch_1_2_9_moving_var) /* ty=(Tensor[(1, 32, 14, 14), float32], Tensor[(32), float32], Tensor[(32), float32]) */;
  %236 = %235.0 /* ty=Tensor[(1, 32, 14, 14), float32] */;
  %237 = nn.relu(%236) /* ty=Tensor[(1, 32, 14, 14), float32] */;
  %238 = nn.conv2d(%237, %conv2d_1_2_9_weight, padding=[0, 0, 0, 0], channels=128, kernel_size=[1, 1]) /* ty=Tensor[(1, 128, 14, 14), float32] */;
  %239 = nn.batch_norm(%238, %batch_2_2_9_gamma, %batch_2_2_9_beta, %batch_2_2_9_moving_mean, %batch_2_2_9_moving_var) /* ty=(Tensor[(1, 128, 14, 14), float32], Tensor[(128), float32], Tensor[(128), float32]) */;
  %240 = %239.0 /* ty=Tensor[(1, 128, 14, 14), float32] */;
  %241 = nn.relu(%240) /* ty=Tensor[(1, 128, 14, 14), float32] */;
  %242 = nn.conv2d(%241, %conv2d_2_2_9_weight, padding=[1, 1, 1, 1], channels=32, kernel_size=[3, 3]) /* ty=Tensor[(1, 32, 14, 14), float32] */;
  %243 = nn.batch_norm(%242, %batch_1_2_10_gamma, %batch_1_2_10_beta, %batch_1_2_10_moving_mean, %batch_1_2_10_moving_var) /* ty=(Tensor[(1, 32, 14, 14), float32], Tensor[(32), float32], Tensor[(32), float32]) */;
  %244 = %243.0 /* ty=Tensor[(1, 32, 14, 14), float32] */;
  %245 = nn.relu(%244) /* ty=Tensor[(1, 32, 14, 14), float32] */;
  %246 = nn.conv2d(%245, %conv2d_1_2_10_weight, padding=[0, 0, 0, 0], channels=128, kernel_size=[1, 1]) /* ty=Tensor[(1, 128, 14, 14), float32] */;
  %247 = nn.batch_norm(%246, %batch_2_2_10_gamma, %batch_2_2_10_beta, %batch_2_2_10_moving_mean, %batch_2_2_10_moving_var) /* ty=(Tensor[(1, 128, 14, 14), float32], Tensor[(128), float32], Tensor[(128), float32]) */;
  %248 = %247.0 /* ty=Tensor[(1, 128, 14, 14), float32] */;
  %249 = nn.relu(%248) /* ty=Tensor[(1, 128, 14, 14), float32] */;
  %250 = nn.conv2d(%249, %conv2d_2_2_10_weight, padding=[1, 1, 1, 1], channels=32, kernel_size=[3, 3]) /* ty=Tensor[(1, 32, 14, 14), float32] */;
  %251 = nn.batch_norm(%250, %batch_1_2_11_gamma, %batch_1_2_11_beta, %batch_1_2_11_moving_mean, %batch_1_2_11_moving_var) /* ty=(Tensor[(1, 32, 14, 14), float32], Tensor[(32), float32], Tensor[(32), float32]) */;
  %252 = %251.0 /* ty=Tensor[(1, 32, 14, 14), float32] */;
  %253 = nn.relu(%252) /* ty=Tensor[(1, 32, 14, 14), float32] */;
  %254 = nn.conv2d(%253, %conv2d_1_2_11_weight, padding=[0, 0, 0, 0], channels=128, kernel_size=[1, 1]) /* ty=Tensor[(1, 128, 14, 14), float32] */;
  %255 = nn.batch_norm(%254, %batch_2_2_11_gamma, %batch_2_2_11_beta, %batch_2_2_11_moving_mean, %batch_2_2_11_moving_var) /* ty=(Tensor[(1, 128, 14, 14), float32], Tensor[(128), float32], Tensor[(128), float32]) */;
  %256 = %255.0 /* ty=Tensor[(1, 128, 14, 14), float32] */;
  %257 = nn.relu(%256) /* ty=Tensor[(1, 128, 14, 14), float32] */;
  %258 = nn.conv2d(%257, %conv2d_2_2_11_weight, padding=[1, 1, 1, 1], channels=32, kernel_size=[3, 3]) /* ty=Tensor[(1, 32, 14, 14), float32] */;
  %259 = nn.batch_norm(%258, %batch_1_2_12_gamma, %batch_1_2_12_beta, %batch_1_2_12_moving_mean, %batch_1_2_12_moving_var) /* ty=(Tensor[(1, 32, 14, 14), float32], Tensor[(32), float32], Tensor[(32), float32]) */;
  %260 = %259.0 /* ty=Tensor[(1, 32, 14, 14), float32] */;
  %261 = nn.relu(%260) /* ty=Tensor[(1, 32, 14, 14), float32] */;
  %262 = nn.conv2d(%261, %conv2d_1_2_12_weight, padding=[0, 0, 0, 0], channels=128, kernel_size=[1, 1]) /* ty=Tensor[(1, 128, 14, 14), float32] */;
  %263 = nn.batch_norm(%262, %batch_2_2_12_gamma, %batch_2_2_12_beta, %batch_2_2_12_moving_mean, %batch_2_2_12_moving_var) /* ty=(Tensor[(1, 128, 14, 14), float32], Tensor[(128), float32], Tensor[(128), float32]) */;
  %264 = %263.0 /* ty=Tensor[(1, 128, 14, 14), float32] */;
  %265 = nn.relu(%264) /* ty=Tensor[(1, 128, 14, 14), float32] */;
  %266 = nn.conv2d(%265, %conv2d_2_2_12_weight, padding=[1, 1, 1, 1], channels=32, kernel_size=[3, 3]) /* ty=Tensor[(1, 32, 14, 14), float32] */;
  %267 = nn.batch_norm(%266, %batch_1_2_13_gamma, %batch_1_2_13_beta, %batch_1_2_13_moving_mean, %batch_1_2_13_moving_var) /* ty=(Tensor[(1, 32, 14, 14), float32], Tensor[(32), float32], Tensor[(32), float32]) */;
  %268 = %267.0 /* ty=Tensor[(1, 32, 14, 14), float32] */;
  %269 = nn.relu(%268) /* ty=Tensor[(1, 32, 14, 14), float32] */;
  %270 = nn.conv2d(%269, %conv2d_1_2_13_weight, padding=[0, 0, 0, 0], channels=128, kernel_size=[1, 1]) /* ty=Tensor[(1, 128, 14, 14), float32] */;
  %271 = nn.batch_norm(%270, %batch_2_2_13_gamma, %batch_2_2_13_beta, %batch_2_2_13_moving_mean, %batch_2_2_13_moving_var) /* ty=(Tensor[(1, 128, 14, 14), float32], Tensor[(128), float32], Tensor[(128), float32]) */;
  %272 = %271.0 /* ty=Tensor[(1, 128, 14, 14), float32] */;
  %273 = nn.relu(%272) /* ty=Tensor[(1, 128, 14, 14), float32] */;
  %274 = nn.conv2d(%273, %conv2d_2_2_13_weight, padding=[1, 1, 1, 1], channels=32, kernel_size=[3, 3]) /* ty=Tensor[(1, 32, 14, 14), float32] */;
  %275 = nn.batch_norm(%274, %batch_1_2_14_gamma, %batch_1_2_14_beta, %batch_1_2_14_moving_mean, %batch_1_2_14_moving_var) /* ty=(Tensor[(1, 32, 14, 14), float32], Tensor[(32), float32], Tensor[(32), float32]) */;
  %276 = %275.0 /* ty=Tensor[(1, 32, 14, 14), float32] */;
  %277 = nn.relu(%276) /* ty=Tensor[(1, 32, 14, 14), float32] */;
  %278 = nn.conv2d(%277, %conv2d_1_2_14_weight, padding=[0, 0, 0, 0], channels=128, kernel_size=[1, 1]) /* ty=Tensor[(1, 128, 14, 14), float32] */;
  %279 = nn.batch_norm(%278, %batch_2_2_14_gamma, %batch_2_2_14_beta, %batch_2_2_14_moving_mean, %batch_2_2_14_moving_var) /* ty=(Tensor[(1, 128, 14, 14), float32], Tensor[(128), float32], Tensor[(128), float32]) */;
  %280 = %279.0 /* ty=Tensor[(1, 128, 14, 14), float32] */;
  %281 = nn.relu(%280) /* ty=Tensor[(1, 128, 14, 14), float32] */;
  %282 = nn.conv2d(%281, %conv2d_2_2_14_weight, padding=[1, 1, 1, 1], channels=32, kernel_size=[3, 3]) /* ty=Tensor[(1, 32, 14, 14), float32] */;
  %283 = nn.batch_norm(%282, %batch_1_2_15_gamma, %batch_1_2_15_beta, %batch_1_2_15_moving_mean, %batch_1_2_15_moving_var) /* ty=(Tensor[(1, 32, 14, 14), float32], Tensor[(32), float32], Tensor[(32), float32]) */;
  %284 = %283.0 /* ty=Tensor[(1, 32, 14, 14), float32] */;
  %285 = nn.relu(%284) /* ty=Tensor[(1, 32, 14, 14), float32] */;
  %286 = nn.conv2d(%285, %conv2d_1_2_15_weight, padding=[0, 0, 0, 0], channels=128, kernel_size=[1, 1]) /* ty=Tensor[(1, 128, 14, 14), float32] */;
  %287 = nn.batch_norm(%286, %batch_2_2_15_gamma, %batch_2_2_15_beta, %batch_2_2_15_moving_mean, %batch_2_2_15_moving_var) /* ty=(Tensor[(1, 128, 14, 14), float32], Tensor[(128), float32], Tensor[(128), float32]) */;
  %288 = %287.0 /* ty=Tensor[(1, 128, 14, 14), float32] */;
  %289 = nn.relu(%288) /* ty=Tensor[(1, 128, 14, 14), float32] */;
  %290 = nn.conv2d(%289, %conv2d_2_2_15_weight, padding=[1, 1, 1, 1], channels=32, kernel_size=[3, 3]) /* ty=Tensor[(1, 32, 14, 14), float32] */;
  %291 = nn.batch_norm(%290, %batch_1_2_16_gamma, %batch_1_2_16_beta, %batch_1_2_16_moving_mean, %batch_1_2_16_moving_var) /* ty=(Tensor[(1, 32, 14, 14), float32], Tensor[(32), float32], Tensor[(32), float32]) */;
  %292 = %291.0 /* ty=Tensor[(1, 32, 14, 14), float32] */;
  %293 = nn.relu(%292) /* ty=Tensor[(1, 32, 14, 14), float32] */;
  %294 = nn.conv2d(%293, %conv2d_1_2_16_weight, padding=[0, 0, 0, 0], channels=128, kernel_size=[1, 1]) /* ty=Tensor[(1, 128, 14, 14), float32] */;
  %295 = nn.batch_norm(%294, %batch_2_2_16_gamma, %batch_2_2_16_beta, %batch_2_2_16_moving_mean, %batch_2_2_16_moving_var) /* ty=(Tensor[(1, 128, 14, 14), float32], Tensor[(128), float32], Tensor[(128), float32]) */;
  %296 = %295.0 /* ty=Tensor[(1, 128, 14, 14), float32] */;
  %297 = nn.relu(%296) /* ty=Tensor[(1, 128, 14, 14), float32] */;
  %298 = nn.conv2d(%297, %conv2d_2_2_16_weight, padding=[1, 1, 1, 1], channels=32, kernel_size=[3, 3]) /* ty=Tensor[(1, 32, 14, 14), float32] */;
  %299 = nn.batch_norm(%298, %batch_1_2_17_gamma, %batch_1_2_17_beta, %batch_1_2_17_moving_mean, %batch_1_2_17_moving_var) /* ty=(Tensor[(1, 32, 14, 14), float32], Tensor[(32), float32], Tensor[(32), float32]) */;
  %300 = %299.0 /* ty=Tensor[(1, 32, 14, 14), float32] */;
  %301 = nn.relu(%300) /* ty=Tensor[(1, 32, 14, 14), float32] */;
  %302 = nn.conv2d(%301, %conv2d_1_2_17_weight, padding=[0, 0, 0, 0], channels=128, kernel_size=[1, 1]) /* ty=Tensor[(1, 128, 14, 14), float32] */;
  %303 = nn.batch_norm(%302, %batch_2_2_17_gamma, %batch_2_2_17_beta, %batch_2_2_17_moving_mean, %batch_2_2_17_moving_var) /* ty=(Tensor[(1, 128, 14, 14), float32], Tensor[(128), float32], Tensor[(128), float32]) */;
  %304 = %303.0 /* ty=Tensor[(1, 128, 14, 14), float32] */;
  %305 = nn.relu(%304) /* ty=Tensor[(1, 128, 14, 14), float32] */;
  %306 = nn.conv2d(%305, %conv2d_2_2_17_weight, padding=[1, 1, 1, 1], channels=32, kernel_size=[3, 3]) /* ty=Tensor[(1, 32, 14, 14), float32] */;
  %307 = nn.batch_norm(%306, %batch_1_2_18_gamma, %batch_1_2_18_beta, %batch_1_2_18_moving_mean, %batch_1_2_18_moving_var) /* ty=(Tensor[(1, 32, 14, 14), float32], Tensor[(32), float32], Tensor[(32), float32]) */;
  %308 = %307.0 /* ty=Tensor[(1, 32, 14, 14), float32] */;
  %309 = nn.relu(%308) /* ty=Tensor[(1, 32, 14, 14), float32] */;
  %310 = nn.conv2d(%309, %conv2d_1_2_18_weight, padding=[0, 0, 0, 0], channels=128, kernel_size=[1, 1]) /* ty=Tensor[(1, 128, 14, 14), float32] */;
  %311 = nn.batch_norm(%310, %batch_2_2_18_gamma, %batch_2_2_18_beta, %batch_2_2_18_moving_mean, %batch_2_2_18_moving_var) /* ty=(Tensor[(1, 128, 14, 14), float32], Tensor[(128), float32], Tensor[(128), float32]) */;
  %312 = %311.0 /* ty=Tensor[(1, 128, 14, 14), float32] */;
  %313 = nn.relu(%312) /* ty=Tensor[(1, 128, 14, 14), float32] */;
  %314 = nn.conv2d(%313, %conv2d_2_2_18_weight, padding=[1, 1, 1, 1], channels=32, kernel_size=[3, 3]) /* ty=Tensor[(1, 32, 14, 14), float32] */;
  %315 = nn.batch_norm(%314, %batch_1_2_19_gamma, %batch_1_2_19_beta, %batch_1_2_19_moving_mean, %batch_1_2_19_moving_var) /* ty=(Tensor[(1, 32, 14, 14), float32], Tensor[(32), float32], Tensor[(32), float32]) */;
  %316 = %315.0 /* ty=Tensor[(1, 32, 14, 14), float32] */;
  %317 = nn.relu(%316) /* ty=Tensor[(1, 32, 14, 14), float32] */;
  %318 = nn.conv2d(%317, %conv2d_1_2_19_weight, padding=[0, 0, 0, 0], channels=128, kernel_size=[1, 1]) /* ty=Tensor[(1, 128, 14, 14), float32] */;
  %319 = nn.batch_norm(%318, %batch_2_2_19_gamma, %batch_2_2_19_beta, %batch_2_2_19_moving_mean, %batch_2_2_19_moving_var) /* ty=(Tensor[(1, 128, 14, 14), float32], Tensor[(128), float32], Tensor[(128), float32]) */;
  %320 = %319.0 /* ty=Tensor[(1, 128, 14, 14), float32] */;
  %321 = nn.relu(%320) /* ty=Tensor[(1, 128, 14, 14), float32] */;
  %322 = nn.conv2d(%321, %conv2d_2_2_19_weight, padding=[1, 1, 1, 1], channels=32, kernel_size=[3, 3]) /* ty=Tensor[(1, 32, 14, 14), float32] */;
  %323 = nn.batch_norm(%322, %batch_1_2_20_gamma, %batch_1_2_20_beta, %batch_1_2_20_moving_mean, %batch_1_2_20_moving_var) /* ty=(Tensor[(1, 32, 14, 14), float32], Tensor[(32), float32], Tensor[(32), float32]) */;
  %324 = %323.0 /* ty=Tensor[(1, 32, 14, 14), float32] */;
  %325 = nn.relu(%324) /* ty=Tensor[(1, 32, 14, 14), float32] */;
  %326 = nn.conv2d(%325, %conv2d_1_2_20_weight, padding=[0, 0, 0, 0], channels=128, kernel_size=[1, 1]) /* ty=Tensor[(1, 128, 14, 14), float32] */;
  %327 = nn.batch_norm(%326, %batch_2_2_20_gamma, %batch_2_2_20_beta, %batch_2_2_20_moving_mean, %batch_2_2_20_moving_var) /* ty=(Tensor[(1, 128, 14, 14), float32], Tensor[(128), float32], Tensor[(128), float32]) */;
  %328 = %327.0 /* ty=Tensor[(1, 128, 14, 14), float32] */;
  %329 = nn.relu(%328) /* ty=Tensor[(1, 128, 14, 14), float32] */;
  %330 = nn.conv2d(%329, %conv2d_2_2_20_weight, padding=[1, 1, 1, 1], channels=32, kernel_size=[3, 3]) /* ty=Tensor[(1, 32, 14, 14), float32] */;
  %331 = nn.batch_norm(%330, %batch_1_2_21_gamma, %batch_1_2_21_beta, %batch_1_2_21_moving_mean, %batch_1_2_21_moving_var) /* ty=(Tensor[(1, 32, 14, 14), float32], Tensor[(32), float32], Tensor[(32), float32]) */;
  %332 = %331.0 /* ty=Tensor[(1, 32, 14, 14), float32] */;
  %333 = nn.relu(%332) /* ty=Tensor[(1, 32, 14, 14), float32] */;
  %334 = nn.conv2d(%333, %conv2d_1_2_21_weight, padding=[0, 0, 0, 0], channels=128, kernel_size=[1, 1]) /* ty=Tensor[(1, 128, 14, 14), float32] */;
  %335 = nn.batch_norm(%334, %batch_2_2_21_gamma, %batch_2_2_21_beta, %batch_2_2_21_moving_mean, %batch_2_2_21_moving_var) /* ty=(Tensor[(1, 128, 14, 14), float32], Tensor[(128), float32], Tensor[(128), float32]) */;
  %336 = %335.0 /* ty=Tensor[(1, 128, 14, 14), float32] */;
  %337 = nn.relu(%336) /* ty=Tensor[(1, 128, 14, 14), float32] */;
  %338 = nn.conv2d(%337, %conv2d_2_2_21_weight, padding=[1, 1, 1, 1], channels=32, kernel_size=[3, 3]) /* ty=Tensor[(1, 32, 14, 14), float32] */;
  %339 = nn.batch_norm(%338, %batch_1_2_22_gamma, %batch_1_2_22_beta, %batch_1_2_22_moving_mean, %batch_1_2_22_moving_var) /* ty=(Tensor[(1, 32, 14, 14), float32], Tensor[(32), float32], Tensor[(32), float32]) */;
  %340 = %339.0 /* ty=Tensor[(1, 32, 14, 14), float32] */;
  %341 = nn.relu(%340) /* ty=Tensor[(1, 32, 14, 14), float32] */;
  %342 = nn.conv2d(%341, %conv2d_1_2_22_weight, padding=[0, 0, 0, 0], channels=128, kernel_size=[1, 1]) /* ty=Tensor[(1, 128, 14, 14), float32] */;
  %343 = nn.batch_norm(%342, %batch_2_2_22_gamma, %batch_2_2_22_beta, %batch_2_2_22_moving_mean, %batch_2_2_22_moving_var) /* ty=(Tensor[(1, 128, 14, 14), float32], Tensor[(128), float32], Tensor[(128), float32]) */;
  %344 = %343.0 /* ty=Tensor[(1, 128, 14, 14), float32] */;
  %345 = nn.relu(%344) /* ty=Tensor[(1, 128, 14, 14), float32] */;
  %346 = nn.conv2d(%345, %conv2d_2_2_22_weight, padding=[1, 1, 1, 1], channels=32, kernel_size=[3, 3]) /* ty=Tensor[(1, 32, 14, 14), float32] */;
  %347 = nn.batch_norm(%346, %batch_1_2_23_gamma, %batch_1_2_23_beta, %batch_1_2_23_moving_mean, %batch_1_2_23_moving_var) /* ty=(Tensor[(1, 32, 14, 14), float32], Tensor[(32), float32], Tensor[(32), float32]) */;
  %348 = %347.0 /* ty=Tensor[(1, 32, 14, 14), float32] */;
  %349 = nn.relu(%348) /* ty=Tensor[(1, 32, 14, 14), float32] */;
  %350 = nn.conv2d(%349, %conv2d_1_2_23_weight, padding=[0, 0, 0, 0], channels=128, kernel_size=[1, 1]) /* ty=Tensor[(1, 128, 14, 14), float32] */;
  %351 = nn.batch_norm(%350, %batch_2_2_23_gamma, %batch_2_2_23_beta, %batch_2_2_23_moving_mean, %batch_2_2_23_moving_var) /* ty=(Tensor[(1, 128, 14, 14), float32], Tensor[(128), float32], Tensor[(128), float32]) */;
  %352 = %351.0 /* ty=Tensor[(1, 128, 14, 14), float32] */;
  %353 = nn.relu(%352) /* ty=Tensor[(1, 128, 14, 14), float32] */;
  %354 = nn.conv2d(%353, %conv2d_2_2_23_weight, padding=[1, 1, 1, 1], channels=32, kernel_size=[3, 3]) /* ty=Tensor[(1, 32, 14, 14), float32] */;
  %355 = (%170, %178, %186, %194, %202, %210, %218, %226, %234, %242, %250, %258, %266, %274, %282, %290, %298, %306, %314, %322, %330, %338, %346, %354) /* ty=(Tensor[(1, 32, 14, 14), float32], Tensor[(1, 32, 14, 14), float32], Tensor[(1, 32, 14, 14), float32], Tensor[(1, 32, 14, 14), float32], Tensor[(1, 32, 14, 14), float32], Tensor[(1, 32, 14, 14), float32], Tensor[(1, 32, 14, 14), float32], Tensor[(1, 32, 14, 14), float32], Tensor[(1, 32, 14, 14), float32], Tensor[(1, 32, 14, 14), float32], Tensor[(1, 32, 14, 14), float32], Tensor[(1, 32, 14, 14), float32], Tensor[(1, 32, 14, 14), float32], Tensor[(1, 32, 14, 14), float32], Tensor[(1, 32, 14, 14), float32], Tensor[(1, 32, 14, 14), float32], Tensor[(1, 32, 14, 14), float32], Tensor[(1, 32, 14, 14), float32], Tensor[(1, 32, 14, 14), float32], Tensor[(1, 32, 14, 14), float32], Tensor[(1, 32, 14, 14), float32], Tensor[(1, 32, 14, 14), float32], Tensor[(1, 32, 14, 14), float32], Tensor[(1, 32, 14, 14), float32]) */;
  %356 = concatenate(%355, axis=1) /* ty=Tensor[(1, 768, 14, 14), float32] */;
  %357 = nn.batch_norm(%356, %batch_t_2_gamma, %batch_t_2_beta, %batch_t_2_moving_mean, %batch_t_2_moving_var) /* ty=(Tensor[(1, 768, 14, 14), float32], Tensor[(768), float32], Tensor[(768), float32]) */;
  %358 = %357.0 /* ty=Tensor[(1, 768, 14, 14), float32] */;
  %359 = nn.relu(%358) /* ty=Tensor[(1, 768, 14, 14), float32] */;
  %360 = nn.conv2d(%359, %conv_t_2_weight, padding=[0, 0, 0, 0], channels=512, kernel_size=[1, 1]) /* ty=Tensor[(1, 512, 14, 14), float32] */;
  %361 = nn.avg_pool2d(%360, pool_size=[2, 2], strides=[2, 2], padding=[0, 0, 0, 0]) /* ty=Tensor[(1, 512, 7, 7), float32] */;
  %362 = nn.batch_norm(%361, %batch_1_3_0_gamma, %batch_1_3_0_beta, %batch_1_3_0_moving_mean, %batch_1_3_0_moving_var) /* ty=(Tensor[(1, 512, 7, 7), float32], Tensor[(512), float32], Tensor[(512), float32]) */;
  %363 = %362.0 /* ty=Tensor[(1, 512, 7, 7), float32] */;
  %364 = nn.relu(%363) /* ty=Tensor[(1, 512, 7, 7), float32] */;
  %365 = nn.conv2d(%364, %conv2d_1_3_0_weight, padding=[0, 0, 0, 0], channels=128, kernel_size=[1, 1]) /* ty=Tensor[(1, 128, 7, 7), float32] */;
  %366 = nn.batch_norm(%365, %batch_2_3_0_gamma, %batch_2_3_0_beta, %batch_2_3_0_moving_mean, %batch_2_3_0_moving_var) /* ty=(Tensor[(1, 128, 7, 7), float32], Tensor[(128), float32], Tensor[(128), float32]) */;
  %367 = %366.0 /* ty=Tensor[(1, 128, 7, 7), float32] */;
  %368 = nn.relu(%367) /* ty=Tensor[(1, 128, 7, 7), float32] */;
  %369 = nn.conv2d(%368, %conv2d_2_3_0_weight, padding=[1, 1, 1, 1], channels=32, kernel_size=[3, 3]) /* ty=Tensor[(1, 32, 7, 7), float32] */;
  %370 = nn.batch_norm(%369, %batch_1_3_1_gamma, %batch_1_3_1_beta, %batch_1_3_1_moving_mean, %batch_1_3_1_moving_var) /* ty=(Tensor[(1, 32, 7, 7), float32], Tensor[(32), float32], Tensor[(32), float32]) */;
  %371 = %370.0 /* ty=Tensor[(1, 32, 7, 7), float32] */;
  %372 = nn.relu(%371) /* ty=Tensor[(1, 32, 7, 7), float32] */;
  %373 = nn.conv2d(%372, %conv2d_1_3_1_weight, padding=[0, 0, 0, 0], channels=128, kernel_size=[1, 1]) /* ty=Tensor[(1, 128, 7, 7), float32] */;
  %374 = nn.batch_norm(%373, %batch_2_3_1_gamma, %batch_2_3_1_beta, %batch_2_3_1_moving_mean, %batch_2_3_1_moving_var) /* ty=(Tensor[(1, 128, 7, 7), float32], Tensor[(128), float32], Tensor[(128), float32]) */;
  %375 = %374.0 /* ty=Tensor[(1, 128, 7, 7), float32] */;
  %376 = nn.relu(%375) /* ty=Tensor[(1, 128, 7, 7), float32] */;
  %377 = nn.conv2d(%376, %conv2d_2_3_1_weight, padding=[1, 1, 1, 1], channels=32, kernel_size=[3, 3]) /* ty=Tensor[(1, 32, 7, 7), float32] */;
  %378 = nn.batch_norm(%377, %batch_1_3_2_gamma, %batch_1_3_2_beta, %batch_1_3_2_moving_mean, %batch_1_3_2_moving_var) /* ty=(Tensor[(1, 32, 7, 7), float32], Tensor[(32), float32], Tensor[(32), float32]) */;
  %379 = %378.0 /* ty=Tensor[(1, 32, 7, 7), float32] */;
  %380 = nn.relu(%379) /* ty=Tensor[(1, 32, 7, 7), float32] */;
  %381 = nn.conv2d(%380, %conv2d_1_3_2_weight, padding=[0, 0, 0, 0], channels=128, kernel_size=[1, 1]) /* ty=Tensor[(1, 128, 7, 7), float32] */;
  %382 = nn.batch_norm(%381, %batch_2_3_2_gamma, %batch_2_3_2_beta, %batch_2_3_2_moving_mean, %batch_2_3_2_moving_var) /* ty=(Tensor[(1, 128, 7, 7), float32], Tensor[(128), float32], Tensor[(128), float32]) */;
  %383 = %382.0 /* ty=Tensor[(1, 128, 7, 7), float32] */;
  %384 = nn.relu(%383) /* ty=Tensor[(1, 128, 7, 7), float32] */;
  %385 = nn.conv2d(%384, %conv2d_2_3_2_weight, padding=[1, 1, 1, 1], channels=32, kernel_size=[3, 3]) /* ty=Tensor[(1, 32, 7, 7), float32] */;
  %386 = nn.batch_norm(%385, %batch_1_3_3_gamma, %batch_1_3_3_beta, %batch_1_3_3_moving_mean, %batch_1_3_3_moving_var) /* ty=(Tensor[(1, 32, 7, 7), float32], Tensor[(32), float32], Tensor[(32), float32]) */;
  %387 = %386.0 /* ty=Tensor[(1, 32, 7, 7), float32] */;
  %388 = nn.relu(%387) /* ty=Tensor[(1, 32, 7, 7), float32] */;
  %389 = nn.conv2d(%388, %conv2d_1_3_3_weight, padding=[0, 0, 0, 0], channels=128, kernel_size=[1, 1]) /* ty=Tensor[(1, 128, 7, 7), float32] */;
  %390 = nn.batch_norm(%389, %batch_2_3_3_gamma, %batch_2_3_3_beta, %batch_2_3_3_moving_mean, %batch_2_3_3_moving_var) /* ty=(Tensor[(1, 128, 7, 7), float32], Tensor[(128), float32], Tensor[(128), float32]) */;
  %391 = %390.0 /* ty=Tensor[(1, 128, 7, 7), float32] */;
  %392 = nn.relu(%391) /* ty=Tensor[(1, 128, 7, 7), float32] */;
  %393 = nn.conv2d(%392, %conv2d_2_3_3_weight, padding=[1, 1, 1, 1], channels=32, kernel_size=[3, 3]) /* ty=Tensor[(1, 32, 7, 7), float32] */;
  %394 = nn.batch_norm(%393, %batch_1_3_4_gamma, %batch_1_3_4_beta, %batch_1_3_4_moving_mean, %batch_1_3_4_moving_var) /* ty=(Tensor[(1, 32, 7, 7), float32], Tensor[(32), float32], Tensor[(32), float32]) */;
  %395 = %394.0 /* ty=Tensor[(1, 32, 7, 7), float32] */;
  %396 = nn.relu(%395) /* ty=Tensor[(1, 32, 7, 7), float32] */;
  %397 = nn.conv2d(%396, %conv2d_1_3_4_weight, padding=[0, 0, 0, 0], channels=128, kernel_size=[1, 1]) /* ty=Tensor[(1, 128, 7, 7), float32] */;
  %398 = nn.batch_norm(%397, %batch_2_3_4_gamma, %batch_2_3_4_beta, %batch_2_3_4_moving_mean, %batch_2_3_4_moving_var) /* ty=(Tensor[(1, 128, 7, 7), float32], Tensor[(128), float32], Tensor[(128), float32]) */;
  %399 = %398.0 /* ty=Tensor[(1, 128, 7, 7), float32] */;
  %400 = nn.relu(%399) /* ty=Tensor[(1, 128, 7, 7), float32] */;
  %401 = nn.conv2d(%400, %conv2d_2_3_4_weight, padding=[1, 1, 1, 1], channels=32, kernel_size=[3, 3]) /* ty=Tensor[(1, 32, 7, 7), float32] */;
  %402 = nn.batch_norm(%401, %batch_1_3_5_gamma, %batch_1_3_5_beta, %batch_1_3_5_moving_mean, %batch_1_3_5_moving_var) /* ty=(Tensor[(1, 32, 7, 7), float32], Tensor[(32), float32], Tensor[(32), float32]) */;
  %403 = %402.0 /* ty=Tensor[(1, 32, 7, 7), float32] */;
  %404 = nn.relu(%403) /* ty=Tensor[(1, 32, 7, 7), float32] */;
  %405 = nn.conv2d(%404, %conv2d_1_3_5_weight, padding=[0, 0, 0, 0], channels=128, kernel_size=[1, 1]) /* ty=Tensor[(1, 128, 7, 7), float32] */;
  %406 = nn.batch_norm(%405, %batch_2_3_5_gamma, %batch_2_3_5_beta, %batch_2_3_5_moving_mean, %batch_2_3_5_moving_var) /* ty=(Tensor[(1, 128, 7, 7), float32], Tensor[(128), float32], Tensor[(128), float32]) */;
  %407 = %406.0 /* ty=Tensor[(1, 128, 7, 7), float32] */;
  %408 = nn.relu(%407) /* ty=Tensor[(1, 128, 7, 7), float32] */;
  %409 = nn.conv2d(%408, %conv2d_2_3_5_weight, padding=[1, 1, 1, 1], channels=32, kernel_size=[3, 3]) /* ty=Tensor[(1, 32, 7, 7), float32] */;
  %410 = nn.batch_norm(%409, %batch_1_3_6_gamma, %batch_1_3_6_beta, %batch_1_3_6_moving_mean, %batch_1_3_6_moving_var) /* ty=(Tensor[(1, 32, 7, 7), float32], Tensor[(32), float32], Tensor[(32), float32]) */;
  %411 = %410.0 /* ty=Tensor[(1, 32, 7, 7), float32] */;
  %412 = nn.relu(%411) /* ty=Tensor[(1, 32, 7, 7), float32] */;
  %413 = nn.conv2d(%412, %conv2d_1_3_6_weight, padding=[0, 0, 0, 0], channels=128, kernel_size=[1, 1]) /* ty=Tensor[(1, 128, 7, 7), float32] */;
  %414 = nn.batch_norm(%413, %batch_2_3_6_gamma, %batch_2_3_6_beta, %batch_2_3_6_moving_mean, %batch_2_3_6_moving_var) /* ty=(Tensor[(1, 128, 7, 7), float32], Tensor[(128), float32], Tensor[(128), float32]) */;
  %415 = %414.0 /* ty=Tensor[(1, 128, 7, 7), float32] */;
  %416 = nn.relu(%415) /* ty=Tensor[(1, 128, 7, 7), float32] */;
  %417 = nn.conv2d(%416, %conv2d_2_3_6_weight, padding=[1, 1, 1, 1], channels=32, kernel_size=[3, 3]) /* ty=Tensor[(1, 32, 7, 7), float32] */;
  %418 = nn.batch_norm(%417, %batch_1_3_7_gamma, %batch_1_3_7_beta, %batch_1_3_7_moving_mean, %batch_1_3_7_moving_var) /* ty=(Tensor[(1, 32, 7, 7), float32], Tensor[(32), float32], Tensor[(32), float32]) */;
  %419 = %418.0 /* ty=Tensor[(1, 32, 7, 7), float32] */;
  %420 = nn.relu(%419) /* ty=Tensor[(1, 32, 7, 7), float32] */;
  %421 = nn.conv2d(%420, %conv2d_1_3_7_weight, padding=[0, 0, 0, 0], channels=128, kernel_size=[1, 1]) /* ty=Tensor[(1, 128, 7, 7), float32] */;
  %422 = nn.batch_norm(%421, %batch_2_3_7_gamma, %batch_2_3_7_beta, %batch_2_3_7_moving_mean, %batch_2_3_7_moving_var) /* ty=(Tensor[(1, 128, 7, 7), float32], Tensor[(128), float32], Tensor[(128), float32]) */;
  %423 = %422.0 /* ty=Tensor[(1, 128, 7, 7), float32] */;
  %424 = nn.relu(%423) /* ty=Tensor[(1, 128, 7, 7), float32] */;
  %425 = nn.conv2d(%424, %conv2d_2_3_7_weight, padding=[1, 1, 1, 1], channels=32, kernel_size=[3, 3]) /* ty=Tensor[(1, 32, 7, 7), float32] */;
  %426 = nn.batch_norm(%425, %batch_1_3_8_gamma, %batch_1_3_8_beta, %batch_1_3_8_moving_mean, %batch_1_3_8_moving_var) /* ty=(Tensor[(1, 32, 7, 7), float32], Tensor[(32), float32], Tensor[(32), float32]) */;
  %427 = %426.0 /* ty=Tensor[(1, 32, 7, 7), float32] */;
  %428 = nn.relu(%427) /* ty=Tensor[(1, 32, 7, 7), float32] */;
  %429 = nn.conv2d(%428, %conv2d_1_3_8_weight, padding=[0, 0, 0, 0], channels=128, kernel_size=[1, 1]) /* ty=Tensor[(1, 128, 7, 7), float32] */;
  %430 = nn.batch_norm(%429, %batch_2_3_8_gamma, %batch_2_3_8_beta, %batch_2_3_8_moving_mean, %batch_2_3_8_moving_var) /* ty=(Tensor[(1, 128, 7, 7), float32], Tensor[(128), float32], Tensor[(128), float32]) */;
  %431 = %430.0 /* ty=Tensor[(1, 128, 7, 7), float32] */;
  %432 = nn.relu(%431) /* ty=Tensor[(1, 128, 7, 7), float32] */;
  %433 = nn.conv2d(%432, %conv2d_2_3_8_weight, padding=[1, 1, 1, 1], channels=32, kernel_size=[3, 3]) /* ty=Tensor[(1, 32, 7, 7), float32] */;
  %434 = nn.batch_norm(%433, %batch_1_3_9_gamma, %batch_1_3_9_beta, %batch_1_3_9_moving_mean, %batch_1_3_9_moving_var) /* ty=(Tensor[(1, 32, 7, 7), float32], Tensor[(32), float32], Tensor[(32), float32]) */;
  %435 = %434.0 /* ty=Tensor[(1, 32, 7, 7), float32] */;
  %436 = nn.relu(%435) /* ty=Tensor[(1, 32, 7, 7), float32] */;
  %437 = nn.conv2d(%436, %conv2d_1_3_9_weight, padding=[0, 0, 0, 0], channels=128, kernel_size=[1, 1]) /* ty=Tensor[(1, 128, 7, 7), float32] */;
  %438 = nn.batch_norm(%437, %batch_2_3_9_gamma, %batch_2_3_9_beta, %batch_2_3_9_moving_mean, %batch_2_3_9_moving_var) /* ty=(Tensor[(1, 128, 7, 7), float32], Tensor[(128), float32], Tensor[(128), float32]) */;
  %439 = %438.0 /* ty=Tensor[(1, 128, 7, 7), float32] */;
  %440 = nn.relu(%439) /* ty=Tensor[(1, 128, 7, 7), float32] */;
  %441 = nn.conv2d(%440, %conv2d_2_3_9_weight, padding=[1, 1, 1, 1], channels=32, kernel_size=[3, 3]) /* ty=Tensor[(1, 32, 7, 7), float32] */;
  %442 = nn.batch_norm(%441, %batch_1_3_10_gamma, %batch_1_3_10_beta, %batch_1_3_10_moving_mean, %batch_1_3_10_moving_var) /* ty=(Tensor[(1, 32, 7, 7), float32], Tensor[(32), float32], Tensor[(32), float32]) */;
  %443 = %442.0 /* ty=Tensor[(1, 32, 7, 7), float32] */;
  %444 = nn.relu(%443) /* ty=Tensor[(1, 32, 7, 7), float32] */;
  %445 = nn.conv2d(%444, %conv2d_1_3_10_weight, padding=[0, 0, 0, 0], channels=128, kernel_size=[1, 1]) /* ty=Tensor[(1, 128, 7, 7), float32] */;
  %446 = nn.batch_norm(%445, %batch_2_3_10_gamma, %batch_2_3_10_beta, %batch_2_3_10_moving_mean, %batch_2_3_10_moving_var) /* ty=(Tensor[(1, 128, 7, 7), float32], Tensor[(128), float32], Tensor[(128), float32]) */;
  %447 = %446.0 /* ty=Tensor[(1, 128, 7, 7), float32] */;
  %448 = nn.relu(%447) /* ty=Tensor[(1, 128, 7, 7), float32] */;
  %449 = nn.conv2d(%448, %conv2d_2_3_10_weight, padding=[1, 1, 1, 1], channels=32, kernel_size=[3, 3]) /* ty=Tensor[(1, 32, 7, 7), float32] */;
  %450 = nn.batch_norm(%449, %batch_1_3_11_gamma, %batch_1_3_11_beta, %batch_1_3_11_moving_mean, %batch_1_3_11_moving_var) /* ty=(Tensor[(1, 32, 7, 7), float32], Tensor[(32), float32], Tensor[(32), float32]) */;
  %451 = %450.0 /* ty=Tensor[(1, 32, 7, 7), float32] */;
  %452 = nn.relu(%451) /* ty=Tensor[(1, 32, 7, 7), float32] */;
  %453 = nn.conv2d(%452, %conv2d_1_3_11_weight, padding=[0, 0, 0, 0], channels=128, kernel_size=[1, 1]) /* ty=Tensor[(1, 128, 7, 7), float32] */;
  %454 = nn.batch_norm(%453, %batch_2_3_11_gamma, %batch_2_3_11_beta, %batch_2_3_11_moving_mean, %batch_2_3_11_moving_var) /* ty=(Tensor[(1, 128, 7, 7), float32], Tensor[(128), float32], Tensor[(128), float32]) */;
  %455 = %454.0 /* ty=Tensor[(1, 128, 7, 7), float32] */;
  %456 = nn.relu(%455) /* ty=Tensor[(1, 128, 7, 7), float32] */;
  %457 = nn.conv2d(%456, %conv2d_2_3_11_weight, padding=[1, 1, 1, 1], channels=32, kernel_size=[3, 3]) /* ty=Tensor[(1, 32, 7, 7), float32] */;
  %458 = nn.batch_norm(%457, %batch_1_3_12_gamma, %batch_1_3_12_beta, %batch_1_3_12_moving_mean, %batch_1_3_12_moving_var) /* ty=(Tensor[(1, 32, 7, 7), float32], Tensor[(32), float32], Tensor[(32), float32]) */;
  %459 = %458.0 /* ty=Tensor[(1, 32, 7, 7), float32] */;
  %460 = nn.relu(%459) /* ty=Tensor[(1, 32, 7, 7), float32] */;
  %461 = nn.conv2d(%460, %conv2d_1_3_12_weight, padding=[0, 0, 0, 0], channels=128, kernel_size=[1, 1]) /* ty=Tensor[(1, 128, 7, 7), float32] */;
  %462 = nn.batch_norm(%461, %batch_2_3_12_gamma, %batch_2_3_12_beta, %batch_2_3_12_moving_mean, %batch_2_3_12_moving_var) /* ty=(Tensor[(1, 128, 7, 7), float32], Tensor[(128), float32], Tensor[(128), float32]) */;
  %463 = %462.0 /* ty=Tensor[(1, 128, 7, 7), float32] */;
  %464 = nn.relu(%463) /* ty=Tensor[(1, 128, 7, 7), float32] */;
  %465 = nn.conv2d(%464, %conv2d_2_3_12_weight, padding=[1, 1, 1, 1], channels=32, kernel_size=[3, 3]) /* ty=Tensor[(1, 32, 7, 7), float32] */;
  %466 = nn.batch_norm(%465, %batch_1_3_13_gamma, %batch_1_3_13_beta, %batch_1_3_13_moving_mean, %batch_1_3_13_moving_var) /* ty=(Tensor[(1, 32, 7, 7), float32], Tensor[(32), float32], Tensor[(32), float32]) */;
  %467 = %466.0 /* ty=Tensor[(1, 32, 7, 7), float32] */;
  %468 = nn.relu(%467) /* ty=Tensor[(1, 32, 7, 7), float32] */;
  %469 = nn.conv2d(%468, %conv2d_1_3_13_weight, padding=[0, 0, 0, 0], channels=128, kernel_size=[1, 1]) /* ty=Tensor[(1, 128, 7, 7), float32] */;
  %470 = nn.batch_norm(%469, %batch_2_3_13_gamma, %batch_2_3_13_beta, %batch_2_3_13_moving_mean, %batch_2_3_13_moving_var) /* ty=(Tensor[(1, 128, 7, 7), float32], Tensor[(128), float32], Tensor[(128), float32]) */;
  %471 = %470.0 /* ty=Tensor[(1, 128, 7, 7), float32] */;
  %472 = nn.relu(%471) /* ty=Tensor[(1, 128, 7, 7), float32] */;
  %473 = nn.conv2d(%472, %conv2d_2_3_13_weight, padding=[1, 1, 1, 1], channels=32, kernel_size=[3, 3]) /* ty=Tensor[(1, 32, 7, 7), float32] */;
  %474 = nn.batch_norm(%473, %batch_1_3_14_gamma, %batch_1_3_14_beta, %batch_1_3_14_moving_mean, %batch_1_3_14_moving_var) /* ty=(Tensor[(1, 32, 7, 7), float32], Tensor[(32), float32], Tensor[(32), float32]) */;
  %475 = %474.0 /* ty=Tensor[(1, 32, 7, 7), float32] */;
  %476 = nn.relu(%475) /* ty=Tensor[(1, 32, 7, 7), float32] */;
  %477 = nn.conv2d(%476, %conv2d_1_3_14_weight, padding=[0, 0, 0, 0], channels=128, kernel_size=[1, 1]) /* ty=Tensor[(1, 128, 7, 7), float32] */;
  %478 = nn.batch_norm(%477, %batch_2_3_14_gamma, %batch_2_3_14_beta, %batch_2_3_14_moving_mean, %batch_2_3_14_moving_var) /* ty=(Tensor[(1, 128, 7, 7), float32], Tensor[(128), float32], Tensor[(128), float32]) */;
  %479 = %478.0 /* ty=Tensor[(1, 128, 7, 7), float32] */;
  %480 = nn.relu(%479) /* ty=Tensor[(1, 128, 7, 7), float32] */;
  %481 = nn.conv2d(%480, %conv2d_2_3_14_weight, padding=[1, 1, 1, 1], channels=32, kernel_size=[3, 3]) /* ty=Tensor[(1, 32, 7, 7), float32] */;
  %482 = nn.batch_norm(%481, %batch_1_3_15_gamma, %batch_1_3_15_beta, %batch_1_3_15_moving_mean, %batch_1_3_15_moving_var) /* ty=(Tensor[(1, 32, 7, 7), float32], Tensor[(32), float32], Tensor[(32), float32]) */;
  %483 = %482.0 /* ty=Tensor[(1, 32, 7, 7), float32] */;
  %484 = nn.relu(%483) /* ty=Tensor[(1, 32, 7, 7), float32] */;
  %485 = nn.conv2d(%484, %conv2d_1_3_15_weight, padding=[0, 0, 0, 0], channels=128, kernel_size=[1, 1]) /* ty=Tensor[(1, 128, 7, 7), float32] */;
  %486 = nn.batch_norm(%485, %batch_2_3_15_gamma, %batch_2_3_15_beta, %batch_2_3_15_moving_mean, %batch_2_3_15_moving_var) /* ty=(Tensor[(1, 128, 7, 7), float32], Tensor[(128), float32], Tensor[(128), float32]) */;
  %487 = %486.0 /* ty=Tensor[(1, 128, 7, 7), float32] */;
  %488 = nn.relu(%487) /* ty=Tensor[(1, 128, 7, 7), float32] */;
  %489 = nn.conv2d(%488, %conv2d_2_3_15_weight, padding=[1, 1, 1, 1], channels=32, kernel_size=[3, 3]) /* ty=Tensor[(1, 32, 7, 7), float32] */;
  %490 = (%369, %377, %385, %393, %401, %409, %417, %425, %433, %441, %449, %457, %465, %473, %481, %489) /* ty=(Tensor[(1, 32, 7, 7), float32], Tensor[(1, 32, 7, 7), float32], Tensor[(1, 32, 7, 7), float32], Tensor[(1, 32, 7, 7), float32], Tensor[(1, 32, 7, 7), float32], Tensor[(1, 32, 7, 7), float32], Tensor[(1, 32, 7, 7), float32], Tensor[(1, 32, 7, 7), float32], Tensor[(1, 32, 7, 7), float32], Tensor[(1, 32, 7, 7), float32], Tensor[(1, 32, 7, 7), float32], Tensor[(1, 32, 7, 7), float32], Tensor[(1, 32, 7, 7), float32], Tensor[(1, 32, 7, 7), float32], Tensor[(1, 32, 7, 7), float32], Tensor[(1, 32, 7, 7), float32]) */;
  %491 = concatenate(%490, axis=1) /* ty=Tensor[(1, 512, 7, 7), float32] */;
  %492 = nn.batch_norm(%491, %batch2_gamma, %batch2_beta, %batch2_moving_mean, %batch2_moving_var) /* ty=(Tensor[(1, 512, 7, 7), float32], Tensor[(512), float32], Tensor[(512), float32]) */;
  %493 = %492.0 /* ty=Tensor[(1, 512, 7, 7), float32] */;
  %494 = nn.relu(%493) /* ty=Tensor[(1, 512, 7, 7), float32] */;
  %495 = nn.avg_pool2d(%494, pool_size=[7, 7], padding=[0, 0, 0, 0]) /* ty=Tensor[(1, 512, 1, 1), float32] */;
  %496 = nn.batch_flatten(%495) /* ty=Tensor[(1, 512), float32] */;
  %497 = nn.dense(%496, %dense_weight, units=1000) /* ty=Tensor[(1, 1000), float32] */;
  nn.bias_add(%497, %dense_bias, axis=-1) /* ty=Tensor[(1, 1000), float32] */
}
