def @main(%input_ids: Tensor[(1, 512), int64] /* ty=Tensor[(1, 512), int64] span=/model/embed_tokens/Gather.input_ids:0:0 */, %model.embed_tokens.weight: Tensor[(128256, 4096), float32] /* ty=Tensor[(128256, 4096), float32] span=/model/embed_tokens/Gather.model.embed_tokens.weight:0:0 */, %model.layers.0.input_layernorm.weight: Tensor[(4096), float32] /* ty=Tensor[(4096), float32] span=/model/layers.0/input_layernorm/Mul_1.model.layers.0.input_layernorm.weight:0:0 */, %model.layers.0.post_attention_layernorm.weight: Tensor[(4096), float32] /* ty=Tensor[(4096), float32] span=/model/layers.0/post_attention_layernorm/Mul_1.model.layers.0.post_attention_layernorm.weight:0:0 */, %model.layers.1.input_layernorm.weight: Tensor[(4096), float32] /* ty=Tensor[(4096), float32] span=/model/layers.1/input_layernorm/Mul_1.model.layers.1.input_layernorm.weight:0:0 */, %model.layers.1.post_attention_layernorm.weight: Tensor[(4096), float32] /* ty=Tensor[(4096), float32] span=/model/layers.1/post_attention_layernorm/Mul_1.model.layers.1.post_attention_layernorm.weight:0:0 */, %model.layers.2.input_layernorm.weight: Tensor[(4096), float32] /* ty=Tensor[(4096), float32] span=/model/layers.2/input_layernorm/Mul_1.model.layers.2.input_layernorm.weight:0:0 */, %model.layers.2.post_attention_layernorm.weight: Tensor[(4096), float32] /* ty=Tensor[(4096), float32] span=/model/layers.2/post_attention_layernorm/Mul_1.model.layers.2.post_attention_layernorm.weight:0:0 */, %model.layers.3.input_layernorm.weight: Tensor[(4096), float32] /* ty=Tensor[(4096), float32] span=/model/layers.3/input_layernorm/Mul_1.model.layers.3.input_layernorm.weight:0:0 */, %model.layers.3.post_attention_layernorm.weight: Tensor[(4096), float32] /* ty=Tensor[(4096), float32] span=/model/layers.3/post_attention_layernorm/Mul_1.model.layers.3.post_attention_layernorm.weight:0:0 */, %model.layers.4.input_layernorm.weight: Tensor[(4096), float32] /* ty=Tensor[(4096), float32] span=/model/layers.4/input_layernorm/Mul_1.model.layers.4.input_layernorm.weight:0:0 */, %model.layers.4.post_attention_layernorm.weight: Tensor[(4096), float32] /* ty=Tensor[(4096), float32] span=/model/layers.4/post_attention_layernorm/Mul_1.model.layers.4.post_attention_layernorm.weight:0:0 */, %model.layers.5.input_layernorm.weight: Tensor[(4096), float32] /* ty=Tensor[(4096), float32] span=/model/layers.5/input_layernorm/Mul_1.model.layers.5.input_layernorm.weight:0:0 */, %model.layers.5.post_attention_layernorm.weight: Tensor[(4096), float32] /* ty=Tensor[(4096), float32] span=/model/layers.5/post_attention_layernorm/Mul_1.model.layers.5.post_attention_layernorm.weight:0:0 */, %model.layers.6.input_layernorm.weight: Tensor[(4096), float32] /* ty=Tensor[(4096), float32] span=/model/layers.6/input_layernorm/Mul_1.model.layers.6.input_layernorm.weight:0:0 */, %model.layers.6.post_attention_layernorm.weight: Tensor[(4096), float32] /* ty=Tensor[(4096), float32] span=/model/layers.6/post_attention_layernorm/Mul_1.model.layers.6.post_attention_layernorm.weight:0:0 */, %model.layers.7.input_layernorm.weight: Tensor[(4096), float32] /* ty=Tensor[(4096), float32] span=/model/layers.7/input_layernorm/Mul_1.model.layers.7.input_layernorm.weight:0:0 */, %model.layers.7.post_attention_layernorm.weight: Tensor[(4096), float32] /* ty=Tensor[(4096), float32] span=/model/layers.7/post_attention_layernorm/Mul_1.model.layers.7.post_attention_layernorm.weight:0:0 */, %model.layers.8.input_layernorm.weight: Tensor[(4096), float32] /* ty=Tensor[(4096), float32] span=/model/layers.8/input_layernorm/Mul_1.model.layers.8.input_layernorm.weight:0:0 */, %model.layers.8.post_attention_layernorm.weight: Tensor[(4096), float32] /* ty=Tensor[(4096), float32] span=/model/layers.8/post_attention_layernorm/Mul_1.model.layers.8.post_attention_layernorm.weight:0:0 */, %model.layers.9.input_layernorm.weight: Tensor[(4096), float32] /* ty=Tensor[(4096), float32] span=/model/layers.9/input_layernorm/Mul_1.model.layers.9.input_layernorm.weight:0:0 */, %model.layers.9.post_attention_layernorm.weight: Tensor[(4096), float32] /* ty=Tensor[(4096), float32] span=/model/layers.9/post_attention_layernorm/Mul_1.model.layers.9.post_attention_layernorm.weight:0:0 */, %model.layers.10.input_layernorm.weight: Tensor[(4096), float32] /* ty=Tensor[(4096), float32] span=/model/layers.10/input_layernorm/Mul_1.model.layers.10.input_layernorm.weight:0:0 */, %model.layers.10.post_attention_layernorm.weight: Tensor[(4096), float32] /* ty=Tensor[(4096), float32] span=/model/layers.10/post_attention_layernorm/Mul_1.model.layers.10.post_attention_layernorm.weight:0:0 */, %model.layers.11.input_layernorm.weight: Tensor[(4096), float32] /* ty=Tensor[(4096), float32] span=/model/layers.11/input_layernorm/Mul_1.model.layers.11.input_layernorm.weight:0:0 */, %model.layers.11.post_attention_layernorm.weight: Tensor[(4096), float32] /* ty=Tensor[(4096), float32] span=/model/layers.11/post_attention_layernorm/Mul_1.model.layers.11.post_attention_layernorm.weight:0:0 */, %model.layers.12.input_layernorm.weight: Tensor[(4096), float32] /* ty=Tensor[(4096), float32] span=/model/layers.12/input_layernorm/Mul_1.model.layers.12.input_layernorm.weight:0:0 */, %model.layers.12.post_attention_layernorm.weight: Tensor[(4096), float32] /* ty=Tensor[(4096), float32] span=/model/layers.12/post_attention_layernorm/Mul_1.model.layers.12.post_attention_layernorm.weight:0:0 */, %model.layers.13.input_layernorm.weight: Tensor[(4096), float32] /* ty=Tensor[(4096), float32] span=/model/layers.13/input_layernorm/Mul_1.model.layers.13.input_layernorm.weight:0:0 */, %model.layers.13.post_attention_layernorm.weight: Tensor[(4096), float32] /* ty=Tensor[(4096), float32] span=/model/layers.13/post_attention_layernorm/Mul_1.model.layers.13.post_attention_layernorm.weight:0:0 */, %model.layers.14.input_layernorm.weight: Tensor[(4096), float32] /* ty=Tensor[(4096), float32] span=/model/layers.14/input_layernorm/Mul_1.model.layers.14.input_layernorm.weight:0:0 */, %model.layers.14.post_attention_layernorm.weight: Tensor[(4096), float32] /* ty=Tensor[(4096), float32] span=/model/layers.14/post_attention_layernorm/Mul_1.model.layers.14.post_attention_layernorm.weight:0:0 */, %model.layers.15.input_layernorm.weight: Tensor[(4096), float32] /* ty=Tensor[(4096), float32] span=/model/layers.15/input_layernorm/Mul_1.model.layers.15.input_layernorm.weight:0:0 */, %model.layers.15.post_attention_layernorm.weight: Tensor[(4096), float32] /* ty=Tensor[(4096), float32] span=/model/layers.15/post_attention_layernorm/Mul_1.model.layers.15.post_attention_layernorm.weight:0:0 */, %model.layers.16.input_layernorm.weight: Tensor[(4096), float32] /* ty=Tensor[(4096), float32] span=/model/layers.16/input_layernorm/Mul_1.model.layers.16.input_layernorm.weight:0:0 */, %model.layers.16.post_attention_layernorm.weight: Tensor[(4096), float32] /* ty=Tensor[(4096), float32] span=/model/layers.16/post_attention_layernorm/Mul_1.model.layers.16.post_attention_layernorm.weight:0:0 */, %model.layers.17.input_layernorm.weight: Tensor[(4096), float32] /* ty=Tensor[(4096), float32] span=/model/layers.17/input_layernorm/Mul_1.model.layers.17.input_layernorm.weight:0:0 */, %model.layers.17.post_attention_layernorm.weight: Tensor[(4096), float32] /* ty=Tensor[(4096), float32] span=/model/layers.17/post_attention_layernorm/Mul_1.model.layers.17.post_attention_layernorm.weight:0:0 */, %model.layers.18.input_layernorm.weight: Tensor[(4096), float32] /* ty=Tensor[(4096), float32] span=/model/layers.18/input_layernorm/Mul_1.model.layers.18.input_layernorm.weight:0:0 */, %model.layers.18.post_attention_layernorm.weight: Tensor[(4096), float32] /* ty=Tensor[(4096), float32] span=/model/layers.18/post_attention_layernorm/Mul_1.model.layers.18.post_attention_layernorm.weight:0:0 */, %model.layers.19.input_layernorm.weight: Tensor[(4096), float32] /* ty=Tensor[(4096), float32] span=/model/layers.19/input_layernorm/Mul_1.model.layers.19.input_layernorm.weight:0:0 */, %model.layers.19.post_attention_layernorm.weight: Tensor[(4096), float32] /* ty=Tensor[(4096), float32] span=/model/layers.19/post_attention_layernorm/Mul_1.model.layers.19.post_attention_layernorm.weight:0:0 */, %model.layers.20.input_layernorm.weight: Tensor[(4096), float32] /* ty=Tensor[(4096), float32] span=/model/layers.20/input_layernorm/Mul_1.model.layers.20.input_layernorm.weight:0:0 */, %model.layers.20.post_attention_layernorm.weight: Tensor[(4096), float32] /* ty=Tensor[(4096), float32] span=/model/layers.20/post_attention_layernorm/Mul_1.model.layers.20.post_attention_layernorm.weight:0:0 */, %model.layers.21.input_layernorm.weight: Tensor[(4096), float32] /* ty=Tensor[(4096), float32] span=/model/layers.21/input_layernorm/Mul_1.model.layers.21.input_layernorm.weight:0:0 */, %model.layers.21.post_attention_layernorm.weight: Tensor[(4096), float32] /* ty=Tensor[(4096), float32] span=/model/layers.21/post_attention_layernorm/Mul_1.model.layers.21.post_attention_layernorm.weight:0:0 */, %model.layers.22.input_layernorm.weight: Tensor[(4096), float32] /* ty=Tensor[(4096), float32] span=/model/layers.22/input_layernorm/Mul_1.model.layers.22.input_layernorm.weight:0:0 */, %model.layers.22.post_attention_layernorm.weight: Tensor[(4096), float32] /* ty=Tensor[(4096), float32] span=/model/layers.22/post_attention_layernorm/Mul_1.model.layers.22.post_attention_layernorm.weight:0:0 */, %model.layers.23.input_layernorm.weight: Tensor[(4096), float32] /* ty=Tensor[(4096), float32] span=/model/layers.23/input_layernorm/Mul_1.model.layers.23.input_layernorm.weight:0:0 */, %model.layers.23.post_attention_layernorm.weight: Tensor[(4096), float32] /* ty=Tensor[(4096), float32] span=/model/layers.23/post_attention_layernorm/Mul_1.model.layers.23.post_attention_layernorm.weight:0:0 */, %model.layers.24.input_layernorm.weight: Tensor[(4096), float32] /* ty=Tensor[(4096), float32] span=/model/layers.24/input_layernorm/Mul_1.model.layers.24.input_layernorm.weight:0:0 */, %model.layers.24.post_attention_layernorm.weight: Tensor[(4096), float32] /* ty=Tensor[(4096), float32] span=/model/layers.24/post_attention_layernorm/Mul_1.model.layers.24.post_attention_layernorm.weight:0:0 */, %model.layers.25.input_layernorm.weight: Tensor[(4096), float32] /* ty=Tensor[(4096), float32] span=/model/layers.25/input_layernorm/Mul_1.model.layers.25.input_layernorm.weight:0:0 */, %model.layers.25.post_attention_layernorm.weight: Tensor[(4096), float32] /* ty=Tensor[(4096), float32] span=/model/layers.25/post_attention_layernorm/Mul_1.model.layers.25.post_attention_layernorm.weight:0:0 */, %model.layers.26.input_layernorm.weight: Tensor[(4096), float32] /* ty=Tensor[(4096), float32] span=/model/layers.26/input_layernorm/Mul_1.model.layers.26.input_layernorm.weight:0:0 */, %model.layers.26.post_attention_layernorm.weight: Tensor[(4096), float32] /* ty=Tensor[(4096), float32] span=/model/layers.26/post_attention_layernorm/Mul_1.model.layers.26.post_attention_layernorm.weight:0:0 */, %model.layers.27.input_layernorm.weight: Tensor[(4096), float32] /* ty=Tensor[(4096), float32] span=/model/layers.27/input_layernorm/Mul_1.model.layers.27.input_layernorm.weight:0:0 */, %model.layers.27.post_attention_layernorm.weight: Tensor[(4096), float32] /* ty=Tensor[(4096), float32] span=/model/layers.27/post_attention_layernorm/Mul_1.model.layers.27.post_attention_layernorm.weight:0:0 */, %model.layers.28.input_layernorm.weight: Tensor[(4096), float32] /* ty=Tensor[(4096), float32] span=/model/layers.28/input_layernorm/Mul_1.model.layers.28.input_layernorm.weight:0:0 */, %model.layers.28.post_attention_layernorm.weight: Tensor[(4096), float32] /* ty=Tensor[(4096), float32] span=/model/layers.28/post_attention_layernorm/Mul_1.model.layers.28.post_attention_layernorm.weight:0:0 */, %model.layers.29.input_layernorm.weight: Tensor[(4096), float32] /* ty=Tensor[(4096), float32] span=/model/layers.29/input_layernorm/Mul_1.model.layers.29.input_layernorm.weight:0:0 */, %model.layers.29.post_attention_layernorm.weight: Tensor[(4096), float32] /* ty=Tensor[(4096), float32] span=/model/layers.29/post_attention_layernorm/Mul_1.model.layers.29.post_attention_layernorm.weight:0:0 */, %model.layers.30.input_layernorm.weight: Tensor[(4096), float32] /* ty=Tensor[(4096), float32] span=/model/layers.30/input_layernorm/Mul_1.model.layers.30.input_layernorm.weight:0:0 */, %model.layers.30.post_attention_layernorm.weight: Tensor[(4096), float32] /* ty=Tensor[(4096), float32] span=/model/layers.30/post_attention_layernorm/Mul_1.model.layers.30.post_attention_layernorm.weight:0:0 */, %model.layers.31.input_layernorm.weight: Tensor[(4096), float32] /* ty=Tensor[(4096), float32] span=/model/layers.31/input_layernorm/Mul_1.model.layers.31.input_layernorm.weight:0:0 */, %model.layers.31.post_attention_layernorm.weight: Tensor[(4096), float32] /* ty=Tensor[(4096), float32] span=/model/layers.31/post_attention_layernorm/Mul_1.model.layers.31.post_attention_layernorm.weight:0:0 */, %model.norm.weight: Tensor[(4096), float32] /* ty=Tensor[(4096), float32] span=/model/norm/Mul_1.model.norm.weight:0:0 */, %onnx::MatMul_7976: Tensor[(4096, 4096), float32] /* ty=Tensor[(4096, 4096), float32] span=/model/layers.0/self_attn/q_proj/MatMul.onnx::MatMul_7976:0:0 */, %onnx::MatMul_7977: Tensor[(4096, 1024), float32] /* ty=Tensor[(4096, 1024), float32] span=/model/layers.0/self_attn/k_proj/MatMul.onnx::MatMul_7977:0:0 */, %onnx::MatMul_7978: Tensor[(4096, 1024), float32] /* ty=Tensor[(4096, 1024), float32] span=/model/layers.0/self_attn/v_proj/MatMul.onnx::MatMul_7978:0:0 */, %onnx::MatMul_8044: Tensor[(4096, 4096), float32] /* ty=Tensor[(4096, 4096), float32] span=/model/layers.0/self_attn/o_proj/MatMul.onnx::MatMul_8044:0:0 */, %onnx::MatMul_8045: Tensor[(4096, 14336), float32] /* ty=Tensor[(4096, 14336), float32] span=/model/layers.0/mlp/gate_proj/MatMul.onnx::MatMul_8045:0:0 */, %onnx::MatMul_8046: Tensor[(4096, 14336), float32] /* ty=Tensor[(4096, 14336), float32] span=/model/layers.0/mlp/up_proj/MatMul.onnx::MatMul_8046:0:0 */, %onnx::MatMul_8047: Tensor[(14336, 4096), float32] /* ty=Tensor[(14336, 4096), float32] span=/model/layers.0/mlp/down_proj/MatMul.onnx::MatMul_8047:0:0 */, %onnx::MatMul_8048: Tensor[(4096, 4096), float32] /* ty=Tensor[(4096, 4096), float32] span=/model/layers.1/self_attn/q_proj/MatMul.onnx::MatMul_8048:0:0 */, %onnx::MatMul_8049: Tensor[(4096, 1024), float32] /* ty=Tensor[(4096, 1024), float32] span=/model/layers.1/self_attn/k_proj/MatMul.onnx::MatMul_8049:0:0 */, %onnx::MatMul_8050: Tensor[(4096, 1024), float32] /* ty=Tensor[(4096, 1024), float32] span=/model/layers.1/self_attn/v_proj/MatMul.onnx::MatMul_8050:0:0 */, %onnx::MatMul_8116: Tensor[(4096, 4096), float32] /* ty=Tensor[(4096, 4096), float32] span=/model/layers.1/self_attn/o_proj/MatMul.onnx::MatMul_8116:0:0 */, %onnx::MatMul_8117: Tensor[(4096, 14336), float32] /* ty=Tensor[(4096, 14336), float32] span=/model/layers.1/mlp/gate_proj/MatMul.onnx::MatMul_8117:0:0 */, %onnx::MatMul_8118: Tensor[(4096, 14336), float32] /* ty=Tensor[(4096, 14336), float32] span=/model/layers.1/mlp/up_proj/MatMul.onnx::MatMul_8118:0:0 */, %onnx::MatMul_8119: Tensor[(14336, 4096), float32] /* ty=Tensor[(14336, 4096), float32] span=/model/layers.1/mlp/down_proj/MatMul.onnx::MatMul_8119:0:0 */, %onnx::MatMul_8120: Tensor[(4096, 4096), float32] /* ty=Tensor[(4096, 4096), float32] span=/model/layers.2/self_attn/q_proj/MatMul.onnx::MatMul_8120:0:0 */, %onnx::MatMul_8121: Tensor[(4096, 1024), float32] /* ty=Tensor[(4096, 1024), float32] span=/model/layers.2/self_attn/k_proj/MatMul.onnx::MatMul_8121:0:0 */, %onnx::MatMul_8122: Tensor[(4096, 1024), float32] /* ty=Tensor[(4096, 1024), float32] span=/model/layers.2/self_attn/v_proj/MatMul.onnx::MatMul_8122:0:0 */, %onnx::MatMul_8188: Tensor[(4096, 4096), float32] /* ty=Tensor[(4096, 4096), float32] span=/model/layers.2/self_attn/o_proj/MatMul.onnx::MatMul_8188:0:0 */, %onnx::MatMul_8189: Tensor[(4096, 14336), float32] /* ty=Tensor[(4096, 14336), float32] span=/model/layers.2/mlp/gate_proj/MatMul.onnx::MatMul_8189:0:0 */, %onnx::MatMul_8190: Tensor[(4096, 14336), float32] /* ty=Tensor[(4096, 14336), float32] span=/model/layers.2/mlp/up_proj/MatMul.onnx::MatMul_8190:0:0 */, %onnx::MatMul_8191: Tensor[(14336, 4096), float32] /* ty=Tensor[(14336, 4096), float32] span=/model/layers.2/mlp/down_proj/MatMul.onnx::MatMul_8191:0:0 */, %onnx::MatMul_8192: Tensor[(4096, 4096), float32] /* ty=Tensor[(4096, 4096), float32] span=/model/layers.3/self_attn/q_proj/MatMul.onnx::MatMul_8192:0:0 */, %onnx::MatMul_8193: Tensor[(4096, 1024), float32] /* ty=Tensor[(4096, 1024), float32] span=/model/layers.3/self_attn/k_proj/MatMul.onnx::MatMul_8193:0:0 */, %onnx::MatMul_8194: Tensor[(4096, 1024), float32] /* ty=Tensor[(4096, 1024), float32] span=/model/layers.3/self_attn/v_proj/MatMul.onnx::MatMul_8194:0:0 */, %onnx::MatMul_8260: Tensor[(4096, 4096), float32] /* ty=Tensor[(4096, 4096), float32] span=/model/layers.3/self_attn/o_proj/MatMul.onnx::MatMul_8260:0:0 */, %onnx::MatMul_8261: Tensor[(4096, 14336), float32] /* ty=Tensor[(4096, 14336), float32] span=/model/layers.3/mlp/gate_proj/MatMul.onnx::MatMul_8261:0:0 */, %onnx::MatMul_8262: Tensor[(4096, 14336), float32] /* ty=Tensor[(4096, 14336), float32] span=/model/layers.3/mlp/up_proj/MatMul.onnx::MatMul_8262:0:0 */, %onnx::MatMul_8263: Tensor[(14336, 4096), float32] /* ty=Tensor[(14336, 4096), float32] span=/model/layers.3/mlp/down_proj/MatMul.onnx::MatMul_8263:0:0 */, %onnx::MatMul_8264: Tensor[(4096, 4096), float32] /* ty=Tensor[(4096, 4096), float32] span=/model/layers.4/self_attn/q_proj/MatMul.onnx::MatMul_8264:0:0 */, %onnx::MatMul_8265: Tensor[(4096, 1024), float32] /* ty=Tensor[(4096, 1024), float32] span=/model/layers.4/self_attn/k_proj/MatMul.onnx::MatMul_8265:0:0 */, %onnx::MatMul_8266: Tensor[(4096, 1024), float32] /* ty=Tensor[(4096, 1024), float32] span=/model/layers.4/self_attn/v_proj/MatMul.onnx::MatMul_8266:0:0 */, %onnx::MatMul_8332: Tensor[(4096, 4096), float32] /* ty=Tensor[(4096, 4096), float32] span=/model/layers.4/self_attn/o_proj/MatMul.onnx::MatMul_8332:0:0 */, %onnx::MatMul_8333: Tensor[(4096, 14336), float32] /* ty=Tensor[(4096, 14336), float32] span=/model/layers.4/mlp/gate_proj/MatMul.onnx::MatMul_8333:0:0 */, %onnx::MatMul_8334: Tensor[(4096, 14336), float32] /* ty=Tensor[(4096, 14336), float32] span=/model/layers.4/mlp/up_proj/MatMul.onnx::MatMul_8334:0:0 */, %onnx::MatMul_8335: Tensor[(14336, 4096), float32] /* ty=Tensor[(14336, 4096), float32] span=/model/layers.4/mlp/down_proj/MatMul.onnx::MatMul_8335:0:0 */, %onnx::MatMul_8336: Tensor[(4096, 4096), float32] /* ty=Tensor[(4096, 4096), float32] span=/model/layers.5/self_attn/q_proj/MatMul.onnx::MatMul_8336:0:0 */, %onnx::MatMul_8337: Tensor[(4096, 1024), float32] /* ty=Tensor[(4096, 1024), float32] span=/model/layers.5/self_attn/k_proj/MatMul.onnx::MatMul_8337:0:0 */, %onnx::MatMul_8338: Tensor[(4096, 1024), float32] /* ty=Tensor[(4096, 1024), float32] span=/model/layers.5/self_attn/v_proj/MatMul.onnx::MatMul_8338:0:0 */, %onnx::MatMul_8404: Tensor[(4096, 4096), float32] /* ty=Tensor[(4096, 4096), float32] span=/model/layers.5/self_attn/o_proj/MatMul.onnx::MatMul_8404:0:0 */, %onnx::MatMul_8405: Tensor[(4096, 14336), float32] /* ty=Tensor[(4096, 14336), float32] span=/model/layers.5/mlp/gate_proj/MatMul.onnx::MatMul_8405:0:0 */, %onnx::MatMul_8406: Tensor[(4096, 14336), float32] /* ty=Tensor[(4096, 14336), float32] span=/model/layers.5/mlp/up_proj/MatMul.onnx::MatMul_8406:0:0 */, %onnx::MatMul_8407: Tensor[(14336, 4096), float32] /* ty=Tensor[(14336, 4096), float32] span=/model/layers.5/mlp/down_proj/MatMul.onnx::MatMul_8407:0:0 */, %onnx::MatMul_8408: Tensor[(4096, 4096), float32] /* ty=Tensor[(4096, 4096), float32] span=/model/layers.6/self_attn/q_proj/MatMul.onnx::MatMul_8408:0:0 */, %onnx::MatMul_8409: Tensor[(4096, 1024), float32] /* ty=Tensor[(4096, 1024), float32] span=/model/layers.6/self_attn/k_proj/MatMul.onnx::MatMul_8409:0:0 */, %onnx::MatMul_8410: Tensor[(4096, 1024), float32] /* ty=Tensor[(4096, 1024), float32] span=/model/layers.6/self_attn/v_proj/MatMul.onnx::MatMul_8410:0:0 */, %onnx::MatMul_8476: Tensor[(4096, 4096), float32] /* ty=Tensor[(4096, 4096), float32] span=/model/layers.6/self_attn/o_proj/MatMul.onnx::MatMul_8476:0:0 */, %onnx::MatMul_8477: Tensor[(4096, 14336), float32] /* ty=Tensor[(4096, 14336), float32] span=/model/layers.6/mlp/gate_proj/MatMul.onnx::MatMul_8477:0:0 */, %onnx::MatMul_8478: Tensor[(4096, 14336), float32] /* ty=Tensor[(4096, 14336), float32] span=/model/layers.6/mlp/up_proj/MatMul.onnx::MatMul_8478:0:0 */, %onnx::MatMul_8479: Tensor[(14336, 4096), float32] /* ty=Tensor[(14336, 4096), float32] span=/model/layers.6/mlp/down_proj/MatMul.onnx::MatMul_8479:0:0 */, %onnx::MatMul_8480: Tensor[(4096, 4096), float32] /* ty=Tensor[(4096, 4096), float32] span=/model/layers.7/self_attn/q_proj/MatMul.onnx::MatMul_8480:0:0 */, %onnx::MatMul_8481: Tensor[(4096, 1024), float32] /* ty=Tensor[(4096, 1024), float32] span=/model/layers.7/self_attn/k_proj/MatMul.onnx::MatMul_8481:0:0 */, %onnx::MatMul_8482: Tensor[(4096, 1024), float32] /* ty=Tensor[(4096, 1024), float32] span=/model/layers.7/self_attn/v_proj/MatMul.onnx::MatMul_8482:0:0 */, %onnx::MatMul_8548: Tensor[(4096, 4096), float32] /* ty=Tensor[(4096, 4096), float32] span=/model/layers.7/self_attn/o_proj/MatMul.onnx::MatMul_8548:0:0 */, %onnx::MatMul_8549: Tensor[(4096, 14336), float32] /* ty=Tensor[(4096, 14336), float32] span=/model/layers.7/mlp/gate_proj/MatMul.onnx::MatMul_8549:0:0 */, %onnx::MatMul_8550: Tensor[(4096, 14336), float32] /* ty=Tensor[(4096, 14336), float32] span=/model/layers.7/mlp/up_proj/MatMul.onnx::MatMul_8550:0:0 */, %onnx::MatMul_8551: Tensor[(14336, 4096), float32] /* ty=Tensor[(14336, 4096), float32] span=/model/layers.7/mlp/down_proj/MatMul.onnx::MatMul_8551:0:0 */, %onnx::MatMul_8552: Tensor[(4096, 4096), float32] /* ty=Tensor[(4096, 4096), float32] span=/model/layers.8/self_attn/q_proj/MatMul.onnx::MatMul_8552:0:0 */, %onnx::MatMul_8553: Tensor[(4096, 1024), float32] /* ty=Tensor[(4096, 1024), float32] span=/model/layers.8/self_attn/k_proj/MatMul.onnx::MatMul_8553:0:0 */, %onnx::MatMul_8554: Tensor[(4096, 1024), float32] /* ty=Tensor[(4096, 1024), float32] span=/model/layers.8/self_attn/v_proj/MatMul.onnx::MatMul_8554:0:0 */, %onnx::MatMul_8620: Tensor[(4096, 4096), float32] /* ty=Tensor[(4096, 4096), float32] span=/model/layers.8/self_attn/o_proj/MatMul.onnx::MatMul_8620:0:0 */, %onnx::MatMul_8621: Tensor[(4096, 14336), float32] /* ty=Tensor[(4096, 14336), float32] span=/model/layers.8/mlp/gate_proj/MatMul.onnx::MatMul_8621:0:0 */, %onnx::MatMul_8622: Tensor[(4096, 14336), float32] /* ty=Tensor[(4096, 14336), float32] span=/model/layers.8/mlp/up_proj/MatMul.onnx::MatMul_8622:0:0 */, %onnx::MatMul_8623: Tensor[(14336, 4096), float32] /* ty=Tensor[(14336, 4096), float32] span=/model/layers.8/mlp/down_proj/MatMul.onnx::MatMul_8623:0:0 */, %onnx::MatMul_8624: Tensor[(4096, 4096), float32] /* ty=Tensor[(4096, 4096), float32] span=/model/layers.9/self_attn/q_proj/MatMul.onnx::MatMul_8624:0:0 */, %onnx::MatMul_8625: Tensor[(4096, 1024), float32] /* ty=Tensor[(4096, 1024), float32] span=/model/layers.9/self_attn/k_proj/MatMul.onnx::MatMul_8625:0:0 */, %onnx::MatMul_8626: Tensor[(4096, 1024), float32] /* ty=Tensor[(4096, 1024), float32] span=/model/layers.9/self_attn/v_proj/MatMul.onnx::MatMul_8626:0:0 */, %onnx::MatMul_8692: Tensor[(4096, 4096), float32] /* ty=Tensor[(4096, 4096), float32] span=/model/layers.9/self_attn/o_proj/MatMul.onnx::MatMul_8692:0:0 */, %onnx::MatMul_8693: Tensor[(4096, 14336), float32] /* ty=Tensor[(4096, 14336), float32] span=/model/layers.9/mlp/gate_proj/MatMul.onnx::MatMul_8693:0:0 */, %onnx::MatMul_8694: Tensor[(4096, 14336), float32] /* ty=Tensor[(4096, 14336), float32] span=/model/layers.9/mlp/up_proj/MatMul.onnx::MatMul_8694:0:0 */, %onnx::MatMul_8695: Tensor[(14336, 4096), float32] /* ty=Tensor[(14336, 4096), float32] span=/model/layers.9/mlp/down_proj/MatMul.onnx::MatMul_8695:0:0 */, %onnx::MatMul_8696: Tensor[(4096, 4096), float32] /* ty=Tensor[(4096, 4096), float32] span=/model/layers.10/self_attn/q_proj/MatMul.onnx::MatMul_8696:0:0 */, %onnx::MatMul_8697: Tensor[(4096, 1024), float32] /* ty=Tensor[(4096, 1024), float32] span=/model/layers.10/self_attn/k_proj/MatMul.onnx::MatMul_8697:0:0 */, %onnx::MatMul_8698: Tensor[(4096, 1024), float32] /* ty=Tensor[(4096, 1024), float32] span=/model/layers.10/self_attn/v_proj/MatMul.onnx::MatMul_8698:0:0 */, %onnx::MatMul_8764: Tensor[(4096, 4096), float32] /* ty=Tensor[(4096, 4096), float32] span=/model/layers.10/self_attn/o_proj/MatMul.onnx::MatMul_8764:0:0 */, %onnx::MatMul_8765: Tensor[(4096, 14336), float32] /* ty=Tensor[(4096, 14336), float32] span=/model/layers.10/mlp/gate_proj/MatMul.onnx::MatMul_8765:0:0 */, %onnx::MatMul_8766: Tensor[(4096, 14336), float32] /* ty=Tensor[(4096, 14336), float32] span=/model/layers.10/mlp/up_proj/MatMul.onnx::MatMul_8766:0:0 */, %onnx::MatMul_8767: Tensor[(14336, 4096), float32] /* ty=Tensor[(14336, 4096), float32] span=/model/layers.10/mlp/down_proj/MatMul.onnx::MatMul_8767:0:0 */, %onnx::MatMul_8768: Tensor[(4096, 4096), float32] /* ty=Tensor[(4096, 4096), float32] span=/model/layers.11/self_attn/q_proj/MatMul.onnx::MatMul_8768:0:0 */, %onnx::MatMul_8769: Tensor[(4096, 1024), float32] /* ty=Tensor[(4096, 1024), float32] span=/model/layers.11/self_attn/k_proj/MatMul.onnx::MatMul_8769:0:0 */, %onnx::MatMul_8770: Tensor[(4096, 1024), float32] /* ty=Tensor[(4096, 1024), float32] span=/model/layers.11/self_attn/v_proj/MatMul.onnx::MatMul_8770:0:0 */, %onnx::MatMul_8836: Tensor[(4096, 4096), float32] /* ty=Tensor[(4096, 4096), float32] span=/model/layers.11/self_attn/o_proj/MatMul.onnx::MatMul_8836:0:0 */, %onnx::MatMul_8837: Tensor[(4096, 14336), float32] /* ty=Tensor[(4096, 14336), float32] span=/model/layers.11/mlp/gate_proj/MatMul.onnx::MatMul_8837:0:0 */, %onnx::MatMul_8838: Tensor[(4096, 14336), float32] /* ty=Tensor[(4096, 14336), float32] span=/model/layers.11/mlp/up_proj/MatMul.onnx::MatMul_8838:0:0 */, %onnx::MatMul_8839: Tensor[(14336, 4096), float32] /* ty=Tensor[(14336, 4096), float32] span=/model/layers.11/mlp/down_proj/MatMul.onnx::MatMul_8839:0:0 */, %onnx::MatMul_8840: Tensor[(4096, 4096), float32] /* ty=Tensor[(4096, 4096), float32] span=/model/layers.12/self_attn/q_proj/MatMul.onnx::MatMul_8840:0:0 */, %onnx::MatMul_8841: Tensor[(4096, 1024), float32] /* ty=Tensor[(4096, 1024), float32] span=/model/layers.12/self_attn/k_proj/MatMul.onnx::MatMul_8841:0:0 */, %onnx::MatMul_8842: Tensor[(4096, 1024), float32] /* ty=Tensor[(4096, 1024), float32] span=/model/layers.12/self_attn/v_proj/MatMul.onnx::MatMul_8842:0:0 */, %onnx::MatMul_8908: Tensor[(4096, 4096), float32] /* ty=Tensor[(4096, 4096), float32] span=/model/layers.12/self_attn/o_proj/MatMul.onnx::MatMul_8908:0:0 */, %onnx::MatMul_8909: Tensor[(4096, 14336), float32] /* ty=Tensor[(4096, 14336), float32] span=/model/layers.12/mlp/gate_proj/MatMul.onnx::MatMul_8909:0:0 */, %onnx::MatMul_8910: Tensor[(4096, 14336), float32] /* ty=Tensor[(4096, 14336), float32] span=/model/layers.12/mlp/up_proj/MatMul.onnx::MatMul_8910:0:0 */, %onnx::MatMul_8911: Tensor[(14336, 4096), float32] /* ty=Tensor[(14336, 4096), float32] span=/model/layers.12/mlp/down_proj/MatMul.onnx::MatMul_8911:0:0 */, %onnx::MatMul_8912: Tensor[(4096, 4096), float32] /* ty=Tensor[(4096, 4096), float32] span=/model/layers.13/self_attn/q_proj/MatMul.onnx::MatMul_8912:0:0 */, %onnx::MatMul_8913: Tensor[(4096, 1024), float32] /* ty=Tensor[(4096, 1024), float32] span=/model/layers.13/self_attn/k_proj/MatMul.onnx::MatMul_8913:0:0 */, %onnx::MatMul_8914: Tensor[(4096, 1024), float32] /* ty=Tensor[(4096, 1024), float32] span=/model/layers.13/self_attn/v_proj/MatMul.onnx::MatMul_8914:0:0 */, %onnx::MatMul_8980: Tensor[(4096, 4096), float32] /* ty=Tensor[(4096, 4096), float32] span=/model/layers.13/self_attn/o_proj/MatMul.onnx::MatMul_8980:0:0 */, %onnx::MatMul_8981: Tensor[(4096, 14336), float32] /* ty=Tensor[(4096, 14336), float32] span=/model/layers.13/mlp/gate_proj/MatMul.onnx::MatMul_8981:0:0 */, %onnx::MatMul_8982: Tensor[(4096, 14336), float32] /* ty=Tensor[(4096, 14336), float32] span=/model/layers.13/mlp/up_proj/MatMul.onnx::MatMul_8982:0:0 */, %onnx::MatMul_8983: Tensor[(14336, 4096), float32] /* ty=Tensor[(14336, 4096), float32] span=/model/layers.13/mlp/down_proj/MatMul.onnx::MatMul_8983:0:0 */, %onnx::MatMul_8984: Tensor[(4096, 4096), float32] /* ty=Tensor[(4096, 4096), float32] span=/model/layers.14/self_attn/q_proj/MatMul.onnx::MatMul_8984:0:0 */, %onnx::MatMul_8985: Tensor[(4096, 1024), float32] /* ty=Tensor[(4096, 1024), float32] span=/model/layers.14/self_attn/k_proj/MatMul.onnx::MatMul_8985:0:0 */, %onnx::MatMul_8986: Tensor[(4096, 1024), float32] /* ty=Tensor[(4096, 1024), float32] span=/model/layers.14/self_attn/v_proj/MatMul.onnx::MatMul_8986:0:0 */, %onnx::MatMul_9052: Tensor[(4096, 4096), float32] /* ty=Tensor[(4096, 4096), float32] span=/model/layers.14/self_attn/o_proj/MatMul.onnx::MatMul_9052:0:0 */, %onnx::MatMul_9053: Tensor[(4096, 14336), float32] /* ty=Tensor[(4096, 14336), float32] span=/model/layers.14/mlp/gate_proj/MatMul.onnx::MatMul_9053:0:0 */, %onnx::MatMul_9054: Tensor[(4096, 14336), float32] /* ty=Tensor[(4096, 14336), float32] span=/model/layers.14/mlp/up_proj/MatMul.onnx::MatMul_9054:0:0 */, %onnx::MatMul_9055: Tensor[(14336, 4096), float32] /* ty=Tensor[(14336, 4096), float32] span=/model/layers.14/mlp/down_proj/MatMul.onnx::MatMul_9055:0:0 */, %onnx::MatMul_9056: Tensor[(4096, 4096), float32] /* ty=Tensor[(4096, 4096), float32] span=/model/layers.15/self_attn/q_proj/MatMul.onnx::MatMul_9056:0:0 */, %onnx::MatMul_9057: Tensor[(4096, 1024), float32] /* ty=Tensor[(4096, 1024), float32] span=/model/layers.15/self_attn/k_proj/MatMul.onnx::MatMul_9057:0:0 */, %onnx::MatMul_9058: Tensor[(4096, 1024), float32] /* ty=Tensor[(4096, 1024), float32] span=/model/layers.15/self_attn/v_proj/MatMul.onnx::MatMul_9058:0:0 */, %onnx::MatMul_9124: Tensor[(4096, 4096), float32] /* ty=Tensor[(4096, 4096), float32] span=/model/layers.15/self_attn/o_proj/MatMul.onnx::MatMul_9124:0:0 */, %onnx::MatMul_9125: Tensor[(4096, 14336), float32] /* ty=Tensor[(4096, 14336), float32] span=/model/layers.15/mlp/gate_proj/MatMul.onnx::MatMul_9125:0:0 */, %onnx::MatMul_9126: Tensor[(4096, 14336), float32] /* ty=Tensor[(4096, 14336), float32] span=/model/layers.15/mlp/up_proj/MatMul.onnx::MatMul_9126:0:0 */, %onnx::MatMul_9127: Tensor[(14336, 4096), float32] /* ty=Tensor[(14336, 4096), float32] span=/model/layers.15/mlp/down_proj/MatMul.onnx::MatMul_9127:0:0 */, %onnx::MatMul_9128: Tensor[(4096, 4096), float32] /* ty=Tensor[(4096, 4096), float32] span=/model/layers.16/self_attn/q_proj/MatMul.onnx::MatMul_9128:0:0 */, %onnx::MatMul_9129: Tensor[(4096, 1024), float32] /* ty=Tensor[(4096, 1024), float32] span=/model/layers.16/self_attn/k_proj/MatMul.onnx::MatMul_9129:0:0 */, %onnx::MatMul_9130: Tensor[(4096, 1024), float32] /* ty=Tensor[(4096, 1024), float32] span=/model/layers.16/self_attn/v_proj/MatMul.onnx::MatMul_9130:0:0 */, %onnx::MatMul_9196: Tensor[(4096, 4096), float32] /* ty=Tensor[(4096, 4096), float32] span=/model/layers.16/self_attn/o_proj/MatMul.onnx::MatMul_9196:0:0 */, %onnx::MatMul_9197: Tensor[(4096, 14336), float32] /* ty=Tensor[(4096, 14336), float32] span=/model/layers.16/mlp/gate_proj/MatMul.onnx::MatMul_9197:0:0 */, %onnx::MatMul_9198: Tensor[(4096, 14336), float32] /* ty=Tensor[(4096, 14336), float32] span=/model/layers.16/mlp/up_proj/MatMul.onnx::MatMul_9198:0:0 */, %onnx::MatMul_9199: Tensor[(14336, 4096), float32] /* ty=Tensor[(14336, 4096), float32] span=/model/layers.16/mlp/down_proj/MatMul.onnx::MatMul_9199:0:0 */, %onnx::MatMul_9200: Tensor[(4096, 4096), float32] /* ty=Tensor[(4096, 4096), float32] span=/model/layers.17/self_attn/q_proj/MatMul.onnx::MatMul_9200:0:0 */, %onnx::MatMul_9201: Tensor[(4096, 1024), float32] /* ty=Tensor[(4096, 1024), float32] span=/model/layers.17/self_attn/k_proj/MatMul.onnx::MatMul_9201:0:0 */, %onnx::MatMul_9202: Tensor[(4096, 1024), float32] /* ty=Tensor[(4096, 1024), float32] span=/model/layers.17/self_attn/v_proj/MatMul.onnx::MatMul_9202:0:0 */, %onnx::MatMul_9268: Tensor[(4096, 4096), float32] /* ty=Tensor[(4096, 4096), float32] span=/model/layers.17/self_attn/o_proj/MatMul.onnx::MatMul_9268:0:0 */, %onnx::MatMul_9269: Tensor[(4096, 14336), float32] /* ty=Tensor[(4096, 14336), float32] span=/model/layers.17/mlp/gate_proj/MatMul.onnx::MatMul_9269:0:0 */, %onnx::MatMul_9270: Tensor[(4096, 14336), float32] /* ty=Tensor[(4096, 14336), float32] span=/model/layers.17/mlp/up_proj/MatMul.onnx::MatMul_9270:0:0 */, %onnx::MatMul_9271: Tensor[(14336, 4096), float32] /* ty=Tensor[(14336, 4096), float32] span=/model/layers.17/mlp/down_proj/MatMul.onnx::MatMul_9271:0:0 */, %onnx::MatMul_9272: Tensor[(4096, 4096), float32] /* ty=Tensor[(4096, 4096), float32] span=/model/layers.18/self_attn/q_proj/MatMul.onnx::MatMul_9272:0:0 */, %onnx::MatMul_9273: Tensor[(4096, 1024), float32] /* ty=Tensor[(4096, 1024), float32] span=/model/layers.18/self_attn/k_proj/MatMul.onnx::MatMul_9273:0:0 */, %onnx::MatMul_9274: Tensor[(4096, 1024), float32] /* ty=Tensor[(4096, 1024), float32] span=/model/layers.18/self_attn/v_proj/MatMul.onnx::MatMul_9274:0:0 */, %onnx::MatMul_9340: Tensor[(4096, 4096), float32] /* ty=Tensor[(4096, 4096), float32] span=/model/layers.18/self_attn/o_proj/MatMul.onnx::MatMul_9340:0:0 */, %onnx::MatMul_9341: Tensor[(4096, 14336), float32] /* ty=Tensor[(4096, 14336), float32] span=/model/layers.18/mlp/gate_proj/MatMul.onnx::MatMul_9341:0:0 */, %onnx::MatMul_9342: Tensor[(4096, 14336), float32] /* ty=Tensor[(4096, 14336), float32] span=/model/layers.18/mlp/up_proj/MatMul.onnx::MatMul_9342:0:0 */, %onnx::MatMul_9343: Tensor[(14336, 4096), float32] /* ty=Tensor[(14336, 4096), float32] span=/model/layers.18/mlp/down_proj/MatMul.onnx::MatMul_9343:0:0 */, %onnx::MatMul_9344: Tensor[(4096, 4096), float32] /* ty=Tensor[(4096, 4096), float32] span=/model/layers.19/self_attn/q_proj/MatMul.onnx::MatMul_9344:0:0 */, %onnx::MatMul_9345: Tensor[(4096, 1024), float32] /* ty=Tensor[(4096, 1024), float32] span=/model/layers.19/self_attn/k_proj/MatMul.onnx::MatMul_9345:0:0 */, %onnx::MatMul_9346: Tensor[(4096, 1024), float32] /* ty=Tensor[(4096, 1024), float32] span=/model/layers.19/self_attn/v_proj/MatMul.onnx::MatMul_9346:0:0 */, %onnx::MatMul_9412: Tensor[(4096, 4096), float32] /* ty=Tensor[(4096, 4096), float32] span=/model/layers.19/self_attn/o_proj/MatMul.onnx::MatMul_9412:0:0 */, %onnx::MatMul_9413: Tensor[(4096, 14336), float32] /* ty=Tensor[(4096, 14336), float32] span=/model/layers.19/mlp/gate_proj/MatMul.onnx::MatMul_9413:0:0 */, %onnx::MatMul_9414: Tensor[(4096, 14336), float32] /* ty=Tensor[(4096, 14336), float32] span=/model/layers.19/mlp/up_proj/MatMul.onnx::MatMul_9414:0:0 */, %onnx::MatMul_9415: Tensor[(14336, 4096), float32] /* ty=Tensor[(14336, 4096), float32] span=/model/layers.19/mlp/down_proj/MatMul.onnx::MatMul_9415:0:0 */, %onnx::MatMul_9416: Tensor[(4096, 4096), float32] /* ty=Tensor[(4096, 4096), float32] span=/model/layers.20/self_attn/q_proj/MatMul.onnx::MatMul_9416:0:0 */, %onnx::MatMul_9417: Tensor[(4096, 1024), float32] /* ty=Tensor[(4096, 1024), float32] span=/model/layers.20/self_attn/k_proj/MatMul.onnx::MatMul_9417:0:0 */, %onnx::MatMul_9418: Tensor[(4096, 1024), float32] /* ty=Tensor[(4096, 1024), float32] span=/model/layers.20/self_attn/v_proj/MatMul.onnx::MatMul_9418:0:0 */, %onnx::MatMul_9484: Tensor[(4096, 4096), float32] /* ty=Tensor[(4096, 4096), float32] span=/model/layers.20/self_attn/o_proj/MatMul.onnx::MatMul_9484:0:0 */, %onnx::MatMul_9485: Tensor[(4096, 14336), float32] /* ty=Tensor[(4096, 14336), float32] span=/model/layers.20/mlp/gate_proj/MatMul.onnx::MatMul_9485:0:0 */, %onnx::MatMul_9486: Tensor[(4096, 14336), float32] /* ty=Tensor[(4096, 14336), float32] span=/model/layers.20/mlp/up_proj/MatMul.onnx::MatMul_9486:0:0 */, %onnx::MatMul_9487: Tensor[(14336, 4096), float32] /* ty=Tensor[(14336, 4096), float32] span=/model/layers.20/mlp/down_proj/MatMul.onnx::MatMul_9487:0:0 */, %onnx::MatMul_9488: Tensor[(4096, 4096), float32] /* ty=Tensor[(4096, 4096), float32] span=/model/layers.21/self_attn/q_proj/MatMul.onnx::MatMul_9488:0:0 */, %onnx::MatMul_9489: Tensor[(4096, 1024), float32] /* ty=Tensor[(4096, 1024), float32] span=/model/layers.21/self_attn/k_proj/MatMul.onnx::MatMul_9489:0:0 */, %onnx::MatMul_9490: Tensor[(4096, 1024), float32] /* ty=Tensor[(4096, 1024), float32] span=/model/layers.21/self_attn/v_proj/MatMul.onnx::MatMul_9490:0:0 */, %onnx::MatMul_9556: Tensor[(4096, 4096), float32] /* ty=Tensor[(4096, 4096), float32] span=/model/layers.21/self_attn/o_proj/MatMul.onnx::MatMul_9556:0:0 */, %onnx::MatMul_9557: Tensor[(4096, 14336), float32] /* ty=Tensor[(4096, 14336), float32] span=/model/layers.21/mlp/gate_proj/MatMul.onnx::MatMul_9557:0:0 */, %onnx::MatMul_9558: Tensor[(4096, 14336), float32] /* ty=Tensor[(4096, 14336), float32] span=/model/layers.21/mlp/up_proj/MatMul.onnx::MatMul_9558:0:0 */, %onnx::MatMul_9559: Tensor[(14336, 4096), float32] /* ty=Tensor[(14336, 4096), float32] span=/model/layers.21/mlp/down_proj/MatMul.onnx::MatMul_9559:0:0 */, %onnx::MatMul_9560: Tensor[(4096, 4096), float32] /* ty=Tensor[(4096, 4096), float32] span=/model/layers.22/self_attn/q_proj/MatMul.onnx::MatMul_9560:0:0 */, %onnx::MatMul_9561: Tensor[(4096, 1024), float32] /* ty=Tensor[(4096, 1024), float32] span=/model/layers.22/self_attn/k_proj/MatMul.onnx::MatMul_9561:0:0 */, %onnx::MatMul_9562: Tensor[(4096, 1024), float32] /* ty=Tensor[(4096, 1024), float32] span=/model/layers.22/self_attn/v_proj/MatMul.onnx::MatMul_9562:0:0 */, %onnx::MatMul_9628: Tensor[(4096, 4096), float32] /* ty=Tensor[(4096, 4096), float32] span=/model/layers.22/self_attn/o_proj/MatMul.onnx::MatMul_9628:0:0 */, %onnx::MatMul_9629: Tensor[(4096, 14336), float32] /* ty=Tensor[(4096, 14336), float32] span=/model/layers.22/mlp/gate_proj/MatMul.onnx::MatMul_9629:0:0 */, %onnx::MatMul_9630: Tensor[(4096, 14336), float32] /* ty=Tensor[(4096, 14336), float32] span=/model/layers.22/mlp/up_proj/MatMul.onnx::MatMul_9630:0:0 */, %onnx::MatMul_9631: Tensor[(14336, 4096), float32] /* ty=Tensor[(14336, 4096), float32] span=/model/layers.22/mlp/down_proj/MatMul.onnx::MatMul_9631:0:0 */, %onnx::MatMul_9632: Tensor[(4096, 4096), float32] /* ty=Tensor[(4096, 4096), float32] span=/model/layers.23/self_attn/q_proj/MatMul.onnx::MatMul_9632:0:0 */, %onnx::MatMul_9633: Tensor[(4096, 1024), float32] /* ty=Tensor[(4096, 1024), float32] span=/model/layers.23/self_attn/k_proj/MatMul.onnx::MatMul_9633:0:0 */, %onnx::MatMul_9634: Tensor[(4096, 1024), float32] /* ty=Tensor[(4096, 1024), float32] span=/model/layers.23/self_attn/v_proj/MatMul.onnx::MatMul_9634:0:0 */, %onnx::MatMul_9700: Tensor[(4096, 4096), float32] /* ty=Tensor[(4096, 4096), float32] span=/model/layers.23/self_attn/o_proj/MatMul.onnx::MatMul_9700:0:0 */, %onnx::MatMul_9701: Tensor[(4096, 14336), float32] /* ty=Tensor[(4096, 14336), float32] span=/model/layers.23/mlp/gate_proj/MatMul.onnx::MatMul_9701:0:0 */, %onnx::MatMul_9702: Tensor[(4096, 14336), float32] /* ty=Tensor[(4096, 14336), float32] span=/model/layers.23/mlp/up_proj/MatMul.onnx::MatMul_9702:0:0 */, %onnx::MatMul_9703: Tensor[(14336, 4096), float32] /* ty=Tensor[(14336, 4096), float32] span=/model/layers.23/mlp/down_proj/MatMul.onnx::MatMul_9703:0:0 */, %onnx::MatMul_9704: Tensor[(4096, 4096), float32] /* ty=Tensor[(4096, 4096), float32] span=/model/layers.24/self_attn/q_proj/MatMul.onnx::MatMul_9704:0:0 */, %onnx::MatMul_9705: Tensor[(4096, 1024), float32] /* ty=Tensor[(4096, 1024), float32] span=/model/layers.24/self_attn/k_proj/MatMul.onnx::MatMul_9705:0:0 */, %onnx::MatMul_9706: Tensor[(4096, 1024), float32] /* ty=Tensor[(4096, 1024), float32] span=/model/layers.24/self_attn/v_proj/MatMul.onnx::MatMul_9706:0:0 */, %onnx::MatMul_9772: Tensor[(4096, 4096), float32] /* ty=Tensor[(4096, 4096), float32] span=/model/layers.24/self_attn/o_proj/MatMul.onnx::MatMul_9772:0:0 */, %onnx::MatMul_9773: Tensor[(4096, 14336), float32] /* ty=Tensor[(4096, 14336), float32] span=/model/layers.24/mlp/gate_proj/MatMul.onnx::MatMul_9773:0:0 */, %onnx::MatMul_9774: Tensor[(4096, 14336), float32] /* ty=Tensor[(4096, 14336), float32] span=/model/layers.24/mlp/up_proj/MatMul.onnx::MatMul_9774:0:0 */, %onnx::MatMul_9775: Tensor[(14336, 4096), float32] /* ty=Tensor[(14336, 4096), float32] span=/model/layers.24/mlp/down_proj/MatMul.onnx::MatMul_9775:0:0 */, %onnx::MatMul_9776: Tensor[(4096, 4096), float32] /* ty=Tensor[(4096, 4096), float32] span=/model/layers.25/self_attn/q_proj/MatMul.onnx::MatMul_9776:0:0 */, %onnx::MatMul_9777: Tensor[(4096, 1024), float32] /* ty=Tensor[(4096, 1024), float32] span=/model/layers.25/self_attn/k_proj/MatMul.onnx::MatMul_9777:0:0 */, %onnx::MatMul_9778: Tensor[(4096, 1024), float32] /* ty=Tensor[(4096, 1024), float32] span=/model/layers.25/self_attn/v_proj/MatMul.onnx::MatMul_9778:0:0 */, %onnx::MatMul_9844: Tensor[(4096, 4096), float32] /* ty=Tensor[(4096, 4096), float32] span=/model/layers.25/self_attn/o_proj/MatMul.onnx::MatMul_9844:0:0 */, %onnx::MatMul_9845: Tensor[(4096, 14336), float32] /* ty=Tensor[(4096, 14336), float32] span=/model/layers.25/mlp/gate_proj/MatMul.onnx::MatMul_9845:0:0 */, %onnx::MatMul_9846: Tensor[(4096, 14336), float32] /* ty=Tensor[(4096, 14336), float32] span=/model/layers.25/mlp/up_proj/MatMul.onnx::MatMul_9846:0:0 */, %onnx::MatMul_9847: Tensor[(14336, 4096), float32] /* ty=Tensor[(14336, 4096), float32] span=/model/layers.25/mlp/down_proj/MatMul.onnx::MatMul_9847:0:0 */, %onnx::MatMul_9848: Tensor[(4096, 4096), float32] /* ty=Tensor[(4096, 4096), float32] span=/model/layers.26/self_attn/q_proj/MatMul.onnx::MatMul_9848:0:0 */, %onnx::MatMul_9849: Tensor[(4096, 1024), float32] /* ty=Tensor[(4096, 1024), float32] span=/model/layers.26/self_attn/k_proj/MatMul.onnx::MatMul_9849:0:0 */, %onnx::MatMul_9850: Tensor[(4096, 1024), float32] /* ty=Tensor[(4096, 1024), float32] span=/model/layers.26/self_attn/v_proj/MatMul.onnx::MatMul_9850:0:0 */, %onnx::MatMul_9916: Tensor[(4096, 4096), float32] /* ty=Tensor[(4096, 4096), float32] span=/model/layers.26/self_attn/o_proj/MatMul.onnx::MatMul_9916:0:0 */, %onnx::MatMul_9917: Tensor[(4096, 14336), float32] /* ty=Tensor[(4096, 14336), float32] span=/model/layers.26/mlp/gate_proj/MatMul.onnx::MatMul_9917:0:0 */, %onnx::MatMul_9918: Tensor[(4096, 14336), float32] /* ty=Tensor[(4096, 14336), float32] span=/model/layers.26/mlp/up_proj/MatMul.onnx::MatMul_9918:0:0 */, %onnx::MatMul_9919: Tensor[(14336, 4096), float32] /* ty=Tensor[(14336, 4096), float32] span=/model/layers.26/mlp/down_proj/MatMul.onnx::MatMul_9919:0:0 */, %onnx::MatMul_9920: Tensor[(4096, 4096), float32] /* ty=Tensor[(4096, 4096), float32] span=/model/layers.27/self_attn/q_proj/MatMul.onnx::MatMul_9920:0:0 */, %onnx::MatMul_9921: Tensor[(4096, 1024), float32] /* ty=Tensor[(4096, 1024), float32] span=/model/layers.27/self_attn/k_proj/MatMul.onnx::MatMul_9921:0:0 */, %onnx::MatMul_9922: Tensor[(4096, 1024), float32] /* ty=Tensor[(4096, 1024), float32] span=/model/layers.27/self_attn/v_proj/MatMul.onnx::MatMul_9922:0:0 */, %onnx::MatMul_9988: Tensor[(4096, 4096), float32] /* ty=Tensor[(4096, 4096), float32] span=/model/layers.27/self_attn/o_proj/MatMul.onnx::MatMul_9988:0:0 */, %onnx::MatMul_9989: Tensor[(4096, 14336), float32] /* ty=Tensor[(4096, 14336), float32] span=/model/layers.27/mlp/gate_proj/MatMul.onnx::MatMul_9989:0:0 */, %onnx::MatMul_9990: Tensor[(4096, 14336), float32] /* ty=Tensor[(4096, 14336), float32] span=/model/layers.27/mlp/up_proj/MatMul.onnx::MatMul_9990:0:0 */, %onnx::MatMul_9991: Tensor[(14336, 4096), float32] /* ty=Tensor[(14336, 4096), float32] span=/model/layers.27/mlp/down_proj/MatMul.onnx::MatMul_9991:0:0 */, %onnx::MatMul_9992: Tensor[(4096, 4096), float32] /* ty=Tensor[(4096, 4096), float32] span=/model/layers.28/self_attn/q_proj/MatMul.onnx::MatMul_9992:0:0 */, %onnx::MatMul_9993: Tensor[(4096, 1024), float32] /* ty=Tensor[(4096, 1024), float32] span=/model/layers.28/self_attn/k_proj/MatMul.onnx::MatMul_9993:0:0 */, %onnx::MatMul_9994: Tensor[(4096, 1024), float32] /* ty=Tensor[(4096, 1024), float32] span=/model/layers.28/self_attn/v_proj/MatMul.onnx::MatMul_9994:0:0 */, %onnx::MatMul_10060: Tensor[(4096, 4096), float32] /* ty=Tensor[(4096, 4096), float32] span=/model/layers.28/self_attn/o_proj/MatMul.onnx::MatMul_10060:0:0 */, %onnx::MatMul_10061: Tensor[(4096, 14336), float32] /* ty=Tensor[(4096, 14336), float32] span=/model/layers.28/mlp/gate_proj/MatMul.onnx::MatMul_10061:0:0 */, %onnx::MatMul_10062: Tensor[(4096, 14336), float32] /* ty=Tensor[(4096, 14336), float32] span=/model/layers.28/mlp/up_proj/MatMul.onnx::MatMul_10062:0:0 */, %onnx::MatMul_10063: Tensor[(14336, 4096), float32] /* ty=Tensor[(14336, 4096), float32] span=/model/layers.28/mlp/down_proj/MatMul.onnx::MatMul_10063:0:0 */, %onnx::MatMul_10064: Tensor[(4096, 4096), float32] /* ty=Tensor[(4096, 4096), float32] span=/model/layers.29/self_attn/q_proj/MatMul.onnx::MatMul_10064:0:0 */, %onnx::MatMul_10065: Tensor[(4096, 1024), float32] /* ty=Tensor[(4096, 1024), float32] span=/model/layers.29/self_attn/k_proj/MatMul.onnx::MatMul_10065:0:0 */, %onnx::MatMul_10066: Tensor[(4096, 1024), float32] /* ty=Tensor[(4096, 1024), float32] span=/model/layers.29/self_attn/v_proj/MatMul.onnx::MatMul_10066:0:0 */, %onnx::MatMul_10132: Tensor[(4096, 4096), float32] /* ty=Tensor[(4096, 4096), float32] span=/model/layers.29/self_attn/o_proj/MatMul.onnx::MatMul_10132:0:0 */, %onnx::MatMul_10133: Tensor[(4096, 14336), float32] /* ty=Tensor[(4096, 14336), float32] span=/model/layers.29/mlp/gate_proj/MatMul.onnx::MatMul_10133:0:0 */, %onnx::MatMul_10134: Tensor[(4096, 14336), float32] /* ty=Tensor[(4096, 14336), float32] span=/model/layers.29/mlp/up_proj/MatMul.onnx::MatMul_10134:0:0 */, %onnx::MatMul_10135: Tensor[(14336, 4096), float32] /* ty=Tensor[(14336, 4096), float32] span=/model/layers.29/mlp/down_proj/MatMul.onnx::MatMul_10135:0:0 */, %onnx::MatMul_10136: Tensor[(4096, 4096), float32] /* ty=Tensor[(4096, 4096), float32] span=/model/layers.30/self_attn/q_proj/MatMul.onnx::MatMul_10136:0:0 */, %onnx::MatMul_10137: Tensor[(4096, 1024), float32] /* ty=Tensor[(4096, 1024), float32] span=/model/layers.30/self_attn/k_proj/MatMul.onnx::MatMul_10137:0:0 */, %onnx::MatMul_10138: Tensor[(4096, 1024), float32] /* ty=Tensor[(4096, 1024), float32] span=/model/layers.30/self_attn/v_proj/MatMul.onnx::MatMul_10138:0:0 */, %onnx::MatMul_10204: Tensor[(4096, 4096), float32] /* ty=Tensor[(4096, 4096), float32] span=/model/layers.30/self_attn/o_proj/MatMul.onnx::MatMul_10204:0:0 */, %onnx::MatMul_10205: Tensor[(4096, 14336), float32] /* ty=Tensor[(4096, 14336), float32] span=/model/layers.30/mlp/gate_proj/MatMul.onnx::MatMul_10205:0:0 */, %onnx::MatMul_10206: Tensor[(4096, 14336), float32] /* ty=Tensor[(4096, 14336), float32] span=/model/layers.30/mlp/up_proj/MatMul.onnx::MatMul_10206:0:0 */, %onnx::MatMul_10207: Tensor[(14336, 4096), float32] /* ty=Tensor[(14336, 4096), float32] span=/model/layers.30/mlp/down_proj/MatMul.onnx::MatMul_10207:0:0 */, %onnx::MatMul_10208: Tensor[(4096, 4096), float32] /* ty=Tensor[(4096, 4096), float32] span=/model/layers.31/self_attn/q_proj/MatMul.onnx::MatMul_10208:0:0 */, %onnx::MatMul_10209: Tensor[(4096, 1024), float32] /* ty=Tensor[(4096, 1024), float32] span=/model/layers.31/self_attn/k_proj/MatMul.onnx::MatMul_10209:0:0 */, %onnx::MatMul_10210: Tensor[(4096, 1024), float32] /* ty=Tensor[(4096, 1024), float32] span=/model/layers.31/self_attn/v_proj/MatMul.onnx::MatMul_10210:0:0 */, %onnx::MatMul_10276: Tensor[(4096, 4096), float32] /* ty=Tensor[(4096, 4096), float32] span=/model/layers.31/self_attn/o_proj/MatMul.onnx::MatMul_10276:0:0 */, %onnx::MatMul_10277: Tensor[(4096, 14336), float32] /* ty=Tensor[(4096, 14336), float32] span=/model/layers.31/mlp/gate_proj/MatMul.onnx::MatMul_10277:0:0 */, %onnx::MatMul_10278: Tensor[(4096, 14336), float32] /* ty=Tensor[(4096, 14336), float32] span=/model/layers.31/mlp/up_proj/MatMul.onnx::MatMul_10278:0:0 */, %onnx::MatMul_10279: Tensor[(14336, 4096), float32] /* ty=Tensor[(14336, 4096), float32] span=/model/layers.31/mlp/down_proj/MatMul.onnx::MatMul_10279:0:0 */, %onnx::MatMul_10280: Tensor[(4096, 128256), float32] /* ty=Tensor[(4096, 128256), float32] span=/lm_head/MatMul.onnx::MatMul_10280:0:0 */) -> (Tensor[(1, 512, 128256), float32], Tensor[(1, 8, 512, 128), float32], Tensor[(1, 8, 512, 128), float32], Tensor[(1, 8, 512, 128), float32], Tensor[(1, 8, 512, 128), float32], Tensor[(1, 8, 512, 128), float32], Tensor[(1, 8, 512, 128), float32], Tensor[(1, 8, 512, 128), float32], Tensor[(1, 8, 512, 128), float32], Tensor[(1, 8, 512, 128), float32], Tensor[(1, 8, 512, 128), float32], Tensor[(1, 8, 512, 128), float32], Tensor[(1, 8, 512, 128), float32], Tensor[(1, 8, 512, 128), float32], Tensor[(1, 8, 512, 128), float32], Tensor[(1, 8, 512, 128), float32], Tensor[(1, 8, 512, 128), float32], Tensor[(1, 8, 512, 128), float32], Tensor[(1, 8, 512, 128), float32], Tensor[(1, 8, 512, 128), float32], Tensor[(1, 8, 512, 128), float32], Tensor[(1, 8, 512, 128), float32], Tensor[(1, 8, 512, 128), float32], Tensor[(1, 8, 512, 128), float32], Tensor[(1, 8, 512, 128), float32], Tensor[(1, 8, 512, 128), float32], Tensor[(1, 8, 512, 128), float32], Tensor[(1, 8, 512, 128), float32], Tensor[(1, 8, 512, 128), float32], Tensor[(1, 8, 512, 128), float32], Tensor[(1, 8, 512, 128), float32], Tensor[(1, 8, 512, 128), float32], Tensor[(1, 8, 512, 128), float32], Tensor[(1, 8, 512, 128), float32], Tensor[(1, 8, 512, 128), float32], Tensor[(1, 8, 512, 128), float32], Tensor[(1, 8, 512, 128), float32], Tensor[(1, 8, 512, 128), float32], Tensor[(1, 8, 512, 128), float32], Tensor[(1, 8, 512, 128), float32], Tensor[(1, 8, 512, 128), float32], Tensor[(1, 8, 512, 128), float32], Tensor[(1, 8, 512, 128), float32], Tensor[(1, 8, 512, 128), float32], Tensor[(1, 8, 512, 128), float32], Tensor[(1, 8, 512, 128), float32], Tensor[(1, 8, 512, 128), float32], Tensor[(1, 8, 512, 128), float32], Tensor[(1, 8, 512, 128), float32], Tensor[(1, 8, 512, 128), float32], Tensor[(1, 8, 512, 128), float32], Tensor[(1, 8, 512, 128), float32], Tensor[(1, 8, 512, 128), float32], Tensor[(1, 8, 512, 128), float32], Tensor[(1, 8, 512, 128), float32], Tensor[(1, 8, 512, 128), float32], Tensor[(1, 8, 512, 128), float32], Tensor[(1, 8, 512, 128), float32], Tensor[(1, 8, 512, 128), float32], Tensor[(1, 8, 512, 128), float32], Tensor[(1, 8, 512, 128), float32], Tensor[(1, 8, 512, 128), float32], Tensor[(1, 8, 512, 128), float32], Tensor[(1, 8, 512, 128), float32], Tensor[(1, 8, 512, 128), float32]) {
  %0 = less(%input_ids, 0i64 /* ty=int64 span=/model/embed_tokens/Gather:0:0 */) /* ty=Tensor[(1, 512), bool] span=/model/embed_tokens/Gather:0:0 */;
  %1 = add(%input_ids, 128256i64 /* ty=int64 */) /* ty=Tensor[(1, 512), int64] span=/model/embed_tokens/Gather:0:0 */;
  %2 = where(%0, %1, %input_ids) /* ty=Tensor[(1, 512), int64] span=/model/embed_tokens/Gather:0:0 */;
  %3 = take(%model.embed_tokens.weight, %2, axis=0) /* ty=Tensor[(1, 512, 4096), float32] span=/model/embed_tokens/Gather:0:0 */;
  %4 = cast(%3, dtype="float32") /* ty=Tensor[(1, 512, 4096), float32] span=/model/layers.0/input_layernorm/Cast:0:0 */;
  %5 = power(%4, 2f /* ty=float32 span=/model/layers.0/input_layernorm/Constant:0:0 */) /* ty=Tensor[(1, 512, 4096), float32] span=/model/layers.0/input_layernorm/Pow:0:0 */;
  %6 = mean(%5, axis=[-1], keepdims=True) /* ty=Tensor[(1, 512, 1), float32] span=/model/layers.0/input_layernorm/ReduceMean:0:0 */;
  %7 = add(%6, 1e-05f /* ty=float32 span=/model/layers.0/input_layernorm/Constant_1:0:0 */) /* ty=Tensor[(1, 512, 1), float32] span=/model/layers.0/input_layernorm/Add:0:0 */;
  %8 = sqrt(%7) /* ty=Tensor[(1, 512, 1), float32] span=/model/layers.0/input_layernorm/Sqrt:0:0 */;
  %9 = divide(1f /* ty=float32 span=/model/layers.0/input_layernorm/Constant_2:0:0 */, %8) /* ty=Tensor[(1, 512, 1), float32] span=/model/layers.0/input_layernorm/Div:0:0 */;
  %10 = multiply(%4, %9) /* ty=Tensor[(1, 512, 4096), float32] span=/model/layers.0/input_layernorm/Mul:0:0 */;
  %11 = cast(%10, dtype="float32") /* ty=Tensor[(1, 512, 4096), float32] span=/model/layers.0/input_layernorm/Cast_1:0:0 */;
  %12 = multiply(%model.layers.0.input_layernorm.weight, %11) /* ty=Tensor[(1, 512, 4096), float32] span=/model/layers.0/input_layernorm/Mul_1:0:0 */;
  %13 = reshape(%12, newshape=[-1, 4096]) /* ty=Tensor[(512, 4096), float32] span=/model/layers.0/self_attn/q_proj/MatMul:0:0 */;
  %14 = transpose(%onnx::MatMul_7976, axes=None) /* ty=Tensor[(4096, 4096), float32] span=/model/layers.0/self_attn/q_proj/MatMul:0:0 */;
  %15 = nn.dense(%13, %14, units=None, out_dtype="float32") /* ty=Tensor[(512, 4096), float32] span=/model/layers.0/self_attn/q_proj/MatMul:0:0 */;
  %16 = reshape(%15, newshape=[1, 512, 4096]) /* ty=Tensor[(1, 512, 4096), float32] span=/model/layers.0/self_attn/q_proj/MatMul:0:0 */;
  %17 = reshape(%16, newshape=[1, 512, 32, 128]) /* ty=Tensor[(1, 512, 32, 128), float32] span=/model/layers.0/self_attn/Reshape:0:0 */;
  %18 = transpose(%17, axes=[0, 2, 1, 3]) /* ty=Tensor[(1, 32, 512, 128), float32] span=/model/layers.0/self_attn/Transpose:0:0 */;
  %19 = strided_slice(%18, begin=[64i64], end=[9223372036854775807i64], strides=[1i64], axes=[3i64]) /* ty=Tensor[(1, 32, 512, 64), float32] span=/model/layers.0/self_attn/Slice_1:0:0 */;
  %20 = negative(%19) /* ty=Tensor[(1, 32, 512, 64), float32] span=/model/layers.0/self_attn/Neg:0:0 */;
  %21 = strided_slice(%18, begin=[0i64], end=[64i64], strides=[1i64], axes=[3i64]) /* ty=Tensor[(1, 32, 512, 64), float32] span=/model/layers.0/self_attn/Slice:0:0 */;
  %22 = (%20, %21) /* ty=(Tensor[(1, 32, 512, 64), float32], Tensor[(1, 32, 512, 64), float32]) span=/model/layers.0/self_attn/Concat:0:0 */;
  %23 = concatenate(%22, axis=-1) /* ty=Tensor[(1, 32, 512, 128), float32] span=/model/layers.0/self_attn/Concat:0:0 */;
  %24 = multiply(%18, meta[relay.Constant][0] /* ty=Tensor[(1, 1, 512, 128), float32] span=/model/layers.0/self_attn/Unsqueeze:0:0 */) /* ty=Tensor[(1, 32, 512, 128), float32] span=/model/layers.0/self_attn/Mul:0:0 */;
  %25 = multiply(%23, meta[relay.Constant][1] /* ty=Tensor[(1, 1, 512, 128), float32] span=/model/layers.0/self_attn/Unsqueeze_1:0:0 */) /* ty=Tensor[(1, 32, 512, 128), float32] span=/model/layers.0/self_attn/Mul_1:0:0 */;
  %26 = add(%24, %25) /* ty=Tensor[(1, 32, 512, 128), float32] span=/model/layers.0/self_attn/Add:0:0 */;
  %27 = multiply(%26, meta[relay.Constant][2] /* ty=Tensor[(1), float32] span=/model/layers.0/self_attn/Sqrt_1:0:0 */) /* ty=Tensor[(1, 32, 512, 128), float32] span=/model/layers.0/self_attn/Mul_6:0:0 */;
  %28 = reshape(%12, newshape=[-1, 4096]) /* ty=Tensor[(512, 4096), float32] span=/model/layers.0/self_attn/k_proj/MatMul:0:0 */;
  %29 = transpose(%onnx::MatMul_7977, axes=None) /* ty=Tensor[(1024, 4096), float32] span=/model/layers.0/self_attn/k_proj/MatMul:0:0 */;
  %30 = nn.dense(%28, %29, units=None, out_dtype="float32") /* ty=Tensor[(512, 1024), float32] span=/model/layers.0/self_attn/k_proj/MatMul:0:0 */;
  %31 = reshape(%30, newshape=[1, 512, 1024]) /* ty=Tensor[(1, 512, 1024), float32] span=/model/layers.0/self_attn/k_proj/MatMul:0:0 */;
  %32 = reshape(%31, newshape=[1, 512, 8, 128]) /* ty=Tensor[(1, 512, 8, 128), float32] span=/model/layers.0/self_attn/Reshape_1:0:0 */;
  %33 = transpose(%32, axes=[0, 2, 1, 3]) /* ty=Tensor[(1, 8, 512, 128), float32] span=/model/layers.0/self_attn/Transpose_1:0:0 */;
  %34 = strided_slice(%33, begin=[64i64], end=[9223372036854775807i64], strides=[1i64], axes=[3i64]) /* ty=Tensor[(1, 8, 512, 64), float32] span=/model/layers.0/self_attn/Slice_3:0:0 */;
  %35 = negative(%34) /* ty=Tensor[(1, 8, 512, 64), float32] span=/model/layers.0/self_attn/Neg_1:0:0 */;
  %36 = strided_slice(%33, begin=[0i64], end=[64i64], strides=[1i64], axes=[3i64]) /* ty=Tensor[(1, 8, 512, 64), float32] span=/model/layers.0/self_attn/Slice_2:0:0 */;
  %37 = (%35, %36) /* ty=(Tensor[(1, 8, 512, 64), float32], Tensor[(1, 8, 512, 64), float32]) span=/model/layers.0/self_attn/Concat_1:0:0 */;
  %38 = concatenate(%37, axis=-1) /* ty=Tensor[(1, 8, 512, 128), float32] span=/model/layers.0/self_attn/Concat_1:0:0 */;
  %39 = multiply(%33, meta[relay.Constant][0] /* ty=Tensor[(1, 1, 512, 128), float32] span=/model/layers.0/self_attn/Unsqueeze:0:0 */) /* ty=Tensor[(1, 8, 512, 128), float32] span=/model/layers.0/self_attn/Mul_2:0:0 */;
  %40 = multiply(%38, meta[relay.Constant][1] /* ty=Tensor[(1, 1, 512, 128), float32] span=/model/layers.0/self_attn/Unsqueeze_1:0:0 */) /* ty=Tensor[(1, 8, 512, 128), float32] span=/model/layers.0/self_attn/Mul_3:0:0 */;
  %41 = add(%39, %40) /* ty=Tensor[(1, 8, 512, 128), float32] span=/model/layers.0/self_attn/Add_1:0:0 */;
  %42 = expand_dims(%41, axis=2) /* ty=Tensor[(1, 8, 1, 512, 128), float32] span=/model/layers.0/self_attn/Unsqueeze_2:0:0 */;
  %43 = broadcast_to(%42, shape=[1i64, 8i64, 4i64, 512i64, 128i64]) /* ty=Tensor[(1i64, 8i64, 4i64, 512i64, 128i64), float32] span=/model/layers.0/self_attn/Expand:0:0 */;
  %44 = reshape(%43, newshape=[1, 32, 512, 128]) /* ty=Tensor[(1, 32, 512, 128), float32] span=/model/layers.0/self_attn/Reshape_3:0:0 */;
  %45 = transpose(%44, axes=[0, 1, 3, 2]) /* ty=Tensor[(1, 32, 128, 512), float32] span=/model/layers.0/self_attn/Transpose_3:0:0 */;
  %46 = multiply(%45, meta[relay.Constant][3] /* ty=Tensor[(1), float32] span=/model/layers.0/self_attn/Sqrt_2:0:0 */) /* ty=Tensor[(1, 32, 128, 512), float32] span=/model/layers.0/self_attn/Mul_7:0:0 */;
  %47 = reshape(%46, newshape=[-1, 128, 512]) /* ty=Tensor[(32, 128, 512), float32] span=/model/layers.0/self_attn/MatMul:0:0 */;
  %48 = reshape(%27, newshape=[-1, 512, 128]) /* ty=Tensor[(32, 512, 128), float32] span=/model/layers.0/self_attn/MatMul:0:0 */;
  %49 = transpose(%47, axes=[0, 2, 1]) /* ty=Tensor[(32, 512, 128), float32] span=/model/layers.0/self_attn/MatMul:0:0 */;
  %50 = nn.batch_matmul(%48, %49, out_dtype="float32", transpose_b=True) /* ty=Tensor[(32, 512, 512), float32] span=/model/layers.0/self_attn/MatMul:0:0 */;
  %51 = reshape(%50, newshape=[1, 32, 512, 512]) /* ty=Tensor[(1, 32, 512, 512), float32] span=/model/layers.0/self_attn/MatMul:0:0 */;
  %52 = add(%51, meta[relay.Constant][4] /* ty=Tensor[(1, 1, 512, 512), float32] span=/model/layers.0/self_attn/Slice_4:0:0 */) /* ty=Tensor[(1, 32, 512, 512), float32] span=/model/layers.0/self_attn/Add_2:0:0 */;
  %53 = nn.softmax(%52, axis=3) /* ty=Tensor[(1, 32, 512, 512), float32] span=/model/layers.0/self_attn/Softmax:0:0 */;
  %54 = reshape(%12, newshape=[-1, 4096]) /* ty=Tensor[(512, 4096), float32] span=/model/layers.0/self_attn/v_proj/MatMul:0:0 */;
  %55 = transpose(%onnx::MatMul_7978, axes=None) /* ty=Tensor[(1024, 4096), float32] span=/model/layers.0/self_attn/v_proj/MatMul:0:0 */;
  %56 = nn.dense(%54, %55, units=None, out_dtype="float32") /* ty=Tensor[(512, 1024), float32] span=/model/layers.0/self_attn/v_proj/MatMul:0:0 */;
  %57 = reshape(%56, newshape=[1, 512, 1024]) /* ty=Tensor[(1, 512, 1024), float32] span=/model/layers.0/self_attn/v_proj/MatMul:0:0 */;
  %58 = reshape(%57, newshape=[1, 512, 8, 128]) /* ty=Tensor[(1, 512, 8, 128), float32] span=/model/layers.0/self_attn/Reshape_2:0:0 */;
  %59 = transpose(%58, axes=[0, 2, 1, 3]) /* ty=Tensor[(1, 8, 512, 128), float32] span=/model/layers.0/self_attn/Transpose_2:0:0 */;
  %60 = expand_dims(%59, axis=2) /* ty=Tensor[(1, 8, 1, 512, 128), float32] span=/model/layers.0/self_attn/Unsqueeze_3:0:0 */;
  %61 = broadcast_to(%60, shape=[1i64, 8i64, 4i64, 512i64, 128i64]) /* ty=Tensor[(1i64, 8i64, 4i64, 512i64, 128i64), float32] span=/model/layers.0/self_attn/Expand_1:0:0 */;
  %62 = reshape(%61, newshape=[1, 32, 512, 128]) /* ty=Tensor[(1, 32, 512, 128), float32] span=/model/layers.0/self_attn/Reshape_4:0:0 */;
  %63 = reshape(%62, newshape=[-1, 512, 128]) /* ty=Tensor[(32, 512, 128), float32] span=/model/layers.0/self_attn/MatMul_1:0:0 */;
  %64 = reshape(%53, newshape=[-1, 512, 512]) /* ty=Tensor[(32, 512, 512), float32] span=/model/layers.0/self_attn/MatMul_1:0:0 */;
  %65 = transpose(%63, axes=[0, 2, 1]) /* ty=Tensor[(32, 128, 512), float32] span=/model/layers.0/self_attn/MatMul_1:0:0 */;
  %66 = nn.batch_matmul(%64, %65, out_dtype="float32", transpose_b=True) /* ty=Tensor[(32, 512, 128), float32] span=/model/layers.0/self_attn/MatMul_1:0:0 */;
  %67 = reshape(%66, newshape=[1, 32, 512, 128]) /* ty=Tensor[(1, 32, 512, 128), float32] span=/model/layers.0/self_attn/MatMul_1:0:0 */;
  %68 = transpose(%67, axes=[0, 2, 1, 3]) /* ty=Tensor[(1, 512, 32, 128), float32] span=/model/layers.0/self_attn/Transpose_4:0:0 */;
  %69 = reshape(%68, newshape=[1, 512, -1]) /* ty=Tensor[(1, 512, 4096), float32] span=/model/layers.0/self_attn/Reshape_5:0:0 */;
  %70 = reshape(%69, newshape=[-1, 4096]) /* ty=Tensor[(512, 4096), float32] span=/model/layers.0/self_attn/o_proj/MatMul:0:0 */;
  %71 = transpose(%onnx::MatMul_8044, axes=None) /* ty=Tensor[(4096, 4096), float32] span=/model/layers.0/self_attn/o_proj/MatMul:0:0 */;
  %72 = nn.dense(%70, %71, units=None, out_dtype="float32") /* ty=Tensor[(512, 4096), float32] span=/model/layers.0/self_attn/o_proj/MatMul:0:0 */;
  %73 = reshape(%72, newshape=[1, 512, 4096]) /* ty=Tensor[(1, 512, 4096), float32] span=/model/layers.0/self_attn/o_proj/MatMul:0:0 */;
  %74 = add(%4, %73) /* ty=Tensor[(1, 512, 4096), float32] span=/model/layers.0/Add:0:0 */;
  %75 = cast(%74, dtype="float32") /* ty=Tensor[(1, 512, 4096), float32] span=/model/layers.0/post_attention_layernorm/Cast:0:0 */;
  %76 = power(%75, 2f /* ty=float32 span=/model/layers.0/post_attention_layernorm/Constant:0:0 */) /* ty=Tensor[(1, 512, 4096), float32] span=/model/layers.0/post_attention_layernorm/Pow:0:0 */;
  %77 = mean(%76, axis=[-1], keepdims=True) /* ty=Tensor[(1, 512, 1), float32] span=/model/layers.0/post_attention_layernorm/ReduceMean:0:0 */;
  %78 = add(%77, 1e-05f /* ty=float32 span=/model/layers.0/post_attention_layernorm/Constant_1:0:0 */) /* ty=Tensor[(1, 512, 1), float32] span=/model/layers.0/post_attention_layernorm/Add:0:0 */;
  %79 = sqrt(%78) /* ty=Tensor[(1, 512, 1), float32] span=/model/layers.0/post_attention_layernorm/Sqrt:0:0 */;
  %80 = divide(1f /* ty=float32 span=/model/layers.0/post_attention_layernorm/Constant_2:0:0 */, %79) /* ty=Tensor[(1, 512, 1), float32] span=/model/layers.0/post_attention_layernorm/Div:0:0 */;
  %81 = multiply(%75, %80) /* ty=Tensor[(1, 512, 4096), float32] span=/model/layers.0/post_attention_layernorm/Mul:0:0 */;
  %82 = cast(%81, dtype="float32") /* ty=Tensor[(1, 512, 4096), float32] span=/model/layers.0/post_attention_layernorm/Cast_1:0:0 */;
  %83 = multiply(%model.layers.0.post_attention_layernorm.weight, %82) /* ty=Tensor[(1, 512, 4096), float32] span=/model/layers.0/post_attention_layernorm/Mul_1:0:0 */;
  %84 = reshape(%83, newshape=[-1, 4096]) /* ty=Tensor[(512, 4096), float32] span=/model/layers.0/mlp/gate_proj/MatMul:0:0 */;
  %85 = transpose(%onnx::MatMul_8045, axes=None) /* ty=Tensor[(14336, 4096), float32] span=/model/layers.0/mlp/gate_proj/MatMul:0:0 */;
  %86 = nn.dense(%84, %85, units=None, out_dtype="float32") /* ty=Tensor[(512, 14336), float32] span=/model/layers.0/mlp/gate_proj/MatMul:0:0 */;
  %87 = reshape(%86, newshape=[1, 512, 14336]) /* ty=Tensor[(1, 512, 14336), float32] span=/model/layers.0/mlp/gate_proj/MatMul:0:0 */;
  %88 = sigmoid(%87) /* ty=Tensor[(1, 512, 14336), float32] span=/model/layers.0/mlp/act_fn/Sigmoid:0:0 */;
  %89 = reshape(%83, newshape=[-1, 4096]) /* ty=Tensor[(512, 4096), float32] span=/model/layers.0/mlp/up_proj/MatMul:0:0 */;
  %90 = transpose(%onnx::MatMul_8046, axes=None) /* ty=Tensor[(14336, 4096), float32] span=/model/layers.0/mlp/up_proj/MatMul:0:0 */;
  %91 = nn.dense(%89, %90, units=None, out_dtype="float32") /* ty=Tensor[(512, 14336), float32] span=/model/layers.0/mlp/up_proj/MatMul:0:0 */;
  %92 = multiply(%87, %88) /* ty=Tensor[(1, 512, 14336), float32] span=/model/layers.0/mlp/act_fn/Mul:0:0 */;
  %93 = reshape(%91, newshape=[1, 512, 14336]) /* ty=Tensor[(1, 512, 14336), float32] span=/model/layers.0/mlp/up_proj/MatMul:0:0 */;
  %94 = multiply(%92, %93) /* ty=Tensor[(1, 512, 14336), float32] span=/model/layers.0/mlp/Mul:0:0 */;
  %95 = reshape(%94, newshape=[-1, 14336]) /* ty=Tensor[(512, 14336), float32] span=/model/layers.0/mlp/down_proj/MatMul:0:0 */;
  %96 = transpose(%onnx::MatMul_8047, axes=None) /* ty=Tensor[(4096, 14336), float32] span=/model/layers.0/mlp/down_proj/MatMul:0:0 */;
  %97 = nn.dense(%95, %96, units=None, out_dtype="float32") /* ty=Tensor[(512, 4096), float32] span=/model/layers.0/mlp/down_proj/MatMul:0:0 */;
  %98 = reshape(%97, newshape=[1, 512, 4096]) /* ty=Tensor[(1, 512, 4096), float32] span=/model/layers.0/mlp/down_proj/MatMul:0:0 */;
  %99 = add(%75, %98) /* ty=Tensor[(1, 512, 4096), float32] span=/model/layers.0/Add_1:0:0 */;
  %100 = cast(%99, dtype="float32") /* ty=Tensor[(1, 512, 4096), float32] span=/model/layers.1/input_layernorm/Cast:0:0 */;
  %101 = power(%100, 2f /* ty=float32 span=/model/layers.1/input_layernorm/Constant:0:0 */) /* ty=Tensor[(1, 512, 4096), float32] span=/model/layers.1/input_layernorm/Pow:0:0 */;
  %102 = mean(%101, axis=[-1], keepdims=True) /* ty=Tensor[(1, 512, 1), float32] span=/model/layers.1/input_layernorm/ReduceMean:0:0 */;
  %103 = add(%102, 1e-05f /* ty=float32 span=/model/layers.1/input_layernorm/Constant_1:0:0 */) /* ty=Tensor[(1, 512, 1), float32] span=/model/layers.1/input_layernorm/Add:0:0 */;
  %104 = sqrt(%103) /* ty=Tensor[(1, 512, 1), float32] span=/model/layers.1/input_layernorm/Sqrt:0:0 */;
  %105 = divide(1f /* ty=float32 span=/model/layers.1/input_layernorm/Constant_2:0:0 */, %104) /* ty=Tensor[(1, 512, 1), float32] span=/model/layers.1/input_layernorm/Div:0:0 */;
  %106 = multiply(%100, %105) /* ty=Tensor[(1, 512, 4096), float32] span=/model/layers.1/input_layernorm/Mul:0:0 */;
  %107 = cast(%106, dtype="float32") /* ty=Tensor[(1, 512, 4096), float32] span=/model/layers.1/input_layernorm/Cast_1:0:0 */;
  %108 = multiply(%model.layers.1.input_layernorm.weight, %107) /* ty=Tensor[(1, 512, 4096), float32] span=/model/layers.1/input_layernorm/Mul_1:0:0 */;
  %109 = reshape(%108, newshape=[-1, 4096]) /* ty=Tensor[(512, 4096), float32] span=/model/layers.1/self_attn/q_proj/MatMul:0:0 */;
  %110 = transpose(%onnx::MatMul_8048, axes=None) /* ty=Tensor[(4096, 4096), float32] span=/model/layers.1/self_attn/q_proj/MatMul:0:0 */;
  %111 = nn.dense(%109, %110, units=None, out_dtype="float32") /* ty=Tensor[(512, 4096), float32] span=/model/layers.1/self_attn/q_proj/MatMul:0:0 */;
  %112 = reshape(%111, newshape=[1, 512, 4096]) /* ty=Tensor[(1, 512, 4096), float32] span=/model/layers.1/self_attn/q_proj/MatMul:0:0 */;
  %113 = reshape(%112, newshape=[1, 512, 32, 128]) /* ty=Tensor[(1, 512, 32, 128), float32] span=/model/layers.1/self_attn/Reshape:0:0 */;
  %114 = transpose(%113, axes=[0, 2, 1, 3]) /* ty=Tensor[(1, 32, 512, 128), float32] span=/model/layers.1/self_attn/Transpose:0:0 */;
  %115 = strided_slice(%114, begin=[64i64], end=[9223372036854775807i64], strides=[1i64], axes=[3i64]) /* ty=Tensor[(1, 32, 512, 64), float32] span=/model/layers.1/self_attn/Slice_1:0:0 */;
  %116 = negative(%115) /* ty=Tensor[(1, 32, 512, 64), float32] span=/model/layers.1/self_attn/Neg:0:0 */;
  %117 = strided_slice(%114, begin=[0i64], end=[64i64], strides=[1i64], axes=[3i64]) /* ty=Tensor[(1, 32, 512, 64), float32] span=/model/layers.1/self_attn/Slice:0:0 */;
  %118 = (%116, %117) /* ty=(Tensor[(1, 32, 512, 64), float32], Tensor[(1, 32, 512, 64), float32]) span=/model/layers.1/self_attn/Concat:0:0 */;
  %119 = concatenate(%118, axis=-1) /* ty=Tensor[(1, 32, 512, 128), float32] span=/model/layers.1/self_attn/Concat:0:0 */;
  %120 = multiply(%114, meta[relay.Constant][0] /* ty=Tensor[(1, 1, 512, 128), float32] span=/model/layers.0/self_attn/Unsqueeze:0:0 */) /* ty=Tensor[(1, 32, 512, 128), float32] span=/model/layers.1/self_attn/Mul:0:0 */;
  %121 = multiply(%119, meta[relay.Constant][1] /* ty=Tensor[(1, 1, 512, 128), float32] span=/model/layers.0/self_attn/Unsqueeze_1:0:0 */) /* ty=Tensor[(1, 32, 512, 128), float32] span=/model/layers.1/self_attn/Mul_1:0:0 */;
  %122 = add(%120, %121) /* ty=Tensor[(1, 32, 512, 128), float32] span=/model/layers.1/self_attn/Add:0:0 */;
  %123 = multiply(%122, meta[relay.Constant][5] /* ty=Tensor[(1), float32] span=/model/layers.1/self_attn/Sqrt_1:0:0 */) /* ty=Tensor[(1, 32, 512, 128), float32] span=/model/layers.1/self_attn/Mul_6:0:0 */;
  %124 = reshape(%108, newshape=[-1, 4096]) /* ty=Tensor[(512, 4096), float32] span=/model/layers.1/self_attn/k_proj/MatMul:0:0 */;
  %125 = transpose(%onnx::MatMul_8049, axes=None) /* ty=Tensor[(1024, 4096), float32] span=/model/layers.1/self_attn/k_proj/MatMul:0:0 */;
  %126 = nn.dense(%124, %125, units=None, out_dtype="float32") /* ty=Tensor[(512, 1024), float32] span=/model/layers.1/self_attn/k_proj/MatMul:0:0 */;
  %127 = reshape(%126, newshape=[1, 512, 1024]) /* ty=Tensor[(1, 512, 1024), float32] span=/model/layers.1/self_attn/k_proj/MatMul:0:0 */;
  %128 = reshape(%127, newshape=[1, 512, 8, 128]) /* ty=Tensor[(1, 512, 8, 128), float32] span=/model/layers.1/self_attn/Reshape_1:0:0 */;
  %129 = transpose(%128, axes=[0, 2, 1, 3]) /* ty=Tensor[(1, 8, 512, 128), float32] span=/model/layers.1/self_attn/Transpose_1:0:0 */;
  %130 = strided_slice(%129, begin=[64i64], end=[9223372036854775807i64], strides=[1i64], axes=[3i64]) /* ty=Tensor[(1, 8, 512, 64), float32] span=/model/layers.1/self_attn/Slice_3:0:0 */;
  %131 = negative(%130) /* ty=Tensor[(1, 8, 512, 64), float32] span=/model/layers.1/self_attn/Neg_1:0:0 */;
  %132 = strided_slice(%129, begin=[0i64], end=[64i64], strides=[1i64], axes=[3i64]) /* ty=Tensor[(1, 8, 512, 64), float32] span=/model/layers.1/self_attn/Slice_2:0:0 */;
  %133 = (%131, %132) /* ty=(Tensor[(1, 8, 512, 64), float32], Tensor[(1, 8, 512, 64), float32]) span=/model/layers.1/self_attn/Concat_1:0:0 */;
  %134 = concatenate(%133, axis=-1) /* ty=Tensor[(1, 8, 512, 128), float32] span=/model/layers.1/self_attn/Concat_1:0:0 */;
  %135 = multiply(%129, meta[relay.Constant][0] /* ty=Tensor[(1, 1, 512, 128), float32] span=/model/layers.0/self_attn/Unsqueeze:0:0 */) /* ty=Tensor[(1, 8, 512, 128), float32] span=/model/layers.1/self_attn/Mul_2:0:0 */;
  %136 = multiply(%134, meta[relay.Constant][1] /* ty=Tensor[(1, 1, 512, 128), float32] span=/model/layers.0/self_attn/Unsqueeze_1:0:0 */) /* ty=Tensor[(1, 8, 512, 128), float32] span=/model/layers.1/self_attn/Mul_3:0:0 */;
  %137 = add(%135, %136) /* ty=Tensor[(1, 8, 512, 128), float32] span=/model/layers.1/self_attn/Add_1:0:0 */;
  %138 = expand_dims(%137, axis=2) /* ty=Tensor[(1, 8, 1, 512, 128), float32] span=/model/layers.1/self_attn/Unsqueeze:0:0 */;
  %139 = broadcast_to(%138, shape=[1i64, 8i64, 4i64, 512i64, 128i64]) /* ty=Tensor[(1i64, 8i64, 4i64, 512i64, 128i64), float32] span=/model/layers.1/self_attn/Expand:0:0 */;
  %140 = reshape(%139, newshape=[1, 32, 512, 128]) /* ty=Tensor[(1, 32, 512, 128), float32] span=/model/layers.1/self_attn/Reshape_3:0:0 */;
  %141 = transpose(%140, axes=[0, 1, 3, 2]) /* ty=Tensor[(1, 32, 128, 512), float32] span=/model/layers.1/self_attn/Transpose_3:0:0 */;
  %142 = multiply(%141, meta[relay.Constant][6] /* ty=Tensor[(1), float32] span=/model/layers.1/self_attn/Sqrt_2:0:0 */) /* ty=Tensor[(1, 32, 128, 512), float32] span=/model/layers.1/self_attn/Mul_7:0:0 */;
  %143 = reshape(%142, newshape=[-1, 128, 512]) /* ty=Tensor[(32, 128, 512), float32] span=/model/layers.1/self_attn/MatMul:0:0 */;
  %144 = reshape(%123, newshape=[-1, 512, 128]) /* ty=Tensor[(32, 512, 128), float32] span=/model/layers.1/self_attn/MatMul:0:0 */;
  %145 = transpose(%143, axes=[0, 2, 1]) /* ty=Tensor[(32, 512, 128), float32] span=/model/layers.1/self_attn/MatMul:0:0 */;
  %146 = nn.batch_matmul(%144, %145, out_dtype="float32", transpose_b=True) /* ty=Tensor[(32, 512, 512), float32] span=/model/layers.1/self_attn/MatMul:0:0 */;
  %147 = reshape(%146, newshape=[1, 32, 512, 512]) /* ty=Tensor[(1, 32, 512, 512), float32] span=/model/layers.1/self_attn/MatMul:0:0 */;
  %148 = add(%147, meta[relay.Constant][7] /* ty=Tensor[(1, 1, 512, 512), float32] span=/model/layers.1/self_attn/Slice_4:0:0 */) /* ty=Tensor[(1, 32, 512, 512), float32] span=/model/layers.1/self_attn/Add_2:0:0 */;
  %149 = nn.softmax(%148, axis=3) /* ty=Tensor[(1, 32, 512, 512), float32] span=/model/layers.1/self_attn/Softmax:0:0 */;
  %150 = reshape(%108, newshape=[-1, 4096]) /* ty=Tensor[(512, 4096), float32] span=/model/layers.1/self_attn/v_proj/MatMul:0:0 */;
  %151 = transpose(%onnx::MatMul_8050, axes=None) /* ty=Tensor[(1024, 4096), float32] span=/model/layers.1/self_attn/v_proj/MatMul:0:0 */;
  %152 = nn.dense(%150, %151, units=None, out_dtype="float32") /* ty=Tensor[(512, 1024), float32] span=/model/layers.1/self_attn/v_proj/MatMul:0:0 */;
  %153 = reshape(%152, newshape=[1, 512, 1024]) /* ty=Tensor[(1, 512, 1024), float32] span=/model/layers.1/self_attn/v_proj/MatMul:0:0 */;
  %154 = reshape(%153, newshape=[1, 512, 8, 128]) /* ty=Tensor[(1, 512, 8, 128), float32] span=/model/layers.1/self_attn/Reshape_2:0:0 */;
  %155 = transpose(%154, axes=[0, 2, 1, 3]) /* ty=Tensor[(1, 8, 512, 128), float32] span=/model/layers.1/self_attn/Transpose_2:0:0 */;
  %156 = expand_dims(%155, axis=2) /* ty=Tensor[(1, 8, 1, 512, 128), float32] span=/model/layers.1/self_attn/Unsqueeze_1:0:0 */;
  %157 = broadcast_to(%156, shape=[1i64, 8i64, 4i64, 512i64, 128i64]) /* ty=Tensor[(1i64, 8i64, 4i64, 512i64, 128i64), float32] span=/model/layers.1/self_attn/Expand_1:0:0 */;
  %158 = reshape(%157, newshape=[1, 32, 512, 128]) /* ty=Tensor[(1, 32, 512, 128), float32] span=/model/layers.1/self_attn/Reshape_4:0:0 */;
  %159 = reshape(%158, newshape=[-1, 512, 128]) /* ty=Tensor[(32, 512, 128), float32] span=/model/layers.1/self_attn/MatMul_1:0:0 */;
  %160 = reshape(%149, newshape=[-1, 512, 512]) /* ty=Tensor[(32, 512, 512), float32] span=/model/layers.1/self_attn/MatMul_1:0:0 */;
  %161 = transpose(%159, axes=[0, 2, 1]) /* ty=Tensor[(32, 128, 512), float32] span=/model/layers.1/self_attn/MatMul_1:0:0 */;
  %162 = nn.batch_matmul(%160, %161, out_dtype="float32", transpose_b=True) /* ty=Tensor[(32, 512, 128), float32] span=/model/layers.1/self_attn/MatMul_1:0:0 */;
  %163 = reshape(%162, newshape=[1, 32, 512, 128]) /* ty=Tensor[(1, 32, 512, 128), float32] span=/model/layers.1/self_attn/MatMul_1:0:0 */;
  %164 = transpose(%163, axes=[0, 2, 1, 3]) /* ty=Tensor[(1, 512, 32, 128), float32] span=/model/layers.1/self_attn/Transpose_4:0:0 */;
  %165 = reshape(%164, newshape=[1, 512, -1]) /* ty=Tensor[(1, 512, 4096), float32] span=/model/layers.1/self_attn/Reshape_5:0:0 */;
  %166 = reshape(%165, newshape=[-1, 4096]) /* ty=Tensor[(512, 4096), float32] span=/model/layers.1/self_attn/o_proj/MatMul:0:0 */;
  %167 = transpose(%onnx::MatMul_8116, axes=None) /* ty=Tensor[(4096, 4096), float32] span=/model/layers.1/self_attn/o_proj/MatMul:0:0 */;
  %168 = nn.dense(%166, %167, units=None, out_dtype="float32") /* ty=Tensor[(512, 4096), float32] span=/model/layers.1/self_attn/o_proj/MatMul:0:0 */;
  %169 = reshape(%168, newshape=[1, 512, 4096]) /* ty=Tensor[(1, 512, 4096), float32] span=/model/layers.1/self_attn/o_proj/MatMul:0:0 */;
  %170 = add(%100, %169) /* ty=Tensor[(1, 512, 4096), float32] span=/model/layers.1/Add:0:0 */;
  %171 = cast(%170, dtype="float32") /* ty=Tensor[(1, 512, 4096), float32] span=/model/layers.1/post_attention_layernorm/Cast:0:0 */;
  %172 = power(%171, 2f /* ty=float32 span=/model/layers.1/post_attention_layernorm/Constant:0:0 */) /* ty=Tensor[(1, 512, 4096), float32] span=/model/layers.1/post_attention_layernorm/Pow:0:0 */;
  %173 = mean(%172, axis=[-1], keepdims=True) /* ty=Tensor[(1, 512, 1), float32] span=/model/layers.1/post_attention_layernorm/ReduceMean:0:0 */;
  %174 = add(%173, 1e-05f /* ty=float32 span=/model/layers.1/post_attention_layernorm/Constant_1:0:0 */) /* ty=Tensor[(1, 512, 1), float32] span=/model/layers.1/post_attention_layernorm/Add:0:0 */;
  %175 = sqrt(%174) /* ty=Tensor[(1, 512, 1), float32] span=/model/layers.1/post_attention_layernorm/Sqrt:0:0 */;
  %176 = divide(1f /* ty=float32 span=/model/layers.1/post_attention_layernorm/Constant_2:0:0 */, %175) /* ty=Tensor[(1, 512, 1), float32] span=/model/layers.1/post_attention_layernorm/Div:0:0 */;
  %177 = multiply(%171, %176) /* ty=Tensor[(1, 512, 4096), float32] span=/model/layers.1/post_attention_layernorm/Mul:0:0 */;
  %178 = cast(%177, dtype="float32") /* ty=Tensor[(1, 512, 4096), float32] span=/model/layers.1/post_attention_layernorm/Cast_1:0:0 */;
  %179 = multiply(%model.layers.1.post_attention_layernorm.weight, %178) /* ty=Tensor[(1, 512, 4096), float32] span=/model/layers.1/post_attention_layernorm/Mul_1:0:0 */;
  %180 = reshape(%179, newshape=[-1, 4096]) /* ty=Tensor[(512, 4096), float32] span=/model/layers.1/mlp/gate_proj/MatMul:0:0 */;
  %181 = transpose(%onnx::MatMul_8117, axes=None) /* ty=Tensor[(14336, 4096), float32] span=/model/layers.1/mlp/gate_proj/MatMul:0:0 */;
  %182 = nn.dense(%180, %181, units=None, out_dtype="float32") /* ty=Tensor[(512, 14336), float32] span=/model/layers.1/mlp/gate_proj/MatMul:0:0 */;
  %183 = reshape(%182, newshape=[1, 512, 14336]) /* ty=Tensor[(1, 512, 14336), float32] span=/model/layers.1/mlp/gate_proj/MatMul:0:0 */;
  %184 = sigmoid(%183) /* ty=Tensor[(1, 512, 14336), float32] span=/model/layers.1/mlp/act_fn/Sigmoid:0:0 */;
  %185 = reshape(%179, newshape=[-1, 4096]) /* ty=Tensor[(512, 4096), float32] span=/model/layers.1/mlp/up_proj/MatMul:0:0 */;
  %186 = transpose(%onnx::MatMul_8118, axes=None) /* ty=Tensor[(14336, 4096), float32] span=/model/layers.1/mlp/up_proj/MatMul:0:0 */;
  %187 = nn.dense(%185, %186, units=None, out_dtype="float32") /* ty=Tensor[(512, 14336), float32] span=/model/layers.1/mlp/up_proj/MatMul:0:0 */;
  %188 = multiply(%183, %184) /* ty=Tensor[(1, 512, 14336), float32] span=/model/layers.1/mlp/act_fn/Mul:0:0 */;
  %189 = reshape(%187, newshape=[1, 512, 14336]) /* ty=Tensor[(1, 512, 14336), float32] span=/model/layers.1/mlp/up_proj/MatMul:0:0 */;
  %190 = multiply(%188, %189) /* ty=Tensor[(1, 512, 14336), float32] span=/model/layers.1/mlp/Mul:0:0 */;
  %191 = reshape(%190, newshape=[-1, 14336]) /* ty=Tensor[(512, 14336), float32] span=/model/layers.1/mlp/down_proj/MatMul:0:0 */;
  %192 = transpose(%onnx::MatMul_8119, axes=None) /* ty=Tensor[(4096, 14336), float32] span=/model/layers.1/mlp/down_proj/MatMul:0:0 */;
  %193 = nn.dense(%191, %192, units=None, out_dtype="float32") /* ty=Tensor[(512, 4096), float32] span=/model/layers.1/mlp/down_proj/MatMul:0:0 */;
  %194 = reshape(%193, newshape=[1, 512, 4096]) /* ty=Tensor[(1, 512, 4096), float32] span=/model/layers.1/mlp/down_proj/MatMul:0:0 */;
  %195 = add(%171, %194) /* ty=Tensor[(1, 512, 4096), float32] span=/model/layers.1/Add_1:0:0 */;
  %196 = cast(%195, dtype="float32") /* ty=Tensor[(1, 512, 4096), float32] span=/model/layers.2/input_layernorm/Cast:0:0 */;
  %197 = power(%196, 2f /* ty=float32 span=/model/layers.2/input_layernorm/Constant:0:0 */) /* ty=Tensor[(1, 512, 4096), float32] span=/model/layers.2/input_layernorm/Pow:0:0 */;
  %198 = mean(%197, axis=[-1], keepdims=True) /* ty=Tensor[(1, 512, 1), float32] span=/model/layers.2/input_layernorm/ReduceMean:0:0 */;
  %199 = add(%198, 1e-05f /* ty=float32 span=/model/layers.2/input_layernorm/Constant_1:0:0 */) /* ty=Tensor[(1, 512, 1), float32] span=/model/layers.2/input_layernorm/Add:0:0 */;
  %200 = sqrt(%199) /* ty=Tensor[(1, 512, 1), float32] span=/model/layers.2/input_layernorm/Sqrt:0:0 */;
  %201 = divide(1f /* ty=float32 span=/model/layers.2/input_layernorm/Constant_2:0:0 */, %200) /* ty=Tensor[(1, 512, 1), float32] span=/model/layers.2/input_layernorm/Div:0:0 */;
  %202 = multiply(%196, %201) /* ty=Tensor[(1, 512, 4096), float32] span=/model/layers.2/input_layernorm/Mul:0:0 */;
  %203 = cast(%202, dtype="float32") /* ty=Tensor[(1, 512, 4096), float32] span=/model/layers.2/input_layernorm/Cast_1:0:0 */;
  %204 = multiply(%model.layers.2.input_layernorm.weight, %203) /* ty=Tensor[(1, 512, 4096), float32] span=/model/layers.2/input_layernorm/Mul_1:0:0 */;
  %205 = reshape(%204, newshape=[-1, 4096]) /* ty=Tensor[(512, 4096), float32] span=/model/layers.2/self_attn/q_proj/MatMul:0:0 */;
  %206 = transpose(%onnx::MatMul_8120, axes=None) /* ty=Tensor[(4096, 4096), float32] span=/model/layers.2/self_attn/q_proj/MatMul:0:0 */;
  %207 = nn.dense(%205, %206, units=None, out_dtype="float32") /* ty=Tensor[(512, 4096), float32] span=/model/layers.2/self_attn/q_proj/MatMul:0:0 */;
  %208 = reshape(%207, newshape=[1, 512, 4096]) /* ty=Tensor[(1, 512, 4096), float32] span=/model/layers.2/self_attn/q_proj/MatMul:0:0 */;
  %209 = reshape(%208, newshape=[1, 512, 32, 128]) /* ty=Tensor[(1, 512, 32, 128), float32] span=/model/layers.2/self_attn/Reshape:0:0 */;
  %210 = transpose(%209, axes=[0, 2, 1, 3]) /* ty=Tensor[(1, 32, 512, 128), float32] span=/model/layers.2/self_attn/Transpose:0:0 */;
  %211 = strided_slice(%210, begin=[64i64], end=[9223372036854775807i64], strides=[1i64], axes=[3i64]) /* ty=Tensor[(1, 32, 512, 64), float32] span=/model/layers.2/self_attn/Slice_1:0:0 */;
  %212 = negative(%211) /* ty=Tensor[(1, 32, 512, 64), float32] span=/model/layers.2/self_attn/Neg:0:0 */;
  %213 = strided_slice(%210, begin=[0i64], end=[64i64], strides=[1i64], axes=[3i64]) /* ty=Tensor[(1, 32, 512, 64), float32] span=/model/layers.2/self_attn/Slice:0:0 */;
  %214 = (%212, %213) /* ty=(Tensor[(1, 32, 512, 64), float32], Tensor[(1, 32, 512, 64), float32]) span=/model/layers.2/self_attn/Concat:0:0 */;
  %215 = concatenate(%214, axis=-1) /* ty=Tensor[(1, 32, 512, 128), float32] span=/model/layers.2/self_attn/Concat:0:0 */;
  %216 = multiply(%210, meta[relay.Constant][0] /* ty=Tensor[(1, 1, 512, 128), float32] span=/model/layers.0/self_attn/Unsqueeze:0:0 */) /* ty=Tensor[(1, 32, 512, 128), float32] span=/model/layers.2/self_attn/Mul:0:0 */;
  %217 = multiply(%215, meta[relay.Constant][1] /* ty=Tensor[(1, 1, 512, 128), float32] span=/model/layers.0/self_attn/Unsqueeze_1:0:0 */) /* ty=Tensor[(1, 32, 512, 128), float32] span=/model/layers.2/self_attn/Mul_1:0:0 */;
  %218 = add(%216, %217) /* ty=Tensor[(1, 32, 512, 128), float32] span=/model/layers.2/self_attn/Add:0:0 */;
  %219 = multiply(%218, meta[relay.Constant][8] /* ty=Tensor[(1), float32] span=/model/layers.2/self_attn/Sqrt_1:0:0 */) /* ty=Tensor[(1, 32, 512, 128), float32] span=/model/layers.2/self_attn/Mul_6:0:0 */;
  %220 = reshape(%204, newshape=[-1, 4096]) /* ty=Tensor[(512, 4096), float32] span=/model/layers.2/self_attn/k_proj/MatMul:0:0 */;
  %221 = transpose(%onnx::MatMul_8121, axes=None) /* ty=Tensor[(1024, 4096), float32] span=/model/layers.2/self_attn/k_proj/MatMul:0:0 */;
  %222 = nn.dense(%220, %221, units=None, out_dtype="float32") /* ty=Tensor[(512, 1024), float32] span=/model/layers.2/self_attn/k_proj/MatMul:0:0 */;
  %223 = reshape(%222, newshape=[1, 512, 1024]) /* ty=Tensor[(1, 512, 1024), float32] span=/model/layers.2/self_attn/k_proj/MatMul:0:0 */;
  %224 = reshape(%223, newshape=[1, 512, 8, 128]) /* ty=Tensor[(1, 512, 8, 128), float32] span=/model/layers.2/self_attn/Reshape_1:0:0 */;
  %225 = transpose(%224, axes=[0, 2, 1, 3]) /* ty=Tensor[(1, 8, 512, 128), float32] span=/model/layers.2/self_attn/Transpose_1:0:0 */;
  %226 = strided_slice(%225, begin=[64i64], end=[9223372036854775807i64], strides=[1i64], axes=[3i64]) /* ty=Tensor[(1, 8, 512, 64), float32] span=/model/layers.2/self_attn/Slice_3:0:0 */;
  %227 = negative(%226) /* ty=Tensor[(1, 8, 512, 64), float32] span=/model/layers.2/self_attn/Neg_1:0:0 */;
  %228 = strided_slice(%225, begin=[0i64], end=[64i64], strides=[1i64], axes=[3i64]) /* ty=Tensor[(1, 8, 512, 64), float32] span=/model/layers.2/self_attn/Slice_2:0:0 */;
  %229 = (%227, %228) /* ty=(Tensor[(1, 8, 512, 64), float32], Tensor[(1, 8, 512, 64), float32]) span=/model/layers.2/self_attn/Concat_1:0:0 */;
  %230 = concatenate(%229, axis=-1) /* ty=Tensor[(1, 8, 512, 128), float32] span=/model/layers.2/self_attn/Concat_1:0:0 */;
  %231 = multiply(%225, meta[relay.Constant][0] /* ty=Tensor[(1, 1, 512, 128), float32] span=/model/layers.0/self_attn/Unsqueeze:0:0 */) /* ty=Tensor[(1, 8, 512, 128), float32] span=/model/layers.2/self_attn/Mul_2:0:0 */;
  %232 = multiply(%230, meta[relay.Constant][1] /* ty=Tensor[(1, 1, 512, 128), float32] span=/model/layers.0/self_attn/Unsqueeze_1:0:0 */) /* ty=Tensor[(1, 8, 512, 128), float32] span=/model/layers.2/self_attn/Mul_3:0:0 */;
  %233 = add(%231, %232) /* ty=Tensor[(1, 8, 512, 128), float32] span=/model/layers.2/self_attn/Add_1:0:0 */;
  %234 = expand_dims(%233, axis=2) /* ty=Tensor[(1, 8, 1, 512, 128), float32] span=/model/layers.2/self_attn/Unsqueeze:0:0 */;
  %235 = broadcast_to(%234, shape=[1i64, 8i64, 4i64, 512i64, 128i64]) /* ty=Tensor[(1i64, 8i64, 4i64, 512i64, 128i64), float32] span=/model/layers.2/self_attn/Expand:0:0 */;
  %236 = reshape(%235, newshape=[1, 32, 512, 128]) /* ty=Tensor[(1, 32, 512, 128), float32] span=/model/layers.2/self_attn/Reshape_3:0:0 */;
  %237 = transpose(%236, axes=[0, 1, 3, 2]) /* ty=Tensor[(1, 32, 128, 512), float32] span=/model/layers.2/self_attn/Transpose_3:0:0 */;
  %238 = multiply(%237, meta[relay.Constant][9] /* ty=Tensor[(1), float32] span=/model/layers.2/self_attn/Sqrt_2:0:0 */) /* ty=Tensor[(1, 32, 128, 512), float32] span=/model/layers.2/self_attn/Mul_7:0:0 */;
  %239 = reshape(%238, newshape=[-1, 128, 512]) /* ty=Tensor[(32, 128, 512), float32] span=/model/layers.2/self_attn/MatMul:0:0 */;
  %240 = reshape(%219, newshape=[-1, 512, 128]) /* ty=Tensor[(32, 512, 128), float32] span=/model/layers.2/self_attn/MatMul:0:0 */;
  %241 = transpose(%239, axes=[0, 2, 1]) /* ty=Tensor[(32, 512, 128), float32] span=/model/layers.2/self_attn/MatMul:0:0 */;
  %242 = nn.batch_matmul(%240, %241, out_dtype="float32", transpose_b=True) /* ty=Tensor[(32, 512, 512), float32] span=/model/layers.2/self_attn/MatMul:0:0 */;
  %243 = reshape(%242, newshape=[1, 32, 512, 512]) /* ty=Tensor[(1, 32, 512, 512), float32] span=/model/layers.2/self_attn/MatMul:0:0 */;
  %244 = add(%243, meta[relay.Constant][10] /* ty=Tensor[(1, 1, 512, 512), float32] span=/model/layers.2/self_attn/Slice_4:0:0 */) /* ty=Tensor[(1, 32, 512, 512), float32] span=/model/layers.2/self_attn/Add_2:0:0 */;
  %245 = nn.softmax(%244, axis=3) /* ty=Tensor[(1, 32, 512, 512), float32] span=/model/layers.2/self_attn/Softmax:0:0 */;
  %246 = reshape(%204, newshape=[-1, 4096]) /* ty=Tensor[(512, 4096), float32] span=/model/layers.2/self_attn/v_proj/MatMul:0:0 */;
  %247 = transpose(%onnx::MatMul_8122, axes=None) /* ty=Tensor[(1024, 4096), float32] span=/model/layers.2/self_attn/v_proj/MatMul:0:0 */;
  %248 = nn.dense(%246, %247, units=None, out_dtype="float32") /* ty=Tensor[(512, 1024), float32] span=/model/layers.2/self_attn/v_proj/MatMul:0:0 */;
  %249 = reshape(%248, newshape=[1, 512, 1024]) /* ty=Tensor[(1, 512, 1024), float32] span=/model/layers.2/self_attn/v_proj/MatMul:0:0 */;
  %250 = reshape(%249, newshape=[1, 512, 8, 128]) /* ty=Tensor[(1, 512, 8, 128), float32] span=/model/layers.2/self_attn/Reshape_2:0:0 */;
  %251 = transpose(%250, axes=[0, 2, 1, 3]) /* ty=Tensor[(1, 8, 512, 128), float32] span=/model/layers.2/self_attn/Transpose_2:0:0 */;
  %252 = expand_dims(%251, axis=2) /* ty=Tensor[(1, 8, 1, 512, 128), float32] span=/model/layers.2/self_attn/Unsqueeze_1:0:0 */;
  %253 = broadcast_to(%252, shape=[1i64, 8i64, 4i64, 512i64, 128i64]) /* ty=Tensor[(1i64, 8i64, 4i64, 512i64, 128i64), float32] span=/model/layers.2/self_attn/Expand_1:0:0 */;
  %254 = reshape(%253, newshape=[1, 32, 512, 128]) /* ty=Tensor[(1, 32, 512, 128), float32] span=/model/layers.2/self_attn/Reshape_4:0:0 */;
  %255 = reshape(%254, newshape=[-1, 512, 128]) /* ty=Tensor[(32, 512, 128), float32] span=/model/layers.2/self_attn/MatMul_1:0:0 */;
  %256 = reshape(%245, newshape=[-1, 512, 512]) /* ty=Tensor[(32, 512, 512), float32] span=/model/layers.2/self_attn/MatMul_1:0:0 */;
  %257 = transpose(%255, axes=[0, 2, 1]) /* ty=Tensor[(32, 128, 512), float32] span=/model/layers.2/self_attn/MatMul_1:0:0 */;
  %258 = nn.batch_matmul(%256, %257, out_dtype="float32", transpose_b=True) /* ty=Tensor[(32, 512, 128), float32] span=/model/layers.2/self_attn/MatMul_1:0:0 */;
  %259 = reshape(%258, newshape=[1, 32, 512, 128]) /* ty=Tensor[(1, 32, 512, 128), float32] span=/model/layers.2/self_attn/MatMul_1:0:0 */;
  %260 = transpose(%259, axes=[0, 2, 1, 3]) /* ty=Tensor[(1, 512, 32, 128), float32] span=/model/layers.2/self_attn/Transpose_4:0:0 */;
  %261 = reshape(%260, newshape=[1, 512, -1]) /* ty=Tensor[(1, 512, 4096), float32] span=/model/layers.2/self_attn/Reshape_5:0:0 */;
  %262 = reshape(%261, newshape=[-1, 4096]) /* ty=Tensor[(512, 4096), float32] span=/model/layers.2/self_attn/o_proj/MatMul:0:0 */;
  %263 = transpose(%onnx::MatMul_8188, axes=None) /* ty=Tensor[(4096, 4096), float32] span=/model/layers.2/self_attn/o_proj/MatMul:0:0 */;
  %264 = nn.dense(%262, %263, units=None, out_dtype="float32") /* ty=Tensor[(512, 4096), float32] span=/model/layers.2/self_attn/o_proj/MatMul:0:0 */;
  %265 = reshape(%264, newshape=[1, 512, 4096]) /* ty=Tensor[(1, 512, 4096), float32] span=/model/layers.2/self_attn/o_proj/MatMul:0:0 */;
  %266 = add(%196, %265) /* ty=Tensor[(1, 512, 4096), float32] span=/model/layers.2/Add:0:0 */;
  %267 = cast(%266, dtype="float32") /* ty=Tensor[(1, 512, 4096), float32] span=/model/layers.2/post_attention_layernorm/Cast:0:0 */;
  %268 = power(%267, 2f /* ty=float32 span=/model/layers.2/post_attention_layernorm/Constant:0:0 */) /* ty=Tensor[(1, 512, 4096), float32] span=/model/layers.2/post_attention_layernorm/Pow:0:0 */;
  %269 = mean(%268, axis=[-1], keepdims=True) /* ty=Tensor[(1, 512, 1), float32] span=/model/layers.2/post_attention_layernorm/ReduceMean:0:0 */;
  %270 = add(%269, 1e-05f /* ty=float32 span=/model/layers.2/post_attention_layernorm/Constant_1:0:0 */) /* ty=Tensor[(1, 512, 1), float32] span=/model/layers.2/post_attention_layernorm/Add:0:0 */;
  %271 = sqrt(%270) /* ty=Tensor[(1, 512, 1), float32] span=/model/layers.2/post_attention_layernorm/Sqrt:0:0 */;
  %272 = divide(1f /* ty=float32 span=/model/layers.2/post_attention_layernorm/Constant_2:0:0 */, %271) /* ty=Tensor[(1, 512, 1), float32] span=/model/layers.2/post_attention_layernorm/Div:0:0 */;
  %273 = multiply(%267, %272) /* ty=Tensor[(1, 512, 4096), float32] span=/model/layers.2/post_attention_layernorm/Mul:0:0 */;
  %274 = cast(%273, dtype="float32") /* ty=Tensor[(1, 512, 4096), float32] span=/model/layers.2/post_attention_layernorm/Cast_1:0:0 */;
  %275 = multiply(%model.layers.2.post_attention_layernorm.weight, %274) /* ty=Tensor[(1, 512, 4096), float32] span=/model/layers.2/post_attention_layernorm/Mul_1:0:0 */;
  %276 = reshape(%275, newshape=[-1, 4096]) /* ty=Tensor[(512, 4096), float32] span=/model/layers.2/mlp/gate_proj/MatMul:0:0 */;
  %277 = transpose(%onnx::MatMul_8189, axes=None) /* ty=Tensor[(14336, 4096), float32] span=/model/layers.2/mlp/gate_proj/MatMul:0:0 */;
  %278 = nn.dense(%276, %277, units=None, out_dtype="float32") /* ty=Tensor[(512, 14336), float32] span=/model/layers.2/mlp/gate_proj/MatMul:0:0 */;
  %279 = reshape(%278, newshape=[1, 512, 14336]) /* ty=Tensor[(1, 512, 14336), float32] span=/model/layers.2/mlp/gate_proj/MatMul:0:0 */;
  %280 = sigmoid(%279) /* ty=Tensor[(1, 512, 14336), float32] span=/model/layers.2/mlp/act_fn/Sigmoid:0:0 */;
  %281 = reshape(%275, newshape=[-1, 4096]) /* ty=Tensor[(512, 4096), float32] span=/model/layers.2/mlp/up_proj/MatMul:0:0 */;
  %282 = transpose(%onnx::MatMul_8190, axes=None) /* ty=Tensor[(14336, 4096), float32] span=/model/layers.2/mlp/up_proj/MatMul:0:0 */;
  %283 = nn.dense(%281, %282, units=None, out_dtype="float32") /* ty=Tensor[(512, 14336), float32] span=/model/layers.2/mlp/up_proj/MatMul:0:0 */;
  %284 = multiply(%279, %280) /* ty=Tensor[(1, 512, 14336), float32] span=/model/layers.2/mlp/act_fn/Mul:0:0 */;
  %285 = reshape(%283, newshape=[1, 512, 14336]) /* ty=Tensor[(1, 512, 14336), float32] span=/model/layers.2/mlp/up_proj/MatMul:0:0 */;
  %286 = multiply(%284, %285) /* ty=Tensor[(1, 512, 14336), float32] span=/model/layers.2/mlp/Mul:0:0 */;
  %287 = reshape(%286, newshape=[-1, 14336]) /* ty=Tensor[(512, 14336), float32] span=/model/layers.2/mlp/down_proj/MatMul:0:0 */;
  %288 = transpose(%onnx::MatMul_8191, axes=None) /* ty=Tensor[(4096, 14336), float32] span=/model/layers.2/mlp/down_proj/MatMul:0:0 */;
  %289 = nn.dense(%287, %288, units=None, out_dtype="float32") /* ty=Tensor[(512, 4096), float32] span=/model/layers.2/mlp/down_proj/MatMul:0:0 */;
  %290 = reshape(%289, newshape=[1, 512, 4096]) /* ty=Tensor[(1, 512, 4096), float32] span=/model/layers.2/mlp/down_proj/MatMul:0:0 */;
  %291 = add(%267, %290) /* ty=Tensor[(1, 512, 4096), float32] span=/model/layers.2/Add_1:0:0 */;
  %292 = cast(%291, dtype="float32") /* ty=Tensor[(1, 512, 4096), float32] span=/model/layers.3/input_layernorm/Cast:0:0 */;
  %293 = power(%292, 2f /* ty=float32 span=/model/layers.3/input_layernorm/Constant:0:0 */) /* ty=Tensor[(1, 512, 4096), float32] span=/model/layers.3/input_layernorm/Pow:0:0 */;
  %294 = mean(%293, axis=[-1], keepdims=True) /* ty=Tensor[(1, 512, 1), float32] span=/model/layers.3/input_layernorm/ReduceMean:0:0 */;
  %295 = add(%294, 1e-05f /* ty=float32 span=/model/layers.3/input_layernorm/Constant_1:0:0 */) /* ty=Tensor[(1, 512, 1), float32] span=/model/layers.3/input_layernorm/Add:0:0 */;
  %296 = sqrt(%295) /* ty=Tensor[(1, 512, 1), float32] span=/model/layers.3/input_layernorm/Sqrt:0:0 */;
  %297 = divide(1f /* ty=float32 span=/model/layers.3/input_layernorm/Constant_2:0:0 */, %296) /* ty=Tensor[(1, 512, 1), float32] span=/model/layers.3/input_layernorm/Div:0:0 */;
  %298 = multiply(%292, %297) /* ty=Tensor[(1, 512, 4096), float32] span=/model/layers.3/input_layernorm/Mul:0:0 */;
  %299 = cast(%298, dtype="float32") /* ty=Tensor[(1, 512, 4096), float32] span=/model/layers.3/input_layernorm/Cast_1:0:0 */;
  %300 = multiply(%model.layers.3.input_layernorm.weight, %299) /* ty=Tensor[(1, 512, 4096), float32] span=/model/layers.3/input_layernorm/Mul_1:0:0 */;
  %301 = reshape(%300, newshape=[-1, 4096]) /* ty=Tensor[(512, 4096), float32] span=/model/layers.3/self_attn/q_proj/MatMul:0:0 */;
  %302 = transpose(%onnx::MatMul_8192, axes=None) /* ty=Tensor[(4096, 4096), float32] span=/model/layers.3/self_attn/q_proj/MatMul:0:0 */;
  %303 = nn.dense(%301, %302, units=None, out_dtype="float32") /* ty=Tensor[(512, 4096), float32] span=/model/layers.3/self_attn/q_proj/MatMul:0:0 */;
  %304 = reshape(%303, newshape=[1, 512, 4096]) /* ty=Tensor[(1, 512, 4096), float32] span=/model/layers.3/self_attn/q_proj/MatMul:0:0 */;
  %305 = reshape(%304, newshape=[1, 512, 32, 128]) /* ty=Tensor[(1, 512, 32, 128), float32] span=/model/layers.3/self_attn/Reshape:0:0 */;
  %306 = transpose(%305, axes=[0, 2, 1, 3]) /* ty=Tensor[(1, 32, 512, 128), float32] span=/model/layers.3/self_attn/Transpose:0:0 */;
  %307 = strided_slice(%306, begin=[64i64], end=[9223372036854775807i64], strides=[1i64], axes=[3i64]) /* ty=Tensor[(1, 32, 512, 64), float32] span=/model/layers.3/self_attn/Slice_1:0:0 */;
  %308 = negative(%307) /* ty=Tensor[(1, 32, 512, 64), float32] span=/model/layers.3/self_attn/Neg:0:0 */;
  %309 = strided_slice(%306, begin=[0i64], end=[64i64], strides=[1i64], axes=[3i64]) /* ty=Tensor[(1, 32, 512, 64), float32] span=/model/layers.3/self_attn/Slice:0:0 */;
  %310 = (%308, %309) /* ty=(Tensor[(1, 32, 512, 64), float32], Tensor[(1, 32, 512, 64), float32]) span=/model/layers.3/self_attn/Concat:0:0 */;
  %311 = concatenate(%310, axis=-1) /* ty=Tensor[(1, 32, 512, 128), float32] span=/model/layers.3/self_attn/Concat:0:0 */;
  %312 = multiply(%306, meta[relay.Constant][0] /* ty=Tensor[(1, 1, 512, 128), float32] span=/model/layers.0/self_attn/Unsqueeze:0:0 */) /* ty=Tensor[(1, 32, 512, 128), float32] span=/model/layers.3/self_attn/Mul:0:0 */;
  %313 = multiply(%311, meta[relay.Constant][1] /* ty=Tensor[(1, 1, 512, 128), float32] span=/model/layers.0/self_attn/Unsqueeze_1:0:0 */) /* ty=Tensor[(1, 32, 512, 128), float32] span=/model/layers.3/self_attn/Mul_1:0:0 */;
  %314 = add(%312, %313) /* ty=Tensor[(1, 32, 512, 128), float32] span=/model/layers.3/self_attn/Add:0:0 */;
  %315 = multiply(%314, meta[relay.Constant][11] /* ty=Tensor[(1), float32] span=/model/layers.3/self_attn/Sqrt_1:0:0 */) /* ty=Tensor[(1, 32, 512, 128), float32] span=/model/layers.3/self_attn/Mul_6:0:0 */;
  %316 = reshape(%300, newshape=[-1, 4096]) /* ty=Tensor[(512, 4096), float32] span=/model/layers.3/self_attn/k_proj/MatMul:0:0 */;
  %317 = transpose(%onnx::MatMul_8193, axes=None) /* ty=Tensor[(1024, 4096), float32] span=/model/layers.3/self_attn/k_proj/MatMul:0:0 */;
  %318 = nn.dense(%316, %317, units=None, out_dtype="float32") /* ty=Tensor[(512, 1024), float32] span=/model/layers.3/self_attn/k_proj/MatMul:0:0 */;
  %319 = reshape(%318, newshape=[1, 512, 1024]) /* ty=Tensor[(1, 512, 1024), float32] span=/model/layers.3/self_attn/k_proj/MatMul:0:0 */;
  %320 = reshape(%319, newshape=[1, 512, 8, 128]) /* ty=Tensor[(1, 512, 8, 128), float32] span=/model/layers.3/self_attn/Reshape_1:0:0 */;
  %321 = transpose(%320, axes=[0, 2, 1, 3]) /* ty=Tensor[(1, 8, 512, 128), float32] span=/model/layers.3/self_attn/Transpose_1:0:0 */;
  %322 = strided_slice(%321, begin=[64i64], end=[9223372036854775807i64], strides=[1i64], axes=[3i64]) /* ty=Tensor[(1, 8, 512, 64), float32] span=/model/layers.3/self_attn/Slice_3:0:0 */;
  %323 = negative(%322) /* ty=Tensor[(1, 8, 512, 64), float32] span=/model/layers.3/self_attn/Neg_1:0:0 */;
  %324 = strided_slice(%321, begin=[0i64], end=[64i64], strides=[1i64], axes=[3i64]) /* ty=Tensor[(1, 8, 512, 64), float32] span=/model/layers.3/self_attn/Slice_2:0:0 */;
  %325 = (%323, %324) /* ty=(Tensor[(1, 8, 512, 64), float32], Tensor[(1, 8, 512, 64), float32]) span=/model/layers.3/self_attn/Concat_1:0:0 */;
  %326 = concatenate(%325, axis=-1) /* ty=Tensor[(1, 8, 512, 128), float32] span=/model/layers.3/self_attn/Concat_1:0:0 */;
  %327 = multiply(%321, meta[relay.Constant][0] /* ty=Tensor[(1, 1, 512, 128), float32] span=/model/layers.0/self_attn/Unsqueeze:0:0 */) /* ty=Tensor[(1, 8, 512, 128), float32] span=/model/layers.3/self_attn/Mul_2:0:0 */;
  %328 = multiply(%326, meta[relay.Constant][1] /* ty=Tensor[(1, 1, 512, 128), float32] span=/model/layers.0/self_attn/Unsqueeze_1:0:0 */) /* ty=Tensor[(1, 8, 512, 128), float32] span=/model/layers.3/self_attn/Mul_3:0:0 */;
  %329 = add(%327, %328) /* ty=Tensor[(1, 8, 512, 128), float32] span=/model/layers.3/self_attn/Add_1:0:0 */;
  %330 = expand_dims(%329, axis=2) /* ty=Tensor[(1, 8, 1, 512, 128), float32] span=/model/layers.3/self_attn/Unsqueeze:0:0 */;
  %331 = broadcast_to(%330, shape=[1i64, 8i64, 4i64, 512i64, 128i64]) /* ty=Tensor[(1i64, 8i64, 4i64, 512i64, 128i64), float32] span=/model/layers.3/self_attn/Expand:0:0 */;
  %332 = reshape(%331, newshape=[1, 32, 512, 128]) /* ty=Tensor[(1, 32, 512, 128), float32] span=/model/layers.3/self_attn/Reshape_3:0:0 */;
  %333 = transpose(%332, axes=[0, 1, 3, 2]) /* ty=Tensor[(1, 32, 128, 512), float32] span=/model/layers.3/self_attn/Transpose_3:0:0 */;
  %334 = multiply(%333, meta[relay.Constant][12] /* ty=Tensor[(1), float32] span=/model/layers.3/self_attn/Sqrt_2:0:0 */) /* ty=Tensor[(1, 32, 128, 512), float32] span=/model/layers.3/self_attn/Mul_7:0:0 */;
  %335 = reshape(%334, newshape=[-1, 128, 512]) /* ty=Tensor[(32, 128, 512), float32] span=/model/layers.3/self_attn/MatMul:0:0 */;
  %336 = reshape(%315, newshape=[-1, 512, 128]) /* ty=Tensor[(32, 512, 128), float32] span=/model/layers.3/self_attn/MatMul:0:0 */;
  %337 = transpose(%335, axes=[0, 2, 1]) /* ty=Tensor[(32, 512, 128), float32] span=/model/layers.3/self_attn/MatMul:0:0 */;
  %338 = nn.batch_matmul(%336, %337, out_dtype="float32", transpose_b=True) /* ty=Tensor[(32, 512, 512), float32] span=/model/layers.3/self_attn/MatMul:0:0 */;
  %339 = reshape(%338, newshape=[1, 32, 512, 512]) /* ty=Tensor[(1, 32, 512, 512), float32] span=/model/layers.3/self_attn/MatMul:0:0 */;
  %340 = add(%339, meta[relay.Constant][13] /* ty=Tensor[(1, 1, 512, 512), float32] span=/model/layers.3/self_attn/Slice_4:0:0 */) /* ty=Tensor[(1, 32, 512, 512), float32] span=/model/layers.3/self_attn/Add_2:0:0 */;
  %341 = nn.softmax(%340, axis=3) /* ty=Tensor[(1, 32, 512, 512), float32] span=/model/layers.3/self_attn/Softmax:0:0 */;
  %342 = reshape(%300, newshape=[-1, 4096]) /* ty=Tensor[(512, 4096), float32] span=/model/layers.3/self_attn/v_proj/MatMul:0:0 */;
  %343 = transpose(%onnx::MatMul_8194, axes=None) /* ty=Tensor[(1024, 4096), float32] span=/model/layers.3/self_attn/v_proj/MatMul:0:0 */;
  %344 = nn.dense(%342, %343, units=None, out_dtype="float32") /* ty=Tensor[(512, 1024), float32] span=/model/layers.3/self_attn/v_proj/MatMul:0:0 */;
  %345 = reshape(%344, newshape=[1, 512, 1024]) /* ty=Tensor[(1, 512, 1024), float32] span=/model/layers.3/self_attn/v_proj/MatMul:0:0 */;
  %346 = reshape(%345, newshape=[1, 512, 8, 128]) /* ty=Tensor[(1, 512, 8, 128), float32] span=/model/layers.3/self_attn/Reshape_2:0:0 */;
  %347 = transpose(%346, axes=[0, 2, 1, 3]) /* ty=Tensor[(1, 8, 512, 128), float32] span=/model/layers.3/self_attn/Transpose_2:0:0 */;
  %348 = expand_dims(%347, axis=2) /* ty=Tensor[(1, 8, 1, 512, 128), float32] span=/model/layers.3/self_attn/Unsqueeze_1:0:0 */;
  %349 = broadcast_to(%348, shape=[1i64, 8i64, 4i64, 512i64, 128i64]) /* ty=Tensor[(1i64, 8i64, 4i64, 512i64, 128i64), float32] span=/model/layers.3/self_attn/Expand_1:0:0 */;
  %350 = reshape(%349, newshape=[1, 32, 512, 128]) /* ty=Tensor[(1, 32, 512, 128), float32] span=/model/layers.3/self_attn/Reshape_4:0:0 */;
  %351 = reshape(%350, newshape=[-1, 512, 128]) /* ty=Tensor[(32, 512, 128), float32] span=/model/layers.3/self_attn/MatMul_1:0:0 */;
  %352 = reshape(%341, newshape=[-1, 512, 512]) /* ty=Tensor[(32, 512, 512), float32] span=/model/layers.3/self_attn/MatMul_1:0:0 */;
  %353 = transpose(%351, axes=[0, 2, 1]) /* ty=Tensor[(32, 128, 512), float32] span=/model/layers.3/self_attn/MatMul_1:0:0 */;
  %354 = nn.batch_matmul(%352, %353, out_dtype="float32", transpose_b=True) /* ty=Tensor[(32, 512, 128), float32] span=/model/layers.3/self_attn/MatMul_1:0:0 */;
  %355 = reshape(%354, newshape=[1, 32, 512, 128]) /* ty=Tensor[(1, 32, 512, 128), float32] span=/model/layers.3/self_attn/MatMul_1:0:0 */;
  %356 = transpose(%355, axes=[0, 2, 1, 3]) /* ty=Tensor[(1, 512, 32, 128), float32] span=/model/layers.3/self_attn/Transpose_4:0:0 */;
  %357 = reshape(%356, newshape=[1, 512, -1]) /* ty=Tensor[(1, 512, 4096), float32] span=/model/layers.3/self_attn/Reshape_5:0:0 */;
  %358 = reshape(%357, newshape=[-1, 4096]) /* ty=Tensor[(512, 4096), float32] span=/model/layers.3/self_attn/o_proj/MatMul:0:0 */;
  %359 = transpose(%onnx::MatMul_8260, axes=None) /* ty=Tensor[(4096, 4096), float32] span=/model/layers.3/self_attn/o_proj/MatMul:0:0 */;
  %360 = nn.dense(%358, %359, units=None, out_dtype="float32") /* ty=Tensor[(512, 4096), float32] span=/model/layers.3/self_attn/o_proj/MatMul:0:0 */;
  %361 = reshape(%360, newshape=[1, 512, 4096]) /* ty=Tensor[(1, 512, 4096), float32] span=/model/layers.3/self_attn/o_proj/MatMul:0:0 */;
  %362 = add(%292, %361) /* ty=Tensor[(1, 512, 4096), float32] span=/model/layers.3/Add:0:0 */;
  %363 = cast(%362, dtype="float32") /* ty=Tensor[(1, 512, 4096), float32] span=/model/layers.3/post_attention_layernorm/Cast:0:0 */;
  %364 = power(%363, 2f /* ty=float32 span=/model/layers.3/post_attention_layernorm/Constant:0:0 */) /* ty=Tensor[(1, 512, 4096), float32] span=/model/layers.3/post_attention_layernorm/Pow:0:0 */;
  %365 = mean(%364, axis=[-1], keepdims=True) /* ty=Tensor[(1, 512, 1), float32] span=/model/layers.3/post_attention_layernorm/ReduceMean:0:0 */;
  %366 = add(%365, 1e-05f /* ty=float32 span=/model/layers.3/post_attention_layernorm/Constant_1:0:0 */) /* ty=Tensor[(1, 512, 1), float32] span=/model/layers.3/post_attention_layernorm/Add:0:0 */;
  %367 = sqrt(%366) /* ty=Tensor[(1, 512, 1), float32] span=/model/layers.3/post_attention_layernorm/Sqrt:0:0 */;
  %368 = divide(1f /* ty=float32 span=/model/layers.3/post_attention_layernorm/Constant_2:0:0 */, %367) /* ty=Tensor[(1, 512, 1), float32] span=/model/layers.3/post_attention_layernorm/Div:0:0 */;
  %369 = multiply(%363, %368) /* ty=Tensor[(1, 512, 4096), float32] span=/model/layers.3/post_attention_layernorm/Mul:0:0 */;
  %370 = cast(%369, dtype="float32") /* ty=Tensor[(1, 512, 4096), float32] span=/model/layers.3/post_attention_layernorm/Cast_1:0:0 */;
  %371 = multiply(%model.layers.3.post_attention_layernorm.weight, %370) /* ty=Tensor[(1, 512, 4096), float32] span=/model/layers.3/post_attention_layernorm/Mul_1:0:0 */;
  %372 = reshape(%371, newshape=[-1, 4096]) /* ty=Tensor[(512, 4096), float32] span=/model/layers.3/mlp/gate_proj/MatMul:0:0 */;
  %373 = transpose(%onnx::MatMul_8261, axes=None) /* ty=Tensor[(14336, 4096), float32] span=/model/layers.3/mlp/gate_proj/MatMul:0:0 */;
  %374 = nn.dense(%372, %373, units=None, out_dtype="float32") /* ty=Tensor[(512, 14336), float32] span=/model/layers.3/mlp/gate_proj/MatMul:0:0 */;
  %375 = reshape(%374, newshape=[1, 512, 14336]) /* ty=Tensor[(1, 512, 14336), float32] span=/model/layers.3/mlp/gate_proj/MatMul:0:0 */;
  %376 = sigmoid(%375) /* ty=Tensor[(1, 512, 14336), float32] span=/model/layers.3/mlp/act_fn/Sigmoid:0:0 */;
  %377 = reshape(%371, newshape=[-1, 4096]) /* ty=Tensor[(512, 4096), float32] span=/model/layers.3/mlp/up_proj/MatMul:0:0 */;
  %378 = transpose(%onnx::MatMul_8262, axes=None) /* ty=Tensor[(14336, 4096), float32] span=/model/layers.3/mlp/up_proj/MatMul:0:0 */;
  %379 = nn.dense(%377, %378, units=None, out_dtype="float32") /* ty=Tensor[(512, 14336), float32] span=/model/layers.3/mlp/up_proj/MatMul:0:0 */;
  %380 = multiply(%375, %376) /* ty=Tensor[(1, 512, 14336), float32] span=/model/layers.3/mlp/act_fn/Mul:0:0 */;
  %381 = reshape(%379, newshape=[1, 512, 14336]) /* ty=Tensor[(1, 512, 14336), float32] span=/model/layers.3/mlp/up_proj/MatMul:0:0 */;
  %382 = multiply(%380, %381) /* ty=Tensor[(1, 512, 14336), float32] span=/model/layers.3/mlp/Mul:0:0 */;
  %383 = reshape(%382, newshape=[-1, 14336]) /* ty=Tensor[(512, 14336), float32] span=/model/layers.3/mlp/down_proj/MatMul:0:0 */;
  %384 = transpose(%onnx::MatMul_8263, axes=None) /* ty=Tensor[(4096, 14336), float32] span=/model/layers.3/mlp/down_proj/MatMul:0:0 */;
  %385 = nn.dense(%383, %384, units=None, out_dtype="float32") /* ty=Tensor[(512, 4096), float32] span=/model/layers.3/mlp/down_proj/MatMul:0:0 */;
  %386 = reshape(%385, newshape=[1, 512, 4096]) /* ty=Tensor[(1, 512, 4096), float32] span=/model/layers.3/mlp/down_proj/MatMul:0:0 */;
  %387 = add(%363, %386) /* ty=Tensor[(1, 512, 4096), float32] span=/model/layers.3/Add_1:0:0 */;
  %388 = cast(%387, dtype="float32") /* ty=Tensor[(1, 512, 4096), float32] span=/model/layers.4/input_layernorm/Cast:0:0 */;
  %389 = power(%388, 2f /* ty=float32 span=/model/layers.4/input_layernorm/Constant:0:0 */) /* ty=Tensor[(1, 512, 4096), float32] span=/model/layers.4/input_layernorm/Pow:0:0 */;
  %390 = mean(%389, axis=[-1], keepdims=True) /* ty=Tensor[(1, 512, 1), float32] span=/model/layers.4/input_layernorm/ReduceMean:0:0 */;
  %391 = add(%390, 1e-05f /* ty=float32 span=/model/layers.4/input_layernorm/Constant_1:0:0 */) /* ty=Tensor[(1, 512, 1), float32] span=/model/layers.4/input_layernorm/Add:0:0 */;
  %392 = sqrt(%391) /* ty=Tensor[(1, 512, 1), float32] span=/model/layers.4/input_layernorm/Sqrt:0:0 */;
  %393 = divide(1f /* ty=float32 span=/model/layers.4/input_layernorm/Constant_2:0:0 */, %392) /* ty=Tensor[(1, 512, 1), float32] span=/model/layers.4/input_layernorm/Div:0:0 */;
  %394 = multiply(%388, %393) /* ty=Tensor[(1, 512, 4096), float32] span=/model/layers.4/input_layernorm/Mul:0:0 */;
  %395 = cast(%394, dtype="float32") /* ty=Tensor[(1, 512, 4096), float32] span=/model/layers.4/input_layernorm/Cast_1:0:0 */;
  %396 = multiply(%model.layers.4.input_layernorm.weight, %395) /* ty=Tensor[(1, 512, 4096), float32] span=/model/layers.4/input_layernorm/Mul_1:0:0 */;
  %397 = reshape(%396, newshape=[-1, 4096]) /* ty=Tensor[(512, 4096), float32] span=/model/layers.4/self_attn/q_proj/MatMul:0:0 */;
  %398 = transpose(%onnx::MatMul_8264, axes=None) /* ty=Tensor[(4096, 4096), float32] span=/model/layers.4/self_attn/q_proj/MatMul:0:0 */;
  %399 = nn.dense(%397, %398, units=None, out_dtype="float32") /* ty=Tensor[(512, 4096), float32] span=/model/layers.4/self_attn/q_proj/MatMul:0:0 */;
  %400 = reshape(%399, newshape=[1, 512, 4096]) /* ty=Tensor[(1, 512, 4096), float32] span=/model/layers.4/self_attn/q_proj/MatMul:0:0 */;
  %401 = reshape(%400, newshape=[1, 512, 32, 128]) /* ty=Tensor[(1, 512, 32, 128), float32] span=/model/layers.4/self_attn/Reshape:0:0 */;
  %402 = transpose(%401, axes=[0, 2, 1, 3]) /* ty=Tensor[(1, 32, 512, 128), float32] span=/model/layers.4/self_attn/Transpose:0:0 */;
  %403 = strided_slice(%402, begin=[64i64], end=[9223372036854775807i64], strides=[1i64], axes=[3i64]) /* ty=Tensor[(1, 32, 512, 64), float32] span=/model/layers.4/self_attn/Slice_1:0:0 */;
  %404 = negative(%403) /* ty=Tensor[(1, 32, 512, 64), float32] span=/model/layers.4/self_attn/Neg:0:0 */;
  %405 = strided_slice(%402, begin=[0i64], end=[64i64], strides=[1i64], axes=[3i64]) /* ty=Tensor[(1, 32, 512, 64), float32] span=/model/layers.4/self_attn/Slice:0:0 */;
  %406 = (%404, %405) /* ty=(Tensor[(1, 32, 512, 64), float32], Tensor[(1, 32, 512, 64), float32]) span=/model/layers.4/self_attn/Concat:0:0 */;
  %407 = concatenate(%406, axis=-1) /* ty=Tensor[(1, 32, 512, 128), float32] span=/model/layers.4/self_attn/Concat:0:0 */;
  %408 = multiply(%402, meta[relay.Constant][0] /* ty=Tensor[(1, 1, 512, 128), float32] span=/model/layers.0/self_attn/Unsqueeze:0:0 */) /* ty=Tensor[(1, 32, 512, 128), float32] span=/model/layers.4/self_attn/Mul:0:0 */;
  %409 = multiply(%407, meta[relay.Constant][1] /* ty=Tensor[(1, 1, 512, 128), float32] span=/model/layers.0/self_attn/Unsqueeze_1:0:0 */) /* ty=Tensor[(1, 32, 512, 128), float32] span=/model/layers.4/self_attn/Mul_1:0:0 */;
  %410 = add(%408, %409) /* ty=Tensor[(1, 32, 512, 128), float32] span=/model/layers.4/self_attn/Add:0:0 */;
  %411 = multiply(%410, meta[relay.Constant][14] /* ty=Tensor[(1), float32] span=/model/layers.4/self_attn/Sqrt_1:0:0 */) /* ty=Tensor[(1, 32, 512, 128), float32] span=/model/layers.4/self_attn/Mul_6:0:0 */;
  %412 = reshape(%396, newshape=[-1, 4096]) /* ty=Tensor[(512, 4096), float32] span=/model/layers.4/self_attn/k_proj/MatMul:0:0 */;
  %413 = transpose(%onnx::MatMul_8265, axes=None) /* ty=Tensor[(1024, 4096), float32] span=/model/layers.4/self_attn/k_proj/MatMul:0:0 */;
  %414 = nn.dense(%412, %413, units=None, out_dtype="float32") /* ty=Tensor[(512, 1024), float32] span=/model/layers.4/self_attn/k_proj/MatMul:0:0 */;
  %415 = reshape(%414, newshape=[1, 512, 1024]) /* ty=Tensor[(1, 512, 1024), float32] span=/model/layers.4/self_attn/k_proj/MatMul:0:0 */;
  %416 = reshape(%415, newshape=[1, 512, 8, 128]) /* ty=Tensor[(1, 512, 8, 128), float32] span=/model/layers.4/self_attn/Reshape_1:0:0 */;
  %417 = transpose(%416, axes=[0, 2, 1, 3]) /* ty=Tensor[(1, 8, 512, 128), float32] span=/model/layers.4/self_attn/Transpose_1:0:0 */;
  %418 = strided_slice(%417, begin=[64i64], end=[9223372036854775807i64], strides=[1i64], axes=[3i64]) /* ty=Tensor[(1, 8, 512, 64), float32] span=/model/layers.4/self_attn/Slice_3:0:0 */;
  %419 = negative(%418) /* ty=Tensor[(1, 8, 512, 64), float32] span=/model/layers.4/self_attn/Neg_1:0:0 */;
  %420 = strided_slice(%417, begin=[0i64], end=[64i64], strides=[1i64], axes=[3i64]) /* ty=Tensor[(1, 8, 512, 64), float32] span=/model/layers.4/self_attn/Slice_2:0:0 */;
  %421 = (%419, %420) /* ty=(Tensor[(1, 8, 512, 64), float32], Tensor[(1, 8, 512, 64), float32]) span=/model/layers.4/self_attn/Concat_1:0:0 */;
  %422 = concatenate(%421, axis=-1) /* ty=Tensor[(1, 8, 512, 128), float32] span=/model/layers.4/self_attn/Concat_1:0:0 */;
  %423 = multiply(%417, meta[relay.Constant][0] /* ty=Tensor[(1, 1, 512, 128), float32] span=/model/layers.0/self_attn/Unsqueeze:0:0 */) /* ty=Tensor[(1, 8, 512, 128), float32] span=/model/layers.4/self_attn/Mul_2:0:0 */;
  %424 = multiply(%422, meta[relay.Constant][1] /* ty=Tensor[(1, 1, 512, 128), float32] span=/model/layers.0/self_attn/Unsqueeze_1:0:0 */) /* ty=Tensor[(1, 8, 512, 128), float32] span=/model/layers.4/self_attn/Mul_3:0:0 */;
  %425 = add(%423, %424) /* ty=Tensor[(1, 8, 512, 128), float32] span=/model/layers.4/self_attn/Add_1:0:0 */;
  %426 = expand_dims(%425, axis=2) /* ty=Tensor[(1, 8, 1, 512, 128), float32] span=/model/layers.4/self_attn/Unsqueeze:0:0 */;
  %427 = broadcast_to(%426, shape=[1i64, 8i64, 4i64, 512i64, 128i64]) /* ty=Tensor[(1i64, 8i64, 4i64, 512i64, 128i64), float32] span=/model/layers.4/self_attn/Expand:0:0 */;
  %428 = reshape(%427, newshape=[1, 32, 512, 128]) /* ty=Tensor[(1, 32, 512, 128), float32] span=/model/layers.4/self_attn/Reshape_3:0:0 */;
  %429 = transpose(%428, axes=[0, 1, 3, 2]) /* ty=Tensor[(1, 32, 128, 512), float32] span=/model/layers.4/self_attn/Transpose_3:0:0 */;
  %430 = multiply(%429, meta[relay.Constant][15] /* ty=Tensor[(1), float32] span=/model/layers.4/self_attn/Sqrt_2:0:0 */) /* ty=Tensor[(1, 32, 128, 512), float32] span=/model/layers.4/self_attn/Mul_7:0:0 */;
  %431 = reshape(%430, newshape=[-1, 128, 512]) /* ty=Tensor[(32, 128, 512), float32] span=/model/layers.4/self_attn/MatMul:0:0 */;
  %432 = reshape(%411, newshape=[-1, 512, 128]) /* ty=Tensor[(32, 512, 128), float32] span=/model/layers.4/self_attn/MatMul:0:0 */;
  %433 = transpose(%431, axes=[0, 2, 1]) /* ty=Tensor[(32, 512, 128), float32] span=/model/layers.4/self_attn/MatMul:0:0 */;
  %434 = nn.batch_matmul(%432, %433, out_dtype="float32", transpose_b=True) /* ty=Tensor[(32, 512, 512), float32] span=/model/layers.4/self_attn/MatMul:0:0 */;
  %435 = reshape(%434, newshape=[1, 32, 512, 512]) /* ty=Tensor[(1, 32, 512, 512), float32] span=/model/layers.4/self_attn/MatMul:0:0 */;
  %436 = add(%435, meta[relay.Constant][16] /* ty=Tensor[(1, 1, 512, 512), float32] span=/model/layers.4/self_attn/Slice_4:0:0 */) /* ty=Tensor[(1, 32, 512, 512), float32] span=/model/layers.4/self_attn/Add_2:0:0 */;
  %437 = nn.softmax(%436, axis=3) /* ty=Tensor[(1, 32, 512, 512), float32] span=/model/layers.4/self_attn/Softmax:0:0 */;
  %438 = reshape(%396, newshape=[-1, 4096]) /* ty=Tensor[(512, 4096), float32] span=/model/layers.4/self_attn/v_proj/MatMul:0:0 */;
  %439 = transpose(%onnx::MatMul_8266, axes=None) /* ty=Tensor[(1024, 4096), float32] span=/model/layers.4/self_attn/v_proj/MatMul:0:0 */;
  %440 = nn.dense(%438, %439, units=None, out_dtype="float32") /* ty=Tensor[(512, 1024), float32] span=/model/layers.4/self_attn/v_proj/MatMul:0:0 */;
  %441 = reshape(%440, newshape=[1, 512, 1024]) /* ty=Tensor[(1, 512, 1024), float32] span=/model/layers.4/self_attn/v_proj/MatMul:0:0 */;
  %442 = reshape(%441, newshape=[1, 512, 8, 128]) /* ty=Tensor[(1, 512, 8, 128), float32] span=/model/layers.4/self_attn/Reshape_2:0:0 */;
  %443 = transpose(%442, axes=[0, 2, 1, 3]) /* ty=Tensor[(1, 8, 512, 128), float32] span=/model/layers.4/self_attn/Transpose_2:0:0 */;
  %444 = expand_dims(%443, axis=2) /* ty=Tensor[(1, 8, 1, 512, 128), float32] span=/model/layers.4/self_attn/Unsqueeze_1:0:0 */;
  %445 = broadcast_to(%444, shape=[1i64, 8i64, 4i64, 512i64, 128i64]) /* ty=Tensor[(1i64, 8i64, 4i64, 512i64, 128i64), float32] span=/model/layers.4/self_attn/Expand_1:0:0 */;
  %446 = reshape(%445, newshape=[1, 32, 512, 128]) /* ty=Tensor[(1, 32, 512, 128), float32] span=/model/layers.4/self_attn/Reshape_4:0:0 */;
  %447 = reshape(%446, newshape=[-1, 512, 128]) /* ty=Tensor[(32, 512, 128), float32] span=/model/layers.4/self_attn/MatMul_1:0:0 */;
  %448 = reshape(%437, newshape=[-1, 512, 512]) /* ty=Tensor[(32, 512, 512), float32] span=/model/layers.4/self_attn/MatMul_1:0:0 */;
  %449 = transpose(%447, axes=[0, 2, 1]) /* ty=Tensor[(32, 128, 512), float32] span=/model/layers.4/self_attn/MatMul_1:0:0 */;
  %450 = nn.batch_matmul(%448, %449, out_dtype="float32", transpose_b=True) /* ty=Tensor[(32, 512, 128), float32] span=/model/layers.4/self_attn/MatMul_1:0:0 */;
  %451 = reshape(%450, newshape=[1, 32, 512, 128]) /* ty=Tensor[(1, 32, 512, 128), float32] span=/model/layers.4/self_attn/MatMul_1:0:0 */;
  %452 = transpose(%451, axes=[0, 2, 1, 3]) /* ty=Tensor[(1, 512, 32, 128), float32] span=/model/layers.4/self_attn/Transpose_4:0:0 */;
  %453 = reshape(%452, newshape=[1, 512, -1]) /* ty=Tensor[(1, 512, 4096), float32] span=/model/layers.4/self_attn/Reshape_5:0:0 */;
  %454 = reshape(%453, newshape=[-1, 4096]) /* ty=Tensor[(512, 4096), float32] span=/model/layers.4/self_attn/o_proj/MatMul:0:0 */;
  %455 = transpose(%onnx::MatMul_8332, axes=None) /* ty=Tensor[(4096, 4096), float32] span=/model/layers.4/self_attn/o_proj/MatMul:0:0 */;
  %456 = nn.dense(%454, %455, units=None, out_dtype="float32") /* ty=Tensor[(512, 4096), float32] span=/model/layers.4/self_attn/o_proj/MatMul:0:0 */;
  %457 = reshape(%456, newshape=[1, 512, 4096]) /* ty=Tensor[(1, 512, 4096), float32] span=/model/layers.4/self_attn/o_proj/MatMul:0:0 */;
  %458 = add(%388, %457) /* ty=Tensor[(1, 512, 4096), float32] span=/model/layers.4/Add:0:0 */;
  %459 = cast(%458, dtype="float32") /* ty=Tensor[(1, 512, 4096), float32] span=/model/layers.4/post_attention_layernorm/Cast:0:0 */;
  %460 = power(%459, 2f /* ty=float32 span=/model/layers.4/post_attention_layernorm/Constant:0:0 */) /* ty=Tensor[(1, 512, 4096), float32] span=/model/layers.4/post_attention_layernorm/Pow:0:0 */;
  %461 = mean(%460, axis=[-1], keepdims=True) /* ty=Tensor[(1, 512, 1), float32] span=/model/layers.4/post_attention_layernorm/ReduceMean:0:0 */;
  %462 = add(%461, 1e-05f /* ty=float32 span=/model/layers.4/post_attention_layernorm/Constant_1:0:0 */) /* ty=Tensor[(1, 512, 1), float32] span=/model/layers.4/post_attention_layernorm/Add:0:0 */;
  %463 = sqrt(%462) /* ty=Tensor[(1, 512, 1), float32] span=/model/layers.4/post_attention_layernorm/Sqrt:0:0 */;
  %464 = divide(1f /* ty=float32 span=/model/layers.4/post_attention_layernorm/Constant_2:0:0 */, %463) /* ty=Tensor[(1, 512, 1), float32] span=/model/layers.4/post_attention_layernorm/Div:0:0 */;
  %465 = multiply(%459, %464) /* ty=Tensor[(1, 512, 4096), float32] span=/model/layers.4/post_attention_layernorm/Mul:0:0 */;
  %466 = cast(%465, dtype="float32") /* ty=Tensor[(1, 512, 4096), float32] span=/model/layers.4/post_attention_layernorm/Cast_1:0:0 */;
  %467 = multiply(%model.layers.4.post_attention_layernorm.weight, %466) /* ty=Tensor[(1, 512, 4096), float32] span=/model/layers.4/post_attention_layernorm/Mul_1:0:0 */;
  %468 = reshape(%467, newshape=[-1, 4096]) /* ty=Tensor[(512, 4096), float32] span=/model/layers.4/mlp/gate_proj/MatMul:0:0 */;
  %469 = transpose(%onnx::MatMul_8333, axes=None) /* ty=Tensor[(14336, 4096), float32] span=/model/layers.4/mlp/gate_proj/MatMul:0:0 */;
  %470 = nn.dense(%468, %469, units=None, out_dtype="float32") /* ty=Tensor[(512, 14336), float32] span=/model/layers.4/mlp/gate_proj/MatMul:0:0 */;
  %471 = reshape(%470, newshape=[1, 512, 14336]) /* ty=Tensor[(1, 512, 14336), float32] span=/model/layers.4/mlp/gate_proj/MatMul:0:0 */;
  %472 = sigmoid(%471) /* ty=Tensor[(1, 512, 14336), float32] span=/model/layers.4/mlp/act_fn/Sigmoid:0:0 */;
  %473 = reshape(%467, newshape=[-1, 4096]) /* ty=Tensor[(512, 4096), float32] span=/model/layers.4/mlp/up_proj/MatMul:0:0 */;
  %474 = transpose(%onnx::MatMul_8334, axes=None) /* ty=Tensor[(14336, 4096), float32] span=/model/layers.4/mlp/up_proj/MatMul:0:0 */;
  %475 = nn.dense(%473, %474, units=None, out_dtype="float32") /* ty=Tensor[(512, 14336), float32] span=/model/layers.4/mlp/up_proj/MatMul:0:0 */;
  %476 = multiply(%471, %472) /* ty=Tensor[(1, 512, 14336), float32] span=/model/layers.4/mlp/act_fn/Mul:0:0 */;
  %477 = reshape(%475, newshape=[1, 512, 14336]) /* ty=Tensor[(1, 512, 14336), float32] span=/model/layers.4/mlp/up_proj/MatMul:0:0 */;
  %478 = multiply(%476, %477) /* ty=Tensor[(1, 512, 14336), float32] span=/model/layers.4/mlp/Mul:0:0 */;
  %479 = reshape(%478, newshape=[-1, 14336]) /* ty=Tensor[(512, 14336), float32] span=/model/layers.4/mlp/down_proj/MatMul:0:0 */;
  %480 = transpose(%onnx::MatMul_8335, axes=None) /* ty=Tensor[(4096, 14336), float32] span=/model/layers.4/mlp/down_proj/MatMul:0:0 */;
  %481 = nn.dense(%479, %480, units=None, out_dtype="float32") /* ty=Tensor[(512, 4096), float32] span=/model/layers.4/mlp/down_proj/MatMul:0:0 */;
  %482 = reshape(%481, newshape=[1, 512, 4096]) /* ty=Tensor[(1, 512, 4096), float32] span=/model/layers.4/mlp/down_proj/MatMul:0:0 */;
  %483 = add(%459, %482) /* ty=Tensor[(1, 512, 4096), float32] span=/model/layers.4/Add_1:0:0 */;
  %484 = cast(%483, dtype="float32") /* ty=Tensor[(1, 512, 4096), float32] span=/model/layers.5/input_layernorm/Cast:0:0 */;
  %485 = power(%484, 2f /* ty=float32 span=/model/layers.5/input_layernorm/Constant:0:0 */) /* ty=Tensor[(1, 512, 4096), float32] span=/model/layers.5/input_layernorm/Pow:0:0 */;
  %486 = mean(%485, axis=[-1], keepdims=True) /* ty=Tensor[(1, 512, 1), float32] span=/model/layers.5/input_layernorm/ReduceMean:0:0 */;
  %487 = add(%486, 1e-05f /* ty=float32 span=/model/layers.5/input_layernorm/Constant_1:0:0 */) /* ty=Tensor[(1, 512, 1), float32] span=/model/layers.5/input_layernorm/Add:0:0 */;
  %488 = sqrt(%487) /* ty=Tensor[(1, 512, 1), float32] span=/model/layers.5/input_layernorm/Sqrt:0:0 */;
  %489 = divide(1f /* ty=float32 span=/model/layers.5/input_layernorm/Constant_2:0:0 */, %488) /* ty=Tensor[(1, 512, 1), float32] span=/model/layers.5/input_layernorm/Div:0:0 */;
  %490 = multiply(%484, %489) /* ty=Tensor[(1, 512, 4096), float32] span=/model/layers.5/input_layernorm/Mul:0:0 */;
  %491 = cast(%490, dtype="float32") /* ty=Tensor[(1, 512, 4096), float32] span=/model/layers.5/input_layernorm/Cast_1:0:0 */;
  %492 = multiply(%model.layers.5.input_layernorm.weight, %491) /* ty=Tensor[(1, 512, 4096), float32] span=/model/layers.5/input_layernorm/Mul_1:0:0 */;
  %493 = reshape(%492, newshape=[-1, 4096]) /* ty=Tensor[(512, 4096), float32] span=/model/layers.5/self_attn/q_proj/MatMul:0:0 */;
  %494 = transpose(%onnx::MatMul_8336, axes=None) /* ty=Tensor[(4096, 4096), float32] span=/model/layers.5/self_attn/q_proj/MatMul:0:0 */;
  %495 = nn.dense(%493, %494, units=None, out_dtype="float32") /* ty=Tensor[(512, 4096), float32] span=/model/layers.5/self_attn/q_proj/MatMul:0:0 */;
  %496 = reshape(%495, newshape=[1, 512, 4096]) /* ty=Tensor[(1, 512, 4096), float32] span=/model/layers.5/self_attn/q_proj/MatMul:0:0 */;
  %497 = reshape(%496, newshape=[1, 512, 32, 128]) /* ty=Tensor[(1, 512, 32, 128), float32] span=/model/layers.5/self_attn/Reshape:0:0 */;
  %498 = transpose(%497, axes=[0, 2, 1, 3]) /* ty=Tensor[(1, 32, 512, 128), float32] span=/model/layers.5/self_attn/Transpose:0:0 */;
  %499 = strided_slice(%498, begin=[64i64], end=[9223372036854775807i64], strides=[1i64], axes=[3i64]) /* ty=Tensor[(1, 32, 512, 64), float32] span=/model/layers.5/self_attn/Slice_1:0:0 */;
  %500 = negative(%499) /* ty=Tensor[(1, 32, 512, 64), float32] span=/model/layers.5/self_attn/Neg:0:0 */;
  %501 = strided_slice(%498, begin=[0i64], end=[64i64], strides=[1i64], axes=[3i64]) /* ty=Tensor[(1, 32, 512, 64), float32] span=/model/layers.5/self_attn/Slice:0:0 */;
  %502 = (%500, %501) /* ty=(Tensor[(1, 32, 512, 64), float32], Tensor[(1, 32, 512, 64), float32]) span=/model/layers.5/self_attn/Concat:0:0 */;
  %503 = concatenate(%502, axis=-1) /* ty=Tensor[(1, 32, 512, 128), float32] span=/model/layers.5/self_attn/Concat:0:0 */;
  %504 = multiply(%498, meta[relay.Constant][0] /* ty=Tensor[(1, 1, 512, 128), float32] span=/model/layers.0/self_attn/Unsqueeze:0:0 */) /* ty=Tensor[(1, 32, 512, 128), float32] span=/model/layers.5/self_attn/Mul:0:0 */;
  %505 = multiply(%503, meta[relay.Constant][1] /* ty=Tensor[(1, 1, 512, 128), float32] span=/model/layers.0/self_attn/Unsqueeze_1:0:0 */) /* ty=Tensor[(1, 32, 512, 128), float32] span=/model/layers.5/self_attn/Mul_1:0:0 */;
  %506 = add(%504, %505) /* ty=Tensor[(1, 32, 512, 128), float32] span=/model/layers.5/self_attn/Add:0:0 */;
  %507 = multiply(%506, meta[relay.Constant][17] /* ty=Tensor[(1), float32] span=/model/layers.5/self_attn/Sqrt_1:0:0 */) /* ty=Tensor[(1, 32, 512, 128), float32] span=/model/layers.5/self_attn/Mul_6:0:0 */;
  %508 = reshape(%492, newshape=[-1, 4096]) /* ty=Tensor[(512, 4096), float32] span=/model/layers.5/self_attn/k_proj/MatMul:0:0 */;
  %509 = transpose(%onnx::MatMul_8337, axes=None) /* ty=Tensor[(1024, 4096), float32] span=/model/layers.5/self_attn/k_proj/MatMul:0:0 */;
  %510 = nn.dense(%508, %509, units=None, out_dtype="float32") /* ty=Tensor[(512, 1024), float32] span=/model/layers.5/self_attn/k_proj/MatMul:0:0 */;
  %511 = reshape(%510, newshape=[1, 512, 1024]) /* ty=Tensor[(1, 512, 1024), float32] span=/model/layers.5/self_attn/k_proj/MatMul:0:0 */;
  %512 = reshape(%511, newshape=[1, 512, 8, 128]) /* ty=Tensor[(1, 512, 8, 128), float32] span=/model/layers.5/self_attn/Reshape_1:0:0 */;
  %513 = transpose(%512, axes=[0, 2, 1, 3]) /* ty=Tensor[(1, 8, 512, 128), float32] span=/model/layers.5/self_attn/Transpose_1:0:0 */;
  %514 = strided_slice(%513, begin=[64i64], end=[9223372036854775807i64], strides=[1i64], axes=[3i64]) /* ty=Tensor[(1, 8, 512, 64), float32] span=/model/layers.5/self_attn/Slice_3:0:0 */;
  %515 = negative(%514) /* ty=Tensor[(1, 8, 512, 64), float32] span=/model/layers.5/self_attn/Neg_1:0:0 */;
  %516 = strided_slice(%513, begin=[0i64], end=[64i64], strides=[1i64], axes=[3i64]) /* ty=Tensor[(1, 8, 512, 64), float32] span=/model/layers.5/self_attn/Slice_2:0:0 */;
  %517 = (%515, %516) /* ty=(Tensor[(1, 8, 512, 64), float32], Tensor[(1, 8, 512, 64), float32]) span=/model/layers.5/self_attn/Concat_1:0:0 */;
  %518 = concatenate(%517, axis=-1) /* ty=Tensor[(1, 8, 512, 128), float32] span=/model/layers.5/self_attn/Concat_1:0:0 */;
  %519 = multiply(%513, meta[relay.Constant][0] /* ty=Tensor[(1, 1, 512, 128), float32] span=/model/layers.0/self_attn/Unsqueeze:0:0 */) /* ty=Tensor[(1, 8, 512, 128), float32] span=/model/layers.5/self_attn/Mul_2:0:0 */;
  %520 = multiply(%518, meta[relay.Constant][1] /* ty=Tensor[(1, 1, 512, 128), float32] span=/model/layers.0/self_attn/Unsqueeze_1:0:0 */) /* ty=Tensor[(1, 8, 512, 128), float32] span=/model/layers.5/self_attn/Mul_3:0:0 */;
  %521 = add(%519, %520) /* ty=Tensor[(1, 8, 512, 128), float32] span=/model/layers.5/self_attn/Add_1:0:0 */;
  %522 = expand_dims(%521, axis=2) /* ty=Tensor[(1, 8, 1, 512, 128), float32] span=/model/layers.5/self_attn/Unsqueeze:0:0 */;
  %523 = broadcast_to(%522, shape=[1i64, 8i64, 4i64, 512i64, 128i64]) /* ty=Tensor[(1i64, 8i64, 4i64, 512i64, 128i64), float32] span=/model/layers.5/self_attn/Expand:0:0 */;
  %524 = reshape(%523, newshape=[1, 32, 512, 128]) /* ty=Tensor[(1, 32, 512, 128), float32] span=/model/layers.5/self_attn/Reshape_3:0:0 */;
  %525 = transpose(%524, axes=[0, 1, 3, 2]) /* ty=Tensor[(1, 32, 128, 512), float32] span=/model/layers.5/self_attn/Transpose_3:0:0 */;
  %526 = multiply(%525, meta[relay.Constant][18] /* ty=Tensor[(1), float32] span=/model/layers.5/self_attn/Sqrt_2:0:0 */) /* ty=Tensor[(1, 32, 128, 512), float32] span=/model/layers.5/self_attn/Mul_7:0:0 */;
  %527 = reshape(%526, newshape=[-1, 128, 512]) /* ty=Tensor[(32, 128, 512), float32] span=/model/layers.5/self_attn/MatMul:0:0 */;
  %528 = reshape(%507, newshape=[-1, 512, 128]) /* ty=Tensor[(32, 512, 128), float32] span=/model/layers.5/self_attn/MatMul:0:0 */;
  %529 = transpose(%527, axes=[0, 2, 1]) /* ty=Tensor[(32, 512, 128), float32] span=/model/layers.5/self_attn/MatMul:0:0 */;
  %530 = nn.batch_matmul(%528, %529, out_dtype="float32", transpose_b=True) /* ty=Tensor[(32, 512, 512), float32] span=/model/layers.5/self_attn/MatMul:0:0 */;
  %531 = reshape(%530, newshape=[1, 32, 512, 512]) /* ty=Tensor[(1, 32, 512, 512), float32] span=/model/layers.5/self_attn/MatMul:0:0 */;
  %532 = add(%531, meta[relay.Constant][19] /* ty=Tensor[(1, 1, 512, 512), float32] span=/model/layers.5/self_attn/Slice_4:0:0 */) /* ty=Tensor[(1, 32, 512, 512), float32] span=/model/layers.5/self_attn/Add_2:0:0 */;
  %533 = nn.softmax(%532, axis=3) /* ty=Tensor[(1, 32, 512, 512), float32] span=/model/layers.5/self_attn/Softmax:0:0 */;
  %534 = reshape(%492, newshape=[-1, 4096]) /* ty=Tensor[(512, 4096), float32] span=/model/layers.5/self_attn/v_proj/MatMul:0:0 */;
  %535 = transpose(%onnx::MatMul_8338, axes=None) /* ty=Tensor[(1024, 4096), float32] span=/model/layers.5/self_attn/v_proj/MatMul:0:0 */;
  %536 = nn.dense(%534, %535, units=None, out_dtype="float32") /* ty=Tensor[(512, 1024), float32] span=/model/layers.5/self_attn/v_proj/MatMul:0:0 */;
  %537 = reshape(%536, newshape=[1, 512, 1024]) /* ty=Tensor[(1, 512, 1024), float32] span=/model/layers.5/self_attn/v_proj/MatMul:0:0 */;
  %538 = reshape(%537, newshape=[1, 512, 8, 128]) /* ty=Tensor[(1, 512, 8, 128), float32] span=/model/layers.5/self_attn/Reshape_2:0:0 */;
  %539 = transpose(%538, axes=[0, 2, 1, 3]) /* ty=Tensor[(1, 8, 512, 128), float32] span=/model/layers.5/self_attn/Transpose_2:0:0 */;
  %540 = expand_dims(%539, axis=2) /* ty=Tensor[(1, 8, 1, 512, 128), float32] span=/model/layers.5/self_attn/Unsqueeze_1:0:0 */;
  %541 = broadcast_to(%540, shape=[1i64, 8i64, 4i64, 512i64, 128i64]) /* ty=Tensor[(1i64, 8i64, 4i64, 512i64, 128i64), float32] span=/model/layers.5/self_attn/Expand_1:0:0 */;
  %542 = reshape(%541, newshape=[1, 32, 512, 128]) /* ty=Tensor[(1, 32, 512, 128), float32] span=/model/layers.5/self_attn/Reshape_4:0:0 */;
  %543 = reshape(%542, newshape=[-1, 512, 128]) /* ty=Tensor[(32, 512, 128), float32] span=/model/layers.5/self_attn/MatMul_1:0:0 */;
  %544 = reshape(%533, newshape=[-1, 512, 512]) /* ty=Tensor[(32, 512, 512), float32] span=/model/layers.5/self_attn/MatMul_1:0:0 */;
  %545 = transpose(%543, axes=[0, 2, 1]) /* ty=Tensor[(32, 128, 512), float32] span=/model/layers.5/self_attn/MatMul_1:0:0 */;
  %546 = nn.batch_matmul(%544, %545, out_dtype="float32", transpose_b=True) /* ty=Tensor[(32, 512, 128), float32] span=/model/layers.5/self_attn/MatMul_1:0:0 */;
  %547 = reshape(%546, newshape=[1, 32, 512, 128]) /* ty=Tensor[(1, 32, 512, 128), float32] span=/model/layers.5/self_attn/MatMul_1:0:0 */;
  %548 = transpose(%547, axes=[0, 2, 1, 3]) /* ty=Tensor[(1, 512, 32, 128), float32] span=/model/layers.5/self_attn/Transpose_4:0:0 */;
  %549 = reshape(%548, newshape=[1, 512, -1]) /* ty=Tensor[(1, 512, 4096), float32] span=/model/layers.5/self_attn/Reshape_5:0:0 */;
  %550 = reshape(%549, newshape=[-1, 4096]) /* ty=Tensor[(512, 4096), float32] span=/model/layers.5/self_attn/o_proj/MatMul:0:0 */;
  %551 = transpose(%onnx::MatMul_8404, axes=None) /* ty=Tensor[(4096, 4096), float32] span=/model/layers.5/self_attn/o_proj/MatMul:0:0 */;
  %552 = nn.dense(%550, %551, units=None, out_dtype="float32") /* ty=Tensor[(512, 4096), float32] span=/model/layers.5/self_attn/o_proj/MatMul:0:0 */;
  %553 = reshape(%552, newshape=[1, 512, 4096]) /* ty=Tensor[(1, 512, 4096), float32] span=/model/layers.5/self_attn/o_proj/MatMul:0:0 */;
  %554 = add(%484, %553) /* ty=Tensor[(1, 512, 4096), float32] span=/model/layers.5/Add:0:0 */;
  %555 = cast(%554, dtype="float32") /* ty=Tensor[(1, 512, 4096), float32] span=/model/layers.5/post_attention_layernorm/Cast:0:0 */;
  %556 = power(%555, 2f /* ty=float32 span=/model/layers.5/post_attention_layernorm/Constant:0:0 */) /* ty=Tensor[(1, 512, 4096), float32] span=/model/layers.5/post_attention_layernorm/Pow:0:0 */;
  %557 = mean(%556, axis=[-1], keepdims=True) /* ty=Tensor[(1, 512, 1), float32] span=/model/layers.5/post_attention_layernorm/ReduceMean:0:0 */;
  %558 = add(%557, 1e-05f /* ty=float32 span=/model/layers.5/post_attention_layernorm/Constant_1:0:0 */) /* ty=Tensor[(1, 512, 1), float32] span=/model/layers.5/post_attention_layernorm/Add:0:0 */;
  %559 = sqrt(%558) /* ty=Tensor[(1, 512, 1), float32] span=/model/layers.5/post_attention_layernorm/Sqrt:0:0 */;
  %560 = divide(1f /* ty=float32 span=/model/layers.5/post_attention_layernorm/Constant_2:0:0 */, %559) /* ty=Tensor[(1, 512, 1), float32] span=/model/layers.5/post_attention_layernorm/Div:0:0 */;
  %561 = multiply(%555, %560) /* ty=Tensor[(1, 512, 4096), float32] span=/model/layers.5/post_attention_layernorm/Mul:0:0 */;
  %562 = cast(%561, dtype="float32") /* ty=Tensor[(1, 512, 4096), float32] span=/model/layers.5/post_attention_layernorm/Cast_1:0:0 */;
  %563 = multiply(%model.layers.5.post_attention_layernorm.weight, %562) /* ty=Tensor[(1, 512, 4096), float32] span=/model/layers.5/post_attention_layernorm/Mul_1:0:0 */;
  %564 = reshape(%563, newshape=[-1, 4096]) /* ty=Tensor[(512, 4096), float32] span=/model/layers.5/mlp/gate_proj/MatMul:0:0 */;
  %565 = transpose(%onnx::MatMul_8405, axes=None) /* ty=Tensor[(14336, 4096), float32] span=/model/layers.5/mlp/gate_proj/MatMul:0:0 */;
  %566 = nn.dense(%564, %565, units=None, out_dtype="float32") /* ty=Tensor[(512, 14336), float32] span=/model/layers.5/mlp/gate_proj/MatMul:0:0 */;
  %567 = reshape(%566, newshape=[1, 512, 14336]) /* ty=Tensor[(1, 512, 14336), float32] span=/model/layers.5/mlp/gate_proj/MatMul:0:0 */;
  %568 = sigmoid(%567) /* ty=Tensor[(1, 512, 14336), float32] span=/model/layers.5/mlp/act_fn/Sigmoid:0:0 */;
  %569 = reshape(%563, newshape=[-1, 4096]) /* ty=Tensor[(512, 4096), float32] span=/model/layers.5/mlp/up_proj/MatMul:0:0 */;
  %570 = transpose(%onnx::MatMul_8406, axes=None) /* ty=Tensor[(14336, 4096), float32] span=/model/layers.5/mlp/up_proj/MatMul:0:0 */;
  %571 = nn.dense(%569, %570, units=None, out_dtype="float32") /* ty=Tensor[(512, 14336), float32] span=/model/layers.5/mlp/up_proj/MatMul:0:0 */;
  %572 = multiply(%567, %568) /* ty=Tensor[(1, 512, 14336), float32] span=/model/layers.5/mlp/act_fn/Mul:0:0 */;
  %573 = reshape(%571, newshape=[1, 512, 14336]) /* ty=Tensor[(1, 512, 14336), float32] span=/model/layers.5/mlp/up_proj/MatMul:0:0 */;
  %574 = multiply(%572, %573) /* ty=Tensor[(1, 512, 14336), float32] span=/model/layers.5/mlp/Mul:0:0 */;
  %575 = reshape(%574, newshape=[-1, 14336]) /* ty=Tensor[(512, 14336), float32] span=/model/layers.5/mlp/down_proj/MatMul:0:0 */;
  %576 = transpose(%onnx::MatMul_8407, axes=None) /* ty=Tensor[(4096, 14336), float32] span=/model/layers.5/mlp/down_proj/MatMul:0:0 */;
  %577 = nn.dense(%575, %576, units=None, out_dtype="float32") /* ty=Tensor[(512, 4096), float32] span=/model/layers.5/mlp/down_proj/MatMul:0:0 */;
  %578 = reshape(%577, newshape=[1, 512, 4096]) /* ty=Tensor[(1, 512, 4096), float32] span=/model/layers.5/mlp/down_proj/MatMul:0:0 */;
  %579 = add(%555, %578) /* ty=Tensor[(1, 512, 4096), float32] span=/model/layers.5/Add_1:0:0 */;
  %580 = cast(%579, dtype="float32") /* ty=Tensor[(1, 512, 4096), float32] span=/model/layers.6/input_layernorm/Cast:0:0 */;
  %581 = power(%580, 2f /* ty=float32 span=/model/layers.6/input_layernorm/Constant:0:0 */) /* ty=Tensor[(1, 512, 4096), float32] span=/model/layers.6/input_layernorm/Pow:0:0 */;
  %582 = mean(%581, axis=[-1], keepdims=True) /* ty=Tensor[(1, 512, 1), float32] span=/model/layers.6/input_layernorm/ReduceMean:0:0 */;
  %583 = add(%582, 1e-05f /* ty=float32 span=/model/layers.6/input_layernorm/Constant_1:0:0 */) /* ty=Tensor[(1, 512, 1), float32] span=/model/layers.6/input_layernorm/Add:0:0 */;
  %584 = sqrt(%583) /* ty=Tensor[(1, 512, 1), float32] span=/model/layers.6/input_layernorm/Sqrt:0:0 */;
  %585 = divide(1f /* ty=float32 span=/model/layers.6/input_layernorm/Constant_2:0:0 */, %584) /* ty=Tensor[(1, 512, 1), float32] span=/model/layers.6/input_layernorm/Div:0:0 */;
  %586 = multiply(%580, %585) /* ty=Tensor[(1, 512, 4096), float32] span=/model/layers.6/input_layernorm/Mul:0:0 */;
  %587 = cast(%586, dtype="float32") /* ty=Tensor[(1, 512, 4096), float32] span=/model/layers.6/input_layernorm/Cast_1:0:0 */;
  %588 = multiply(%model.layers.6.input_layernorm.weight, %587) /* ty=Tensor[(1, 512, 4096), float32] span=/model/layers.6/input_layernorm/Mul_1:0:0 */;
  %589 = reshape(%588, newshape=[-1, 4096]) /* ty=Tensor[(512, 4096), float32] span=/model/layers.6/self_attn/q_proj/MatMul:0:0 */;
  %590 = transpose(%onnx::MatMul_8408, axes=None) /* ty=Tensor[(4096, 4096), float32] span=/model/layers.6/self_attn/q_proj/MatMul:0:0 */;
  %591 = nn.dense(%589, %590, units=None, out_dtype="float32") /* ty=Tensor[(512, 4096), float32] span=/model/layers.6/self_attn/q_proj/MatMul:0:0 */;
  %592 = reshape(%591, newshape=[1, 512, 4096]) /* ty=Tensor[(1, 512, 4096), float32] span=/model/layers.6/self_attn/q_proj/MatMul:0:0 */;
  %593 = reshape(%592, newshape=[1, 512, 32, 128]) /* ty=Tensor[(1, 512, 32, 128), float32] span=/model/layers.6/self_attn/Reshape:0:0 */;
  %594 = transpose(%593, axes=[0, 2, 1, 3]) /* ty=Tensor[(1, 32, 512, 128), float32] span=/model/layers.6/self_attn/Transpose:0:0 */;
  %595 = strided_slice(%594, begin=[64i64], end=[9223372036854775807i64], strides=[1i64], axes=[3i64]) /* ty=Tensor[(1, 32, 512, 64), float32] span=/model/layers.6/self_attn/Slice_1:0:0 */;
  %596 = negative(%595) /* ty=Tensor[(1, 32, 512, 64), float32] span=/model/layers.6/self_attn/Neg:0:0 */;
  %597 = strided_slice(%594, begin=[0i64], end=[64i64], strides=[1i64], axes=[3i64]) /* ty=Tensor[(1, 32, 512, 64), float32] span=/model/layers.6/self_attn/Slice:0:0 */;
  %598 = (%596, %597) /* ty=(Tensor[(1, 32, 512, 64), float32], Tensor[(1, 32, 512, 64), float32]) span=/model/layers.6/self_attn/Concat:0:0 */;
  %599 = concatenate(%598, axis=-1) /* ty=Tensor[(1, 32, 512, 128), float32] span=/model/layers.6/self_attn/Concat:0:0 */;
  %600 = multiply(%594, meta[relay.Constant][0] /* ty=Tensor[(1, 1, 512, 128), float32] span=/model/layers.0/self_attn/Unsqueeze:0:0 */) /* ty=Tensor[(1, 32, 512, 128), float32] span=/model/layers.6/self_attn/Mul:0:0 */;
  %601 = multiply(%599, meta[relay.Constant][1] /* ty=Tensor[(1, 1, 512, 128), float32] span=/model/layers.0/self_attn/Unsqueeze_1:0:0 */) /* ty=Tensor[(1, 32, 512, 128), float32] span=/model/layers.6/self_attn/Mul_1:0:0 */;
  %602 = add(%600, %601) /* ty=Tensor[(1, 32, 512, 128), float32] span=/model/layers.6/self_attn/Add:0:0 */;
  %603 = multiply(%602, meta[relay.Constant][20] /* ty=Tensor[(1), float32] span=/model/layers.6/self_attn/Sqrt_1:0:0 */) /* ty=Tensor[(1, 32, 512, 128), float32] span=/model/layers.6/self_attn/Mul_6:0:0 */;
  %604 = reshape(%588, newshape=[-1, 4096]) /* ty=Tensor[(512, 4096), float32] span=/model/layers.6/self_attn/k_proj/MatMul:0:0 */;
  %605 = transpose(%onnx::MatMul_8409, axes=None) /* ty=Tensor[(1024, 4096), float32] span=/model/layers.6/self_attn/k_proj/MatMul:0:0 */;
  %606 = nn.dense(%604, %605, units=None, out_dtype="float32") /* ty=Tensor[(512, 1024), float32] span=/model/layers.6/self_attn/k_proj/MatMul:0:0 */;
  %607 = reshape(%606, newshape=[1, 512, 1024]) /* ty=Tensor[(1, 512, 1024), float32] span=/model/layers.6/self_attn/k_proj/MatMul:0:0 */;
  %608 = reshape(%607, newshape=[1, 512, 8, 128]) /* ty=Tensor[(1, 512, 8, 128), float32] span=/model/layers.6/self_attn/Reshape_1:0:0 */;
  %609 = transpose(%608, axes=[0, 2, 1, 3]) /* ty=Tensor[(1, 8, 512, 128), float32] span=/model/layers.6/self_attn/Transpose_1:0:0 */;
  %610 = strided_slice(%609, begin=[64i64], end=[9223372036854775807i64], strides=[1i64], axes=[3i64]) /* ty=Tensor[(1, 8, 512, 64), float32] span=/model/layers.6/self_attn/Slice_3:0:0 */;
  %611 = negative(%610) /* ty=Tensor[(1, 8, 512, 64), float32] span=/model/layers.6/self_attn/Neg_1:0:0 */;
  %612 = strided_slice(%609, begin=[0i64], end=[64i64], strides=[1i64], axes=[3i64]) /* ty=Tensor[(1, 8, 512, 64), float32] span=/model/layers.6/self_attn/Slice_2:0:0 */;
  %613 = (%611, %612) /* ty=(Tensor[(1, 8, 512, 64), float32], Tensor[(1, 8, 512, 64), float32]) span=/model/layers.6/self_attn/Concat_1:0:0 */;
  %614 = concatenate(%613, axis=-1) /* ty=Tensor[(1, 8, 512, 128), float32] span=/model/layers.6/self_attn/Concat_1:0:0 */;
  %615 = multiply(%609, meta[relay.Constant][0] /* ty=Tensor[(1, 1, 512, 128), float32] span=/model/layers.0/self_attn/Unsqueeze:0:0 */) /* ty=Tensor[(1, 8, 512, 128), float32] span=/model/layers.6/self_attn/Mul_2:0:0 */;
  %616 = multiply(%614, meta[relay.Constant][1] /* ty=Tensor[(1, 1, 512, 128), float32] span=/model/layers.0/self_attn/Unsqueeze_1:0:0 */) /* ty=Tensor[(1, 8, 512, 128), float32] span=/model/layers.6/self_attn/Mul_3:0:0 */;
  %617 = add(%615, %616) /* ty=Tensor[(1, 8, 512, 128), float32] span=/model/layers.6/self_attn/Add_1:0:0 */;
  %618 = expand_dims(%617, axis=2) /* ty=Tensor[(1, 8, 1, 512, 128), float32] span=/model/layers.6/self_attn/Unsqueeze:0:0 */;
  %619 = broadcast_to(%618, shape=[1i64, 8i64, 4i64, 512i64, 128i64]) /* ty=Tensor[(1i64, 8i64, 4i64, 512i64, 128i64), float32] span=/model/layers.6/self_attn/Expand:0:0 */;
  %620 = reshape(%619, newshape=[1, 32, 512, 128]) /* ty=Tensor[(1, 32, 512, 128), float32] span=/model/layers.6/self_attn/Reshape_3:0:0 */;
  %621 = transpose(%620, axes=[0, 1, 3, 2]) /* ty=Tensor[(1, 32, 128, 512), float32] span=/model/layers.6/self_attn/Transpose_3:0:0 */;
  %622 = multiply(%621, meta[relay.Constant][21] /* ty=Tensor[(1), float32] span=/model/layers.6/self_attn/Sqrt_2:0:0 */) /* ty=Tensor[(1, 32, 128, 512), float32] span=/model/layers.6/self_attn/Mul_7:0:0 */;
  %623 = reshape(%622, newshape=[-1, 128, 512]) /* ty=Tensor[(32, 128, 512), float32] span=/model/layers.6/self_attn/MatMul:0:0 */;
  %624 = reshape(%603, newshape=[-1, 512, 128]) /* ty=Tensor[(32, 512, 128), float32] span=/model/layers.6/self_attn/MatMul:0:0 */;
  %625 = transpose(%623, axes=[0, 2, 1]) /* ty=Tensor[(32, 512, 128), float32] span=/model/layers.6/self_attn/MatMul:0:0 */;
  %626 = nn.batch_matmul(%624, %625, out_dtype="float32", transpose_b=True) /* ty=Tensor[(32, 512, 512), float32] span=/model/layers.6/self_attn/MatMul:0:0 */;
  %627 = reshape(%626, newshape=[1, 32, 512, 512]) /* ty=Tensor[(1, 32, 512, 512), float32] span=/model/layers.6/self_attn/MatMul:0:0 */;
  %628 = add(%627, meta[relay.Constant][22] /* ty=Tensor[(1, 1, 512, 512), float32] span=/model/layers.6/self_attn/Slice_4:0:0 */) /* ty=Tensor[(1, 32, 512, 512), float32] span=/model/layers.6/self_attn/Add_2:0:0 */;
  %629 = nn.softmax(%628, axis=3) /* ty=Tensor[(1, 32, 512, 512), float32] span=/model/layers.6/self_attn/Softmax:0:0 */;
  %630 = reshape(%588, newshape=[-1, 4096]) /* ty=Tensor[(512, 4096), float32] span=/model/layers.6/self_attn/v_proj/MatMul:0:0 */;
  %631 = transpose(%onnx::MatMul_8410, axes=None) /* ty=Tensor[(1024, 4096), float32] span=/model/layers.6/self_attn/v_proj/MatMul:0:0 */;
  %632 = nn.dense(%630, %631, units=None, out_dtype="float32") /* ty=Tensor[(512, 1024), float32] span=/model/layers.6/self_attn/v_proj/MatMul:0:0 */;
  %633 = reshape(%632, newshape=[1, 512, 1024]) /* ty=Tensor[(1, 512, 1024), float32] span=/model/layers.6/self_attn/v_proj/MatMul:0:0 */;
  %634 = reshape(%633, newshape=[1, 512, 8, 128]) /* ty=Tensor[(1, 512, 8, 128), float32] span=/model/layers.6/self_attn/Reshape_2:0:0 */;
  %635 = transpose(%634, axes=[0, 2, 1, 3]) /* ty=Tensor[(1, 8, 512, 128), float32] span=/model/layers.6/self_attn/Transpose_2:0:0 */;
  %636 = expand_dims(%635, axis=2) /* ty=Tensor[(1, 8, 1, 512, 128), float32] span=/model/layers.6/self_attn/Unsqueeze_1:0:0 */;
  %637 = broadcast_to(%636, shape=[1i64, 8i64, 4i64, 512i64, 128i64]) /* ty=Tensor[(1i64, 8i64, 4i64, 512i64, 128i64), float32] span=/model/layers.6/self_attn/Expand_1:0:0 */;
  %638 = reshape(%637, newshape=[1, 32, 512, 128]) /* ty=Tensor[(1, 32, 512, 128), float32] span=/model/layers.6/self_attn/Reshape_4:0:0 */;
  %639 = reshape(%638, newshape=[-1, 512, 128]) /* ty=Tensor[(32, 512, 128), float32] span=/model/layers.6/self_attn/MatMul_1:0:0 */;
  %640 = reshape(%629, newshape=[-1, 512, 512]) /* ty=Tensor[(32, 512, 512), float32] span=/model/layers.6/self_attn/MatMul_1:0:0 */;
  %641 = transpose(%639, axes=[0, 2, 1]) /* ty=Tensor[(32, 128, 512), float32] span=/model/layers.6/self_attn/MatMul_1:0:0 */;
  %642 = nn.batch_matmul(%640, %641, out_dtype="float32", transpose_b=True) /* ty=Tensor[(32, 512, 128), float32] span=/model/layers.6/self_attn/MatMul_1:0:0 */;
  %643 = reshape(%642, newshape=[1, 32, 512, 128]) /* ty=Tensor[(1, 32, 512, 128), float32] span=/model/layers.6/self_attn/MatMul_1:0:0 */;
  %644 = transpose(%643, axes=[0, 2, 1, 3]) /* ty=Tensor[(1, 512, 32, 128), float32] span=/model/layers.6/self_attn/Transpose_4:0:0 */;
  %645 = reshape(%644, newshape=[1, 512, -1]) /* ty=Tensor[(1, 512, 4096), float32] span=/model/layers.6/self_attn/Reshape_5:0:0 */;
  %646 = reshape(%645, newshape=[-1, 4096]) /* ty=Tensor[(512, 4096), float32] span=/model/layers.6/self_attn/o_proj/MatMul:0:0 */;
  %647 = transpose(%onnx::MatMul_8476, axes=None) /* ty=Tensor[(4096, 4096), float32] span=/model/layers.6/self_attn/o_proj/MatMul:0:0 */;
  %648 = nn.dense(%646, %647, units=None, out_dtype="float32") /* ty=Tensor[(512, 4096), float32] span=/model/layers.6/self_attn/o_proj/MatMul:0:0 */;
  %649 = reshape(%648, newshape=[1, 512, 4096]) /* ty=Tensor[(1, 512, 4096), float32] span=/model/layers.6/self_attn/o_proj/MatMul:0:0 */;
  %650 = add(%580, %649) /* ty=Tensor[(1, 512, 4096), float32] span=/model/layers.6/Add:0:0 */;
  %651 = cast(%650, dtype="float32") /* ty=Tensor[(1, 512, 4096), float32] span=/model/layers.6/post_attention_layernorm/Cast:0:0 */;
  %652 = power(%651, 2f /* ty=float32 span=/model/layers.6/post_attention_layernorm/Constant:0:0 */) /* ty=Tensor[(1, 512, 4096), float32] span=/model/layers.6/post_attention_layernorm/Pow:0:0 */;
  %653 = mean(%652, axis=[-1], keepdims=True) /* ty=Tensor[(1, 512, 1), float32] span=/model/layers.6/post_attention_layernorm/ReduceMean:0:0 */;
  %654 = add(%653, 1e-05f /* ty=float32 span=/model/layers.6/post_attention_layernorm/Constant_1:0:0 */) /* ty=Tensor[(1, 512, 1), float32] span=/model/layers.6/post_attention_layernorm/Add:0:0 */;
  %655 = sqrt(%654) /* ty=Tensor[(1, 512, 1), float32] span=/model/layers.6/post_attention_layernorm/Sqrt:0:0 */;
  %656 = divide(1f /* ty=float32 span=/model/layers.6/post_attention_layernorm/Constant_2:0:0 */, %655) /* ty=Tensor[(1, 512, 1), float32] span=/model/layers.6/post_attention_layernorm/Div:0:0 */;
  %657 = multiply(%651, %656) /* ty=Tensor[(1, 512, 4096), float32] span=/model/layers.6/post_attention_layernorm/Mul:0:0 */;
  %658 = cast(%657, dtype="float32") /* ty=Tensor[(1, 512, 4096), float32] span=/model/layers.6/post_attention_layernorm/Cast_1:0:0 */;
  %659 = multiply(%model.layers.6.post_attention_layernorm.weight, %658) /* ty=Tensor[(1, 512, 4096), float32] span=/model/layers.6/post_attention_layernorm/Mul_1:0:0 */;
  %660 = reshape(%659, newshape=[-1, 4096]) /* ty=Tensor[(512, 4096), float32] span=/model/layers.6/mlp/gate_proj/MatMul:0:0 */;
  %661 = transpose(%onnx::MatMul_8477, axes=None) /* ty=Tensor[(14336, 4096), float32] span=/model/layers.6/mlp/gate_proj/MatMul:0:0 */;
  %662 = nn.dense(%660, %661, units=None, out_dtype="float32") /* ty=Tensor[(512, 14336), float32] span=/model/layers.6/mlp/gate_proj/MatMul:0:0 */;
  %663 = reshape(%662, newshape=[1, 512, 14336]) /* ty=Tensor[(1, 512, 14336), float32] span=/model/layers.6/mlp/gate_proj/MatMul:0:0 */;
  %664 = sigmoid(%663) /* ty=Tensor[(1, 512, 14336), float32] span=/model/layers.6/mlp/act_fn/Sigmoid:0:0 */;
  %665 = reshape(%659, newshape=[-1, 4096]) /* ty=Tensor[(512, 4096), float32] span=/model/layers.6/mlp/up_proj/MatMul:0:0 */;
  %666 = transpose(%onnx::MatMul_8478, axes=None) /* ty=Tensor[(14336, 4096), float32] span=/model/layers.6/mlp/up_proj/MatMul:0:0 */;
  %667 = nn.dense(%665, %666, units=None, out_dtype="float32") /* ty=Tensor[(512, 14336), float32] span=/model/layers.6/mlp/up_proj/MatMul:0:0 */;
  %668 = multiply(%663, %664) /* ty=Tensor[(1, 512, 14336), float32] span=/model/layers.6/mlp/act_fn/Mul:0:0 */;
  %669 = reshape(%667, newshape=[1, 512, 14336]) /* ty=Tensor[(1, 512, 14336), float32] span=/model/layers.6/mlp/up_proj/MatMul:0:0 */;
  %670 = multiply(%668, %669) /* ty=Tensor[(1, 512, 14336), float32] span=/model/layers.6/mlp/Mul:0:0 */;
  %671 = reshape(%670, newshape=[-1, 14336]) /* ty=Tensor[(512, 14336), float32] span=/model/layers.6/mlp/down_proj/MatMul:0:0 */;
  %672 = transpose(%onnx::MatMul_8479, axes=None) /* ty=Tensor[(4096, 14336), float32] span=/model/layers.6/mlp/down_proj/MatMul:0:0 */;
  %673 = nn.dense(%671, %672, units=None, out_dtype="float32") /* ty=Tensor[(512, 4096), float32] span=/model/layers.6/mlp/down_proj/MatMul:0:0 */;
  %674 = reshape(%673, newshape=[1, 512, 4096]) /* ty=Tensor[(1, 512, 4096), float32] span=/model/layers.6/mlp/down_proj/MatMul:0:0 */;
  %675 = add(%651, %674) /* ty=Tensor[(1, 512, 4096), float32] span=/model/layers.6/Add_1:0:0 */;
  %676 = cast(%675, dtype="float32") /* ty=Tensor[(1, 512, 4096), float32] span=/model/layers.7/input_layernorm/Cast:0:0 */;
  %677 = power(%676, 2f /* ty=float32 span=/model/layers.7/input_layernorm/Constant:0:0 */) /* ty=Tensor[(1, 512, 4096), float32] span=/model/layers.7/input_layernorm/Pow:0:0 */;
  %678 = mean(%677, axis=[-1], keepdims=True) /* ty=Tensor[(1, 512, 1), float32] span=/model/layers.7/input_layernorm/ReduceMean:0:0 */;
  %679 = add(%678, 1e-05f /* ty=float32 span=/model/layers.7/input_layernorm/Constant_1:0:0 */) /* ty=Tensor[(1, 512, 1), float32] span=/model/layers.7/input_layernorm/Add:0:0 */;
  %680 = sqrt(%679) /* ty=Tensor[(1, 512, 1), float32] span=/model/layers.7/input_layernorm/Sqrt:0:0 */;
  %681 = divide(1f /* ty=float32 span=/model/layers.7/input_layernorm/Constant_2:0:0 */, %680) /* ty=Tensor[(1, 512, 1), float32] span=/model/layers.7/input_layernorm/Div:0:0 */;
  %682 = multiply(%676, %681) /* ty=Tensor[(1, 512, 4096), float32] span=/model/layers.7/input_layernorm/Mul:0:0 */;
  %683 = cast(%682, dtype="float32") /* ty=Tensor[(1, 512, 4096), float32] span=/model/layers.7/input_layernorm/Cast_1:0:0 */;
…
  %2768 = divide(1f /* ty=float32 span=/model/layers.28/post_attention_layernorm/Constant_2:0:0 */, %2767) /* ty=Tensor[(1, 512, 1), float32] span=/model/layers.28/post_attention_layernorm/Div:0:0 */;
  %2769 = multiply(%2763, %2768) /* ty=Tensor[(1, 512, 4096), float32] span=/model/layers.28/post_attention_layernorm/Mul:0:0 */;
  %2770 = cast(%2769, dtype="float32") /* ty=Tensor[(1, 512, 4096), float32] span=/model/layers.28/post_attention_layernorm/Cast_1:0:0 */;
  %2771 = multiply(%model.layers.28.post_attention_layernorm.weight, %2770) /* ty=Tensor[(1, 512, 4096), float32] span=/model/layers.28/post_attention_layernorm/Mul_1:0:0 */;
  %2772 = reshape(%2771, newshape=[-1, 4096]) /* ty=Tensor[(512, 4096), float32] span=/model/layers.28/mlp/gate_proj/MatMul:0:0 */;
  %2773 = transpose(%onnx::MatMul_10061, axes=None) /* ty=Tensor[(14336, 4096), float32] span=/model/layers.28/mlp/gate_proj/MatMul:0:0 */;
  %2774 = nn.dense(%2772, %2773, units=None, out_dtype="float32") /* ty=Tensor[(512, 14336), float32] span=/model/layers.28/mlp/gate_proj/MatMul:0:0 */;
  %2775 = reshape(%2774, newshape=[1, 512, 14336]) /* ty=Tensor[(1, 512, 14336), float32] span=/model/layers.28/mlp/gate_proj/MatMul:0:0 */;
  %2776 = sigmoid(%2775) /* ty=Tensor[(1, 512, 14336), float32] span=/model/layers.28/mlp/act_fn/Sigmoid:0:0 */;
  %2777 = reshape(%2771, newshape=[-1, 4096]) /* ty=Tensor[(512, 4096), float32] span=/model/layers.28/mlp/up_proj/MatMul:0:0 */;
  %2778 = transpose(%onnx::MatMul_10062, axes=None) /* ty=Tensor[(14336, 4096), float32] span=/model/layers.28/mlp/up_proj/MatMul:0:0 */;
  %2779 = nn.dense(%2777, %2778, units=None, out_dtype="float32") /* ty=Tensor[(512, 14336), float32] span=/model/layers.28/mlp/up_proj/MatMul:0:0 */;
  %2780 = multiply(%2775, %2776) /* ty=Tensor[(1, 512, 14336), float32] span=/model/layers.28/mlp/act_fn/Mul:0:0 */;
  %2781 = reshape(%2779, newshape=[1, 512, 14336]) /* ty=Tensor[(1, 512, 14336), float32] span=/model/layers.28/mlp/up_proj/MatMul:0:0 */;
  %2782 = multiply(%2780, %2781) /* ty=Tensor[(1, 512, 14336), float32] span=/model/layers.28/mlp/Mul:0:0 */;
  %2783 = reshape(%2782, newshape=[-1, 14336]) /* ty=Tensor[(512, 14336), float32] span=/model/layers.28/mlp/down_proj/MatMul:0:0 */;
  %2784 = transpose(%onnx::MatMul_10063, axes=None) /* ty=Tensor[(4096, 14336), float32] span=/model/layers.28/mlp/down_proj/MatMul:0:0 */;
  %2785 = nn.dense(%2783, %2784, units=None, out_dtype="float32") /* ty=Tensor[(512, 4096), float32] span=/model/layers.28/mlp/down_proj/MatMul:0:0 */;
  %2786 = reshape(%2785, newshape=[1, 512, 4096]) /* ty=Tensor[(1, 512, 4096), float32] span=/model/layers.28/mlp/down_proj/MatMul:0:0 */;
  %2787 = add(%2763, %2786) /* ty=Tensor[(1, 512, 4096), float32] span=/model/layers.28/Add_1:0:0 */;
  %2788 = cast(%2787, dtype="float32") /* ty=Tensor[(1, 512, 4096), float32] span=/model/layers.29/input_layernorm/Cast:0:0 */;
  %2789 = power(%2788, 2f /* ty=float32 span=/model/layers.29/input_layernorm/Constant:0:0 */) /* ty=Tensor[(1, 512, 4096), float32] span=/model/layers.29/input_layernorm/Pow:0:0 */;
  %2790 = mean(%2789, axis=[-1], keepdims=True) /* ty=Tensor[(1, 512, 1), float32] span=/model/layers.29/input_layernorm/ReduceMean:0:0 */;
  %2791 = add(%2790, 1e-05f /* ty=float32 span=/model/layers.29/input_layernorm/Constant_1:0:0 */) /* ty=Tensor[(1, 512, 1), float32] span=/model/layers.29/input_layernorm/Add:0:0 */;
  %2792 = sqrt(%2791) /* ty=Tensor[(1, 512, 1), float32] span=/model/layers.29/input_layernorm/Sqrt:0:0 */;
  %2793 = divide(1f /* ty=float32 span=/model/layers.29/input_layernorm/Constant_2:0:0 */, %2792) /* ty=Tensor[(1, 512, 1), float32] span=/model/layers.29/input_layernorm/Div:0:0 */;
  %2794 = multiply(%2788, %2793) /* ty=Tensor[(1, 512, 4096), float32] span=/model/layers.29/input_layernorm/Mul:0:0 */;
  %2795 = cast(%2794, dtype="float32") /* ty=Tensor[(1, 512, 4096), float32] span=/model/layers.29/input_layernorm/Cast_1:0:0 */;
  %2796 = multiply(%model.layers.29.input_layernorm.weight, %2795) /* ty=Tensor[(1, 512, 4096), float32] span=/model/layers.29/input_layernorm/Mul_1:0:0 */;
  %2797 = reshape(%2796, newshape=[-1, 4096]) /* ty=Tensor[(512, 4096), float32] span=/model/layers.29/self_attn/q_proj/MatMul:0:0 */;
  %2798 = transpose(%onnx::MatMul_10064, axes=None) /* ty=Tensor[(4096, 4096), float32] span=/model/layers.29/self_attn/q_proj/MatMul:0:0 */;
  %2799 = nn.dense(%2797, %2798, units=None, out_dtype="float32") /* ty=Tensor[(512, 4096), float32] span=/model/layers.29/self_attn/q_proj/MatMul:0:0 */;
  %2800 = reshape(%2799, newshape=[1, 512, 4096]) /* ty=Tensor[(1, 512, 4096), float32] span=/model/layers.29/self_attn/q_proj/MatMul:0:0 */;
  %2801 = reshape(%2800, newshape=[1, 512, 32, 128]) /* ty=Tensor[(1, 512, 32, 128), float32] span=/model/layers.29/self_attn/Reshape:0:0 */;
  %2802 = transpose(%2801, axes=[0, 2, 1, 3]) /* ty=Tensor[(1, 32, 512, 128), float32] span=/model/layers.29/self_attn/Transpose:0:0 */;
  %2803 = strided_slice(%2802, begin=[64i64], end=[9223372036854775807i64], strides=[1i64], axes=[3i64]) /* ty=Tensor[(1, 32, 512, 64), float32] span=/model/layers.29/self_attn/Slice_1:0:0 */;
  %2804 = negative(%2803) /* ty=Tensor[(1, 32, 512, 64), float32] span=/model/layers.29/self_attn/Neg:0:0 */;
  %2805 = strided_slice(%2802, begin=[0i64], end=[64i64], strides=[1i64], axes=[3i64]) /* ty=Tensor[(1, 32, 512, 64), float32] span=/model/layers.29/self_attn/Slice:0:0 */;
  %2806 = (%2804, %2805) /* ty=(Tensor[(1, 32, 512, 64), float32], Tensor[(1, 32, 512, 64), float32]) span=/model/layers.29/self_attn/Concat:0:0 */;
  %2807 = concatenate(%2806, axis=-1) /* ty=Tensor[(1, 32, 512, 128), float32] span=/model/layers.29/self_attn/Concat:0:0 */;
  %2808 = multiply(%2802, meta[relay.Constant][0] /* ty=Tensor[(1, 1, 512, 128), float32] span=/model/layers.0/self_attn/Unsqueeze:0:0 */) /* ty=Tensor[(1, 32, 512, 128), float32] span=/model/layers.29/self_attn/Mul:0:0 */;
  %2809 = multiply(%2807, meta[relay.Constant][1] /* ty=Tensor[(1, 1, 512, 128), float32] span=/model/layers.0/self_attn/Unsqueeze_1:0:0 */) /* ty=Tensor[(1, 32, 512, 128), float32] span=/model/layers.29/self_attn/Mul_1:0:0 */;
  %2810 = add(%2808, %2809) /* ty=Tensor[(1, 32, 512, 128), float32] span=/model/layers.29/self_attn/Add:0:0 */;
  %2811 = multiply(%2810, meta[relay.Constant][89] /* ty=Tensor[(1), float32] span=/model/layers.29/self_attn/Sqrt_1:0:0 */) /* ty=Tensor[(1, 32, 512, 128), float32] span=/model/layers.29/self_attn/Mul_6:0:0 */;
  %2812 = reshape(%2796, newshape=[-1, 4096]) /* ty=Tensor[(512, 4096), float32] span=/model/layers.29/self_attn/k_proj/MatMul:0:0 */;
  %2813 = transpose(%onnx::MatMul_10065, axes=None) /* ty=Tensor[(1024, 4096), float32] span=/model/layers.29/self_attn/k_proj/MatMul:0:0 */;
  %2814 = nn.dense(%2812, %2813, units=None, out_dtype="float32") /* ty=Tensor[(512, 1024), float32] span=/model/layers.29/self_attn/k_proj/MatMul:0:0 */;
  %2815 = reshape(%2814, newshape=[1, 512, 1024]) /* ty=Tensor[(1, 512, 1024), float32] span=/model/layers.29/self_attn/k_proj/MatMul:0:0 */;
  %2816 = reshape(%2815, newshape=[1, 512, 8, 128]) /* ty=Tensor[(1, 512, 8, 128), float32] span=/model/layers.29/self_attn/Reshape_1:0:0 */;
  %2817 = transpose(%2816, axes=[0, 2, 1, 3]) /* ty=Tensor[(1, 8, 512, 128), float32] span=/model/layers.29/self_attn/Transpose_1:0:0 */;
  %2818 = strided_slice(%2817, begin=[64i64], end=[9223372036854775807i64], strides=[1i64], axes=[3i64]) /* ty=Tensor[(1, 8, 512, 64), float32] span=/model/layers.29/self_attn/Slice_3:0:0 */;
  %2819 = negative(%2818) /* ty=Tensor[(1, 8, 512, 64), float32] span=/model/layers.29/self_attn/Neg_1:0:0 */;
  %2820 = strided_slice(%2817, begin=[0i64], end=[64i64], strides=[1i64], axes=[3i64]) /* ty=Tensor[(1, 8, 512, 64), float32] span=/model/layers.29/self_attn/Slice_2:0:0 */;
  %2821 = (%2819, %2820) /* ty=(Tensor[(1, 8, 512, 64), float32], Tensor[(1, 8, 512, 64), float32]) span=/model/layers.29/self_attn/Concat_1:0:0 */;
  %2822 = concatenate(%2821, axis=-1) /* ty=Tensor[(1, 8, 512, 128), float32] span=/model/layers.29/self_attn/Concat_1:0:0 */;
  %2823 = multiply(%2817, meta[relay.Constant][0] /* ty=Tensor[(1, 1, 512, 128), float32] span=/model/layers.0/self_attn/Unsqueeze:0:0 */) /* ty=Tensor[(1, 8, 512, 128), float32] span=/model/layers.29/self_attn/Mul_2:0:0 */;
  %2824 = multiply(%2822, meta[relay.Constant][1] /* ty=Tensor[(1, 1, 512, 128), float32] span=/model/layers.0/self_attn/Unsqueeze_1:0:0 */) /* ty=Tensor[(1, 8, 512, 128), float32] span=/model/layers.29/self_attn/Mul_3:0:0 */;
  %2825 = add(%2823, %2824) /* ty=Tensor[(1, 8, 512, 128), float32] span=/model/layers.29/self_attn/Add_1:0:0 */;
  %2826 = expand_dims(%2825, axis=2) /* ty=Tensor[(1, 8, 1, 512, 128), float32] span=/model/layers.29/self_attn/Unsqueeze:0:0 */;
  %2827 = broadcast_to(%2826, shape=[1i64, 8i64, 4i64, 512i64, 128i64]) /* ty=Tensor[(1i64, 8i64, 4i64, 512i64, 128i64), float32] span=/model/layers.29/self_attn/Expand:0:0 */;
  %2828 = reshape(%2827, newshape=[1, 32, 512, 128]) /* ty=Tensor[(1, 32, 512, 128), float32] span=/model/layers.29/self_attn/Reshape_3:0:0 */;
  %2829 = transpose(%2828, axes=[0, 1, 3, 2]) /* ty=Tensor[(1, 32, 128, 512), float32] span=/model/layers.29/self_attn/Transpose_3:0:0 */;
  %2830 = multiply(%2829, meta[relay.Constant][90] /* ty=Tensor[(1), float32] span=/model/layers.29/self_attn/Sqrt_2:0:0 */) /* ty=Tensor[(1, 32, 128, 512), float32] span=/model/layers.29/self_attn/Mul_7:0:0 */;
  %2831 = reshape(%2830, newshape=[-1, 128, 512]) /* ty=Tensor[(32, 128, 512), float32] span=/model/layers.29/self_attn/MatMul:0:0 */;
  %2832 = reshape(%2811, newshape=[-1, 512, 128]) /* ty=Tensor[(32, 512, 128), float32] span=/model/layers.29/self_attn/MatMul:0:0 */;
  %2833 = transpose(%2831, axes=[0, 2, 1]) /* ty=Tensor[(32, 512, 128), float32] span=/model/layers.29/self_attn/MatMul:0:0 */;
  %2834 = nn.batch_matmul(%2832, %2833, out_dtype="float32", transpose_b=True) /* ty=Tensor[(32, 512, 512), float32] span=/model/layers.29/self_attn/MatMul:0:0 */;
  %2835 = reshape(%2834, newshape=[1, 32, 512, 512]) /* ty=Tensor[(1, 32, 512, 512), float32] span=/model/layers.29/self_attn/MatMul:0:0 */;
  %2836 = add(%2835, meta[relay.Constant][91] /* ty=Tensor[(1, 1, 512, 512), float32] span=/model/layers.29/self_attn/Slice_4:0:0 */) /* ty=Tensor[(1, 32, 512, 512), float32] span=/model/layers.29/self_attn/Add_2:0:0 */;
  %2837 = nn.softmax(%2836, axis=3) /* ty=Tensor[(1, 32, 512, 512), float32] span=/model/layers.29/self_attn/Softmax:0:0 */;
  %2838 = reshape(%2796, newshape=[-1, 4096]) /* ty=Tensor[(512, 4096), float32] span=/model/layers.29/self_attn/v_proj/MatMul:0:0 */;
  %2839 = transpose(%onnx::MatMul_10066, axes=None) /* ty=Tensor[(1024, 4096), float32] span=/model/layers.29/self_attn/v_proj/MatMul:0:0 */;
  %2840 = nn.dense(%2838, %2839, units=None, out_dtype="float32") /* ty=Tensor[(512, 1024), float32] span=/model/layers.29/self_attn/v_proj/MatMul:0:0 */;
  %2841 = reshape(%2840, newshape=[1, 512, 1024]) /* ty=Tensor[(1, 512, 1024), float32] span=/model/layers.29/self_attn/v_proj/MatMul:0:0 */;
  %2842 = reshape(%2841, newshape=[1, 512, 8, 128]) /* ty=Tensor[(1, 512, 8, 128), float32] span=/model/layers.29/self_attn/Reshape_2:0:0 */;
  %2843 = transpose(%2842, axes=[0, 2, 1, 3]) /* ty=Tensor[(1, 8, 512, 128), float32] span=/model/layers.29/self_attn/Transpose_2:0:0 */;
  %2844 = expand_dims(%2843, axis=2) /* ty=Tensor[(1, 8, 1, 512, 128), float32] span=/model/layers.29/self_attn/Unsqueeze_1:0:0 */;
  %2845 = broadcast_to(%2844, shape=[1i64, 8i64, 4i64, 512i64, 128i64]) /* ty=Tensor[(1i64, 8i64, 4i64, 512i64, 128i64), float32] span=/model/layers.29/self_attn/Expand_1:0:0 */;
  %2846 = reshape(%2845, newshape=[1, 32, 512, 128]) /* ty=Tensor[(1, 32, 512, 128), float32] span=/model/layers.29/self_attn/Reshape_4:0:0 */;
  %2847 = reshape(%2846, newshape=[-1, 512, 128]) /* ty=Tensor[(32, 512, 128), float32] span=/model/layers.29/self_attn/MatMul_1:0:0 */;
  %2848 = reshape(%2837, newshape=[-1, 512, 512]) /* ty=Tensor[(32, 512, 512), float32] span=/model/layers.29/self_attn/MatMul_1:0:0 */;
  %2849 = transpose(%2847, axes=[0, 2, 1]) /* ty=Tensor[(32, 128, 512), float32] span=/model/layers.29/self_attn/MatMul_1:0:0 */;
  %2850 = nn.batch_matmul(%2848, %2849, out_dtype="float32", transpose_b=True) /* ty=Tensor[(32, 512, 128), float32] span=/model/layers.29/self_attn/MatMul_1:0:0 */;
  %2851 = reshape(%2850, newshape=[1, 32, 512, 128]) /* ty=Tensor[(1, 32, 512, 128), float32] span=/model/layers.29/self_attn/MatMul_1:0:0 */;
  %2852 = transpose(%2851, axes=[0, 2, 1, 3]) /* ty=Tensor[(1, 512, 32, 128), float32] span=/model/layers.29/self_attn/Transpose_4:0:0 */;
  %2853 = reshape(%2852, newshape=[1, 512, -1]) /* ty=Tensor[(1, 512, 4096), float32] span=/model/layers.29/self_attn/Reshape_5:0:0 */;
  %2854 = reshape(%2853, newshape=[-1, 4096]) /* ty=Tensor[(512, 4096), float32] span=/model/layers.29/self_attn/o_proj/MatMul:0:0 */;
  %2855 = transpose(%onnx::MatMul_10132, axes=None) /* ty=Tensor[(4096, 4096), float32] span=/model/layers.29/self_attn/o_proj/MatMul:0:0 */;
  %2856 = nn.dense(%2854, %2855, units=None, out_dtype="float32") /* ty=Tensor[(512, 4096), float32] span=/model/layers.29/self_attn/o_proj/MatMul:0:0 */;
  %2857 = reshape(%2856, newshape=[1, 512, 4096]) /* ty=Tensor[(1, 512, 4096), float32] span=/model/layers.29/self_attn/o_proj/MatMul:0:0 */;
  %2858 = add(%2788, %2857) /* ty=Tensor[(1, 512, 4096), float32] span=/model/layers.29/Add:0:0 */;
  %2859 = cast(%2858, dtype="float32") /* ty=Tensor[(1, 512, 4096), float32] span=/model/layers.29/post_attention_layernorm/Cast:0:0 */;
  %2860 = power(%2859, 2f /* ty=float32 span=/model/layers.29/post_attention_layernorm/Constant:0:0 */) /* ty=Tensor[(1, 512, 4096), float32] span=/model/layers.29/post_attention_layernorm/Pow:0:0 */;
  %2861 = mean(%2860, axis=[-1], keepdims=True) /* ty=Tensor[(1, 512, 1), float32] span=/model/layers.29/post_attention_layernorm/ReduceMean:0:0 */;
  %2862 = add(%2861, 1e-05f /* ty=float32 span=/model/layers.29/post_attention_layernorm/Constant_1:0:0 */) /* ty=Tensor[(1, 512, 1), float32] span=/model/layers.29/post_attention_layernorm/Add:0:0 */;
  %2863 = sqrt(%2862) /* ty=Tensor[(1, 512, 1), float32] span=/model/layers.29/post_attention_layernorm/Sqrt:0:0 */;
  %2864 = divide(1f /* ty=float32 span=/model/layers.29/post_attention_layernorm/Constant_2:0:0 */, %2863) /* ty=Tensor[(1, 512, 1), float32] span=/model/layers.29/post_attention_layernorm/Div:0:0 */;
  %2865 = multiply(%2859, %2864) /* ty=Tensor[(1, 512, 4096), float32] span=/model/layers.29/post_attention_layernorm/Mul:0:0 */;
  %2866 = cast(%2865, dtype="float32") /* ty=Tensor[(1, 512, 4096), float32] span=/model/layers.29/post_attention_layernorm/Cast_1:0:0 */;
  %2867 = multiply(%model.layers.29.post_attention_layernorm.weight, %2866) /* ty=Tensor[(1, 512, 4096), float32] span=/model/layers.29/post_attention_layernorm/Mul_1:0:0 */;
  %2868 = reshape(%2867, newshape=[-1, 4096]) /* ty=Tensor[(512, 4096), float32] span=/model/layers.29/mlp/gate_proj/MatMul:0:0 */;
  %2869 = transpose(%onnx::MatMul_10133, axes=None) /* ty=Tensor[(14336, 4096), float32] span=/model/layers.29/mlp/gate_proj/MatMul:0:0 */;
  %2870 = nn.dense(%2868, %2869, units=None, out_dtype="float32") /* ty=Tensor[(512, 14336), float32] span=/model/layers.29/mlp/gate_proj/MatMul:0:0 */;
  %2871 = reshape(%2870, newshape=[1, 512, 14336]) /* ty=Tensor[(1, 512, 14336), float32] span=/model/layers.29/mlp/gate_proj/MatMul:0:0 */;
  %2872 = sigmoid(%2871) /* ty=Tensor[(1, 512, 14336), float32] span=/model/layers.29/mlp/act_fn/Sigmoid:0:0 */;
  %2873 = reshape(%2867, newshape=[-1, 4096]) /* ty=Tensor[(512, 4096), float32] span=/model/layers.29/mlp/up_proj/MatMul:0:0 */;
  %2874 = transpose(%onnx::MatMul_10134, axes=None) /* ty=Tensor[(14336, 4096), float32] span=/model/layers.29/mlp/up_proj/MatMul:0:0 */;
  %2875 = nn.dense(%2873, %2874, units=None, out_dtype="float32") /* ty=Tensor[(512, 14336), float32] span=/model/layers.29/mlp/up_proj/MatMul:0:0 */;
  %2876 = multiply(%2871, %2872) /* ty=Tensor[(1, 512, 14336), float32] span=/model/layers.29/mlp/act_fn/Mul:0:0 */;
  %2877 = reshape(%2875, newshape=[1, 512, 14336]) /* ty=Tensor[(1, 512, 14336), float32] span=/model/layers.29/mlp/up_proj/MatMul:0:0 */;
  %2878 = multiply(%2876, %2877) /* ty=Tensor[(1, 512, 14336), float32] span=/model/layers.29/mlp/Mul:0:0 */;
  %2879 = reshape(%2878, newshape=[-1, 14336]) /* ty=Tensor[(512, 14336), float32] span=/model/layers.29/mlp/down_proj/MatMul:0:0 */;
  %2880 = transpose(%onnx::MatMul_10135, axes=None) /* ty=Tensor[(4096, 14336), float32] span=/model/layers.29/mlp/down_proj/MatMul:0:0 */;
  %2881 = nn.dense(%2879, %2880, units=None, out_dtype="float32") /* ty=Tensor[(512, 4096), float32] span=/model/layers.29/mlp/down_proj/MatMul:0:0 */;
  %2882 = reshape(%2881, newshape=[1, 512, 4096]) /* ty=Tensor[(1, 512, 4096), float32] span=/model/layers.29/mlp/down_proj/MatMul:0:0 */;
  %2883 = add(%2859, %2882) /* ty=Tensor[(1, 512, 4096), float32] span=/model/layers.29/Add_1:0:0 */;
  %2884 = cast(%2883, dtype="float32") /* ty=Tensor[(1, 512, 4096), float32] span=/model/layers.30/input_layernorm/Cast:0:0 */;
  %2885 = power(%2884, 2f /* ty=float32 span=/model/layers.30/input_layernorm/Constant:0:0 */) /* ty=Tensor[(1, 512, 4096), float32] span=/model/layers.30/input_layernorm/Pow:0:0 */;
  %2886 = mean(%2885, axis=[-1], keepdims=True) /* ty=Tensor[(1, 512, 1), float32] span=/model/layers.30/input_layernorm/ReduceMean:0:0 */;
  %2887 = add(%2886, 1e-05f /* ty=float32 span=/model/layers.30/input_layernorm/Constant_1:0:0 */) /* ty=Tensor[(1, 512, 1), float32] span=/model/layers.30/input_layernorm/Add:0:0 */;
  %2888 = sqrt(%2887) /* ty=Tensor[(1, 512, 1), float32] span=/model/layers.30/input_layernorm/Sqrt:0:0 */;
  %2889 = divide(1f /* ty=float32 span=/model/layers.30/input_layernorm/Constant_2:0:0 */, %2888) /* ty=Tensor[(1, 512, 1), float32] span=/model/layers.30/input_layernorm/Div:0:0 */;
  %2890 = multiply(%2884, %2889) /* ty=Tensor[(1, 512, 4096), float32] span=/model/layers.30/input_layernorm/Mul:0:0 */;
  %2891 = cast(%2890, dtype="float32") /* ty=Tensor[(1, 512, 4096), float32] span=/model/layers.30/input_layernorm/Cast_1:0:0 */;
  %2892 = multiply(%model.layers.30.input_layernorm.weight, %2891) /* ty=Tensor[(1, 512, 4096), float32] span=/model/layers.30/input_layernorm/Mul_1:0:0 */;
  %2893 = reshape(%2892, newshape=[-1, 4096]) /* ty=Tensor[(512, 4096), float32] span=/model/layers.30/self_attn/q_proj/MatMul:0:0 */;
  %2894 = transpose(%onnx::MatMul_10136, axes=None) /* ty=Tensor[(4096, 4096), float32] span=/model/layers.30/self_attn/q_proj/MatMul:0:0 */;
  %2895 = nn.dense(%2893, %2894, units=None, out_dtype="float32") /* ty=Tensor[(512, 4096), float32] span=/model/layers.30/self_attn/q_proj/MatMul:0:0 */;
  %2896 = reshape(%2895, newshape=[1, 512, 4096]) /* ty=Tensor[(1, 512, 4096), float32] span=/model/layers.30/self_attn/q_proj/MatMul:0:0 */;
  %2897 = reshape(%2896, newshape=[1, 512, 32, 128]) /* ty=Tensor[(1, 512, 32, 128), float32] span=/model/layers.30/self_attn/Reshape:0:0 */;
  %2898 = transpose(%2897, axes=[0, 2, 1, 3]) /* ty=Tensor[(1, 32, 512, 128), float32] span=/model/layers.30/self_attn/Transpose:0:0 */;
  %2899 = strided_slice(%2898, begin=[64i64], end=[9223372036854775807i64], strides=[1i64], axes=[3i64]) /* ty=Tensor[(1, 32, 512, 64), float32] span=/model/layers.30/self_attn/Slice_1:0:0 */;
  %2900 = negative(%2899) /* ty=Tensor[(1, 32, 512, 64), float32] span=/model/layers.30/self_attn/Neg:0:0 */;
  %2901 = strided_slice(%2898, begin=[0i64], end=[64i64], strides=[1i64], axes=[3i64]) /* ty=Tensor[(1, 32, 512, 64), float32] span=/model/layers.30/self_attn/Slice:0:0 */;
  %2902 = (%2900, %2901) /* ty=(Tensor[(1, 32, 512, 64), float32], Tensor[(1, 32, 512, 64), float32]) span=/model/layers.30/self_attn/Concat:0:0 */;
  %2903 = concatenate(%2902, axis=-1) /* ty=Tensor[(1, 32, 512, 128), float32] span=/model/layers.30/self_attn/Concat:0:0 */;
  %2904 = multiply(%2898, meta[relay.Constant][0] /* ty=Tensor[(1, 1, 512, 128), float32] span=/model/layers.0/self_attn/Unsqueeze:0:0 */) /* ty=Tensor[(1, 32, 512, 128), float32] span=/model/layers.30/self_attn/Mul:0:0 */;
  %2905 = multiply(%2903, meta[relay.Constant][1] /* ty=Tensor[(1, 1, 512, 128), float32] span=/model/layers.0/self_attn/Unsqueeze_1:0:0 */) /* ty=Tensor[(1, 32, 512, 128), float32] span=/model/layers.30/self_attn/Mul_1:0:0 */;
  %2906 = add(%2904, %2905) /* ty=Tensor[(1, 32, 512, 128), float32] span=/model/layers.30/self_attn/Add:0:0 */;
  %2907 = multiply(%2906, meta[relay.Constant][92] /* ty=Tensor[(1), float32] span=/model/layers.30/self_attn/Sqrt_1:0:0 */) /* ty=Tensor[(1, 32, 512, 128), float32] span=/model/layers.30/self_attn/Mul_6:0:0 */;
  %2908 = reshape(%2892, newshape=[-1, 4096]) /* ty=Tensor[(512, 4096), float32] span=/model/layers.30/self_attn/k_proj/MatMul:0:0 */;
  %2909 = transpose(%onnx::MatMul_10137, axes=None) /* ty=Tensor[(1024, 4096), float32] span=/model/layers.30/self_attn/k_proj/MatMul:0:0 */;
  %2910 = nn.dense(%2908, %2909, units=None, out_dtype="float32") /* ty=Tensor[(512, 1024), float32] span=/model/layers.30/self_attn/k_proj/MatMul:0:0 */;
  %2911 = reshape(%2910, newshape=[1, 512, 1024]) /* ty=Tensor[(1, 512, 1024), float32] span=/model/layers.30/self_attn/k_proj/MatMul:0:0 */;
  %2912 = reshape(%2911, newshape=[1, 512, 8, 128]) /* ty=Tensor[(1, 512, 8, 128), float32] span=/model/layers.30/self_attn/Reshape_1:0:0 */;
  %2913 = transpose(%2912, axes=[0, 2, 1, 3]) /* ty=Tensor[(1, 8, 512, 128), float32] span=/model/layers.30/self_attn/Transpose_1:0:0 */;
  %2914 = strided_slice(%2913, begin=[64i64], end=[9223372036854775807i64], strides=[1i64], axes=[3i64]) /* ty=Tensor[(1, 8, 512, 64), float32] span=/model/layers.30/self_attn/Slice_3:0:0 */;
  %2915 = negative(%2914) /* ty=Tensor[(1, 8, 512, 64), float32] span=/model/layers.30/self_attn/Neg_1:0:0 */;
  %2916 = strided_slice(%2913, begin=[0i64], end=[64i64], strides=[1i64], axes=[3i64]) /* ty=Tensor[(1, 8, 512, 64), float32] span=/model/layers.30/self_attn/Slice_2:0:0 */;
  %2917 = (%2915, %2916) /* ty=(Tensor[(1, 8, 512, 64), float32], Tensor[(1, 8, 512, 64), float32]) span=/model/layers.30/self_attn/Concat_1:0:0 */;
  %2918 = concatenate(%2917, axis=-1) /* ty=Tensor[(1, 8, 512, 128), float32] span=/model/layers.30/self_attn/Concat_1:0:0 */;
  %2919 = multiply(%2913, meta[relay.Constant][0] /* ty=Tensor[(1, 1, 512, 128), float32] span=/model/layers.0/self_attn/Unsqueeze:0:0 */) /* ty=Tensor[(1, 8, 512, 128), float32] span=/model/layers.30/self_attn/Mul_2:0:0 */;
  %2920 = multiply(%2918, meta[relay.Constant][1] /* ty=Tensor[(1, 1, 512, 128), float32] span=/model/layers.0/self_attn/Unsqueeze_1:0:0 */) /* ty=Tensor[(1, 8, 512, 128), float32] span=/model/layers.30/self_attn/Mul_3:0:0 */;
  %2921 = add(%2919, %2920) /* ty=Tensor[(1, 8, 512, 128), float32] span=/model/layers.30/self_attn/Add_1:0:0 */;
  %2922 = expand_dims(%2921, axis=2) /* ty=Tensor[(1, 8, 1, 512, 128), float32] span=/model/layers.30/self_attn/Unsqueeze:0:0 */;
  %2923 = broadcast_to(%2922, shape=[1i64, 8i64, 4i64, 512i64, 128i64]) /* ty=Tensor[(1i64, 8i64, 4i64, 512i64, 128i64), float32] span=/model/layers.30/self_attn/Expand:0:0 */;
  %2924 = reshape(%2923, newshape=[1, 32, 512, 128]) /* ty=Tensor[(1, 32, 512, 128), float32] span=/model/layers.30/self_attn/Reshape_3:0:0 */;
  %2925 = transpose(%2924, axes=[0, 1, 3, 2]) /* ty=Tensor[(1, 32, 128, 512), float32] span=/model/layers.30/self_attn/Transpose_3:0:0 */;
  %2926 = multiply(%2925, meta[relay.Constant][93] /* ty=Tensor[(1), float32] span=/model/layers.30/self_attn/Sqrt_2:0:0 */) /* ty=Tensor[(1, 32, 128, 512), float32] span=/model/layers.30/self_attn/Mul_7:0:0 */;
  %2927 = reshape(%2926, newshape=[-1, 128, 512]) /* ty=Tensor[(32, 128, 512), float32] span=/model/layers.30/self_attn/MatMul:0:0 */;
  %2928 = reshape(%2907, newshape=[-1, 512, 128]) /* ty=Tensor[(32, 512, 128), float32] span=/model/layers.30/self_attn/MatMul:0:0 */;
  %2929 = transpose(%2927, axes=[0, 2, 1]) /* ty=Tensor[(32, 512, 128), float32] span=/model/layers.30/self_attn/MatMul:0:0 */;
  %2930 = nn.batch_matmul(%2928, %2929, out_dtype="float32", transpose_b=True) /* ty=Tensor[(32, 512, 512), float32] span=/model/layers.30/self_attn/MatMul:0:0 */;
  %2931 = reshape(%2930, newshape=[1, 32, 512, 512]) /* ty=Tensor[(1, 32, 512, 512), float32] span=/model/layers.30/self_attn/MatMul:0:0 */;
  %2932 = add(%2931, meta[relay.Constant][94] /* ty=Tensor[(1, 1, 512, 512), float32] span=/model/layers.30/self_attn/Slice_4:0:0 */) /* ty=Tensor[(1, 32, 512, 512), float32] span=/model/layers.30/self_attn/Add_2:0:0 */;
  %2933 = nn.softmax(%2932, axis=3) /* ty=Tensor[(1, 32, 512, 512), float32] span=/model/layers.30/self_attn/Softmax:0:0 */;
  %2934 = reshape(%2892, newshape=[-1, 4096]) /* ty=Tensor[(512, 4096), float32] span=/model/layers.30/self_attn/v_proj/MatMul:0:0 */;
  %2935 = transpose(%onnx::MatMul_10138, axes=None) /* ty=Tensor[(1024, 4096), float32] span=/model/layers.30/self_attn/v_proj/MatMul:0:0 */;
  %2936 = nn.dense(%2934, %2935, units=None, out_dtype="float32") /* ty=Tensor[(512, 1024), float32] span=/model/layers.30/self_attn/v_proj/MatMul:0:0 */;
  %2937 = reshape(%2936, newshape=[1, 512, 1024]) /* ty=Tensor[(1, 512, 1024), float32] span=/model/layers.30/self_attn/v_proj/MatMul:0:0 */;
  %2938 = reshape(%2937, newshape=[1, 512, 8, 128]) /* ty=Tensor[(1, 512, 8, 128), float32] span=/model/layers.30/self_attn/Reshape_2:0:0 */;
  %2939 = transpose(%2938, axes=[0, 2, 1, 3]) /* ty=Tensor[(1, 8, 512, 128), float32] span=/model/layers.30/self_attn/Transpose_2:0:0 */;
  %2940 = expand_dims(%2939, axis=2) /* ty=Tensor[(1, 8, 1, 512, 128), float32] span=/model/layers.30/self_attn/Unsqueeze_1:0:0 */;
  %2941 = broadcast_to(%2940, shape=[1i64, 8i64, 4i64, 512i64, 128i64]) /* ty=Tensor[(1i64, 8i64, 4i64, 512i64, 128i64), float32] span=/model/layers.30/self_attn/Expand_1:0:0 */;
  %2942 = reshape(%2941, newshape=[1, 32, 512, 128]) /* ty=Tensor[(1, 32, 512, 128), float32] span=/model/layers.30/self_attn/Reshape_4:0:0 */;
  %2943 = reshape(%2942, newshape=[-1, 512, 128]) /* ty=Tensor[(32, 512, 128), float32] span=/model/layers.30/self_attn/MatMul_1:0:0 */;
  %2944 = reshape(%2933, newshape=[-1, 512, 512]) /* ty=Tensor[(32, 512, 512), float32] span=/model/layers.30/self_attn/MatMul_1:0:0 */;
  %2945 = transpose(%2943, axes=[0, 2, 1]) /* ty=Tensor[(32, 128, 512), float32] span=/model/layers.30/self_attn/MatMul_1:0:0 */;
  %2946 = nn.batch_matmul(%2944, %2945, out_dtype="float32", transpose_b=True) /* ty=Tensor[(32, 512, 128), float32] span=/model/layers.30/self_attn/MatMul_1:0:0 */;
  %2947 = reshape(%2946, newshape=[1, 32, 512, 128]) /* ty=Tensor[(1, 32, 512, 128), float32] span=/model/layers.30/self_attn/MatMul_1:0:0 */;
  %2948 = transpose(%2947, axes=[0, 2, 1, 3]) /* ty=Tensor[(1, 512, 32, 128), float32] span=/model/layers.30/self_attn/Transpose_4:0:0 */;
  %2949 = reshape(%2948, newshape=[1, 512, -1]) /* ty=Tensor[(1, 512, 4096), float32] span=/model/layers.30/self_attn/Reshape_5:0:0 */;
  %2950 = reshape(%2949, newshape=[-1, 4096]) /* ty=Tensor[(512, 4096), float32] span=/model/layers.30/self_attn/o_proj/MatMul:0:0 */;
  %2951 = transpose(%onnx::MatMul_10204, axes=None) /* ty=Tensor[(4096, 4096), float32] span=/model/layers.30/self_attn/o_proj/MatMul:0:0 */;
  %2952 = nn.dense(%2950, %2951, units=None, out_dtype="float32") /* ty=Tensor[(512, 4096), float32] span=/model/layers.30/self_attn/o_proj/MatMul:0:0 */;
  %2953 = reshape(%2952, newshape=[1, 512, 4096]) /* ty=Tensor[(1, 512, 4096), float32] span=/model/layers.30/self_attn/o_proj/MatMul:0:0 */;
  %2954 = add(%2884, %2953) /* ty=Tensor[(1, 512, 4096), float32] span=/model/layers.30/Add:0:0 */;
  %2955 = cast(%2954, dtype="float32") /* ty=Tensor[(1, 512, 4096), float32] span=/model/layers.30/post_attention_layernorm/Cast:0:0 */;
  %2956 = power(%2955, 2f /* ty=float32 span=/model/layers.30/post_attention_layernorm/Constant:0:0 */) /* ty=Tensor[(1, 512, 4096), float32] span=/model/layers.30/post_attention_layernorm/Pow:0:0 */;
  %2957 = mean(%2956, axis=[-1], keepdims=True) /* ty=Tensor[(1, 512, 1), float32] span=/model/layers.30/post_attention_layernorm/ReduceMean:0:0 */;
  %2958 = add(%2957, 1e-05f /* ty=float32 span=/model/layers.30/post_attention_layernorm/Constant_1:0:0 */) /* ty=Tensor[(1, 512, 1), float32] span=/model/layers.30/post_attention_layernorm/Add:0:0 */;
  %2959 = sqrt(%2958) /* ty=Tensor[(1, 512, 1), float32] span=/model/layers.30/post_attention_layernorm/Sqrt:0:0 */;
  %2960 = divide(1f /* ty=float32 span=/model/layers.30/post_attention_layernorm/Constant_2:0:0 */, %2959) /* ty=Tensor[(1, 512, 1), float32] span=/model/layers.30/post_attention_layernorm/Div:0:0 */;
  %2961 = multiply(%2955, %2960) /* ty=Tensor[(1, 512, 4096), float32] span=/model/layers.30/post_attention_layernorm/Mul:0:0 */;
  %2962 = cast(%2961, dtype="float32") /* ty=Tensor[(1, 512, 4096), float32] span=/model/layers.30/post_attention_layernorm/Cast_1:0:0 */;
  %2963 = multiply(%model.layers.30.post_attention_layernorm.weight, %2962) /* ty=Tensor[(1, 512, 4096), float32] span=/model/layers.30/post_attention_layernorm/Mul_1:0:0 */;
  %2964 = reshape(%2963, newshape=[-1, 4096]) /* ty=Tensor[(512, 4096), float32] span=/model/layers.30/mlp/gate_proj/MatMul:0:0 */;
  %2965 = transpose(%onnx::MatMul_10205, axes=None) /* ty=Tensor[(14336, 4096), float32] span=/model/layers.30/mlp/gate_proj/MatMul:0:0 */;
  %2966 = nn.dense(%2964, %2965, units=None, out_dtype="float32") /* ty=Tensor[(512, 14336), float32] span=/model/layers.30/mlp/gate_proj/MatMul:0:0 */;
  %2967 = reshape(%2966, newshape=[1, 512, 14336]) /* ty=Tensor[(1, 512, 14336), float32] span=/model/layers.30/mlp/gate_proj/MatMul:0:0 */;
  %2968 = sigmoid(%2967) /* ty=Tensor[(1, 512, 14336), float32] span=/model/layers.30/mlp/act_fn/Sigmoid:0:0 */;
  %2969 = reshape(%2963, newshape=[-1, 4096]) /* ty=Tensor[(512, 4096), float32] span=/model/layers.30/mlp/up_proj/MatMul:0:0 */;
  %2970 = transpose(%onnx::MatMul_10206, axes=None) /* ty=Tensor[(14336, 4096), float32] span=/model/layers.30/mlp/up_proj/MatMul:0:0 */;
  %2971 = nn.dense(%2969, %2970, units=None, out_dtype="float32") /* ty=Tensor[(512, 14336), float32] span=/model/layers.30/mlp/up_proj/MatMul:0:0 */;
  %2972 = multiply(%2967, %2968) /* ty=Tensor[(1, 512, 14336), float32] span=/model/layers.30/mlp/act_fn/Mul:0:0 */;
  %2973 = reshape(%2971, newshape=[1, 512, 14336]) /* ty=Tensor[(1, 512, 14336), float32] span=/model/layers.30/mlp/up_proj/MatMul:0:0 */;
  %2974 = multiply(%2972, %2973) /* ty=Tensor[(1, 512, 14336), float32] span=/model/layers.30/mlp/Mul:0:0 */;
  %2975 = reshape(%2974, newshape=[-1, 14336]) /* ty=Tensor[(512, 14336), float32] span=/model/layers.30/mlp/down_proj/MatMul:0:0 */;
  %2976 = transpose(%onnx::MatMul_10207, axes=None) /* ty=Tensor[(4096, 14336), float32] span=/model/layers.30/mlp/down_proj/MatMul:0:0 */;
  %2977 = nn.dense(%2975, %2976, units=None, out_dtype="float32") /* ty=Tensor[(512, 4096), float32] span=/model/layers.30/mlp/down_proj/MatMul:0:0 */;
  %2978 = reshape(%2977, newshape=[1, 512, 4096]) /* ty=Tensor[(1, 512, 4096), float32] span=/model/layers.30/mlp/down_proj/MatMul:0:0 */;
  %2979 = add(%2955, %2978) /* ty=Tensor[(1, 512, 4096), float32] span=/model/layers.30/Add_1:0:0 */;
  %2980 = cast(%2979, dtype="float32") /* ty=Tensor[(1, 512, 4096), float32] span=/model/layers.31/input_layernorm/Cast:0:0 */;
  %2981 = power(%2980, 2f /* ty=float32 span=/model/layers.31/input_layernorm/Constant:0:0 */) /* ty=Tensor[(1, 512, 4096), float32] span=/model/layers.31/input_layernorm/Pow:0:0 */;
  %2982 = mean(%2981, axis=[-1], keepdims=True) /* ty=Tensor[(1, 512, 1), float32] span=/model/layers.31/input_layernorm/ReduceMean:0:0 */;
  %2983 = add(%2982, 1e-05f /* ty=float32 span=/model/layers.31/input_layernorm/Constant_1:0:0 */) /* ty=Tensor[(1, 512, 1), float32] span=/model/layers.31/input_layernorm/Add:0:0 */;
  %2984 = sqrt(%2983) /* ty=Tensor[(1, 512, 1), float32] span=/model/layers.31/input_layernorm/Sqrt:0:0 */;
  %2985 = divide(1f /* ty=float32 span=/model/layers.31/input_layernorm/Constant_2:0:0 */, %2984) /* ty=Tensor[(1, 512, 1), float32] span=/model/layers.31/input_layernorm/Div:0:0 */;
  %2986 = multiply(%2980, %2985) /* ty=Tensor[(1, 512, 4096), float32] span=/model/layers.31/input_layernorm/Mul:0:0 */;
  %2987 = cast(%2986, dtype="float32") /* ty=Tensor[(1, 512, 4096), float32] span=/model/layers.31/input_layernorm/Cast_1:0:0 */;
  %2988 = multiply(%model.layers.31.input_layernorm.weight, %2987) /* ty=Tensor[(1, 512, 4096), float32] span=/model/layers.31/input_layernorm/Mul_1:0:0 */;
  %2989 = reshape(%2988, newshape=[-1, 4096]) /* ty=Tensor[(512, 4096), float32] span=/model/layers.31/self_attn/q_proj/MatMul:0:0 */;
  %2990 = transpose(%onnx::MatMul_10208, axes=None) /* ty=Tensor[(4096, 4096), float32] span=/model/layers.31/self_attn/q_proj/MatMul:0:0 */;
  %2991 = nn.dense(%2989, %2990, units=None, out_dtype="float32") /* ty=Tensor[(512, 4096), float32] span=/model/layers.31/self_attn/q_proj/MatMul:0:0 */;
  %2992 = reshape(%2991, newshape=[1, 512, 4096]) /* ty=Tensor[(1, 512, 4096), float32] span=/model/layers.31/self_attn/q_proj/MatMul:0:0 */;
  %2993 = reshape(%2992, newshape=[1, 512, 32, 128]) /* ty=Tensor[(1, 512, 32, 128), float32] span=/model/layers.31/self_attn/Reshape:0:0 */;
  %2994 = transpose(%2993, axes=[0, 2, 1, 3]) /* ty=Tensor[(1, 32, 512, 128), float32] span=/model/layers.31/self_attn/Transpose:0:0 */;
  %2995 = strided_slice(%2994, begin=[64i64], end=[9223372036854775807i64], strides=[1i64], axes=[3i64]) /* ty=Tensor[(1, 32, 512, 64), float32] span=/model/layers.31/self_attn/Slice_1:0:0 */;
  %2996 = negative(%2995) /* ty=Tensor[(1, 32, 512, 64), float32] span=/model/layers.31/self_attn/Neg:0:0 */;
  %2997 = strided_slice(%2994, begin=[0i64], end=[64i64], strides=[1i64], axes=[3i64]) /* ty=Tensor[(1, 32, 512, 64), float32] span=/model/layers.31/self_attn/Slice:0:0 */;
  %2998 = (%2996, %2997) /* ty=(Tensor[(1, 32, 512, 64), float32], Tensor[(1, 32, 512, 64), float32]) span=/model/layers.31/self_attn/Concat:0:0 */;
  %2999 = concatenate(%2998, axis=-1) /* ty=Tensor[(1, 32, 512, 128), float32] span=/model/layers.31/self_attn/Concat:0:0 */;
  %3000 = multiply(%2994, meta[relay.Constant][0] /* ty=Tensor[(1, 1, 512, 128), float32] span=/model/layers.0/self_attn/Unsqueeze:0:0 */) /* ty=Tensor[(1, 32, 512, 128), float32] span=/model/layers.31/self_attn/Mul:0:0 */;
  %3001 = multiply(%2999, meta[relay.Constant][1] /* ty=Tensor[(1, 1, 512, 128), float32] span=/model/layers.0/self_attn/Unsqueeze_1:0:0 */) /* ty=Tensor[(1, 32, 512, 128), float32] span=/model/layers.31/self_attn/Mul_1:0:0 */;
  %3002 = add(%3000, %3001) /* ty=Tensor[(1, 32, 512, 128), float32] span=/model/layers.31/self_attn/Add:0:0 */;
  %3003 = multiply(%3002, meta[relay.Constant][95] /* ty=Tensor[(1), float32] span=/model/layers.31/self_attn/Sqrt_1:0:0 */) /* ty=Tensor[(1, 32, 512, 128), float32] span=/model/layers.31/self_attn/Mul_6:0:0 */;
  %3004 = reshape(%2988, newshape=[-1, 4096]) /* ty=Tensor[(512, 4096), float32] span=/model/layers.31/self_attn/k_proj/MatMul:0:0 */;
  %3005 = transpose(%onnx::MatMul_10209, axes=None) /* ty=Tensor[(1024, 4096), float32] span=/model/layers.31/self_attn/k_proj/MatMul:0:0 */;
  %3006 = nn.dense(%3004, %3005, units=None, out_dtype="float32") /* ty=Tensor[(512, 1024), float32] span=/model/layers.31/self_attn/k_proj/MatMul:0:0 */;
  %3007 = reshape(%3006, newshape=[1, 512, 1024]) /* ty=Tensor[(1, 512, 1024), float32] span=/model/layers.31/self_attn/k_proj/MatMul:0:0 */;
  %3008 = reshape(%3007, newshape=[1, 512, 8, 128]) /* ty=Tensor[(1, 512, 8, 128), float32] span=/model/layers.31/self_attn/Reshape_1:0:0 */;
  %3009 = transpose(%3008, axes=[0, 2, 1, 3]) /* ty=Tensor[(1, 8, 512, 128), float32] span=/model/layers.31/self_attn/Transpose_1:0:0 */;
  %3010 = strided_slice(%3009, begin=[64i64], end=[9223372036854775807i64], strides=[1i64], axes=[3i64]) /* ty=Tensor[(1, 8, 512, 64), float32] span=/model/layers.31/self_attn/Slice_3:0:0 */;
  %3011 = negative(%3010) /* ty=Tensor[(1, 8, 512, 64), float32] span=/model/layers.31/self_attn/Neg_1:0:0 */;
  %3012 = strided_slice(%3009, begin=[0i64], end=[64i64], strides=[1i64], axes=[3i64]) /* ty=Tensor[(1, 8, 512, 64), float32] span=/model/layers.31/self_attn/Slice_2:0:0 */;
  %3013 = (%3011, %3012) /* ty=(Tensor[(1, 8, 512, 64), float32], Tensor[(1, 8, 512, 64), float32]) span=/model/layers.31/self_attn/Concat_1:0:0 */;
  %3014 = concatenate(%3013, axis=-1) /* ty=Tensor[(1, 8, 512, 128), float32] span=/model/layers.31/self_attn/Concat_1:0:0 */;
  %3015 = multiply(%3009, meta[relay.Constant][0] /* ty=Tensor[(1, 1, 512, 128), float32] span=/model/layers.0/self_attn/Unsqueeze:0:0 */) /* ty=Tensor[(1, 8, 512, 128), float32] span=/model/layers.31/self_attn/Mul_2:0:0 */;
  %3016 = multiply(%3014, meta[relay.Constant][1] /* ty=Tensor[(1, 1, 512, 128), float32] span=/model/layers.0/self_attn/Unsqueeze_1:0:0 */) /* ty=Tensor[(1, 8, 512, 128), float32] span=/model/layers.31/self_attn/Mul_3:0:0 */;
  %3017 = add(%3015, %3016) /* ty=Tensor[(1, 8, 512, 128), float32] span=/model/layers.31/self_attn/Add_1:0:0 */;
  %3018 = expand_dims(%3017, axis=2) /* ty=Tensor[(1, 8, 1, 512, 128), float32] span=/model/layers.31/self_attn/Unsqueeze:0:0 */;
  %3019 = broadcast_to(%3018, shape=[1i64, 8i64, 4i64, 512i64, 128i64]) /* ty=Tensor[(1i64, 8i64, 4i64, 512i64, 128i64), float32] span=/model/layers.31/self_attn/Expand:0:0 */;
  %3020 = reshape(%3019, newshape=[1, 32, 512, 128]) /* ty=Tensor[(1, 32, 512, 128), float32] span=/model/layers.31/self_attn/Reshape_3:0:0 */;
  %3021 = transpose(%3020, axes=[0, 1, 3, 2]) /* ty=Tensor[(1, 32, 128, 512), float32] span=/model/layers.31/self_attn/Transpose_3:0:0 */;
  %3022 = multiply(%3021, meta[relay.Constant][96] /* ty=Tensor[(1), float32] span=/model/layers.31/self_attn/Sqrt_2:0:0 */) /* ty=Tensor[(1, 32, 128, 512), float32] span=/model/layers.31/self_attn/Mul_7:0:0 */;
  %3023 = reshape(%3022, newshape=[-1, 128, 512]) /* ty=Tensor[(32, 128, 512), float32] span=/model/layers.31/self_attn/MatMul:0:0 */;
  %3024 = reshape(%3003, newshape=[-1, 512, 128]) /* ty=Tensor[(32, 512, 128), float32] span=/model/layers.31/self_attn/MatMul:0:0 */;
  %3025 = transpose(%3023, axes=[0, 2, 1]) /* ty=Tensor[(32, 512, 128), float32] span=/model/layers.31/self_attn/MatMul:0:0 */;
  %3026 = nn.batch_matmul(%3024, %3025, out_dtype="float32", transpose_b=True) /* ty=Tensor[(32, 512, 512), float32] span=/model/layers.31/self_attn/MatMul:0:0 */;
  %3027 = reshape(%3026, newshape=[1, 32, 512, 512]) /* ty=Tensor[(1, 32, 512, 512), float32] span=/model/layers.31/self_attn/MatMul:0:0 */;
  %3028 = add(%3027, meta[relay.Constant][97] /* ty=Tensor[(1, 1, 512, 512), float32] span=/model/layers.31/self_attn/Slice_4:0:0 */) /* ty=Tensor[(1, 32, 512, 512), float32] span=/model/layers.31/self_attn/Add_2:0:0 */;
  %3029 = nn.softmax(%3028, axis=3) /* ty=Tensor[(1, 32, 512, 512), float32] span=/model/layers.31/self_attn/Softmax:0:0 */;
  %3030 = reshape(%2988, newshape=[-1, 4096]) /* ty=Tensor[(512, 4096), float32] span=/model/layers.31/self_attn/v_proj/MatMul:0:0 */;
  %3031 = transpose(%onnx::MatMul_10210, axes=None) /* ty=Tensor[(1024, 4096), float32] span=/model/layers.31/self_attn/v_proj/MatMul:0:0 */;
  %3032 = nn.dense(%3030, %3031, units=None, out_dtype="float32") /* ty=Tensor[(512, 1024), float32] span=/model/layers.31/self_attn/v_proj/MatMul:0:0 */;
  %3033 = reshape(%3032, newshape=[1, 512, 1024]) /* ty=Tensor[(1, 512, 1024), float32] span=/model/layers.31/self_attn/v_proj/MatMul:0:0 */;
  %3034 = reshape(%3033, newshape=[1, 512, 8, 128]) /* ty=Tensor[(1, 512, 8, 128), float32] span=/model/layers.31/self_attn/Reshape_2:0:0 */;
  %3035 = transpose(%3034, axes=[0, 2, 1, 3]) /* ty=Tensor[(1, 8, 512, 128), float32] span=/model/layers.31/self_attn/Transpose_2:0:0 */;
  %3036 = expand_dims(%3035, axis=2) /* ty=Tensor[(1, 8, 1, 512, 128), float32] span=/model/layers.31/self_attn/Unsqueeze_1:0:0 */;
  %3037 = broadcast_to(%3036, shape=[1i64, 8i64, 4i64, 512i64, 128i64]) /* ty=Tensor[(1i64, 8i64, 4i64, 512i64, 128i64), float32] span=/model/layers.31/self_attn/Expand_1:0:0 */;
  %3038 = reshape(%3037, newshape=[1, 32, 512, 128]) /* ty=Tensor[(1, 32, 512, 128), float32] span=/model/layers.31/self_attn/Reshape_4:0:0 */;
  %3039 = reshape(%3038, newshape=[-1, 512, 128]) /* ty=Tensor[(32, 512, 128), float32] span=/model/layers.31/self_attn/MatMul_1:0:0 */;
  %3040 = reshape(%3029, newshape=[-1, 512, 512]) /* ty=Tensor[(32, 512, 512), float32] span=/model/layers.31/self_attn/MatMul_1:0:0 */;
  %3041 = transpose(%3039, axes=[0, 2, 1]) /* ty=Tensor[(32, 128, 512), float32] span=/model/layers.31/self_attn/MatMul_1:0:0 */;
  %3042 = nn.batch_matmul(%3040, %3041, out_dtype="float32", transpose_b=True) /* ty=Tensor[(32, 512, 128), float32] span=/model/layers.31/self_attn/MatMul_1:0:0 */;
  %3043 = reshape(%3042, newshape=[1, 32, 512, 128]) /* ty=Tensor[(1, 32, 512, 128), float32] span=/model/layers.31/self_attn/MatMul_1:0:0 */;
  %3044 = transpose(%3043, axes=[0, 2, 1, 3]) /* ty=Tensor[(1, 512, 32, 128), float32] span=/model/layers.31/self_attn/Transpose_4:0:0 */;
  %3045 = reshape(%3044, newshape=[1, 512, -1]) /* ty=Tensor[(1, 512, 4096), float32] span=/model/layers.31/self_attn/Reshape_5:0:0 */;
  %3046 = reshape(%3045, newshape=[-1, 4096]) /* ty=Tensor[(512, 4096), float32] span=/model/layers.31/self_attn/o_proj/MatMul:0:0 */;
  %3047 = transpose(%onnx::MatMul_10276, axes=None) /* ty=Tensor[(4096, 4096), float32] span=/model/layers.31/self_attn/o_proj/MatMul:0:0 */;
  %3048 = nn.dense(%3046, %3047, units=None, out_dtype="float32") /* ty=Tensor[(512, 4096), float32] span=/model/layers.31/self_attn/o_proj/MatMul:0:0 */;
  %3049 = reshape(%3048, newshape=[1, 512, 4096]) /* ty=Tensor[(1, 512, 4096), float32] span=/model/layers.31/self_attn/o_proj/MatMul:0:0 */;
  %3050 = add(%2980, %3049) /* ty=Tensor[(1, 512, 4096), float32] span=/model/layers.31/Add:0:0 */;
  %3051 = cast(%3050, dtype="float32") /* ty=Tensor[(1, 512, 4096), float32] span=/model/layers.31/post_attention_layernorm/Cast:0:0 */;
  %3052 = power(%3051, 2f /* ty=float32 span=/model/layers.31/post_attention_layernorm/Constant:0:0 */) /* ty=Tensor[(1, 512, 4096), float32] span=/model/layers.31/post_attention_layernorm/Pow:0:0 */;
  %3053 = mean(%3052, axis=[-1], keepdims=True) /* ty=Tensor[(1, 512, 1), float32] span=/model/layers.31/post_attention_layernorm/ReduceMean:0:0 */;
  %3054 = add(%3053, 1e-05f /* ty=float32 span=/model/layers.31/post_attention_layernorm/Constant_1:0:0 */) /* ty=Tensor[(1, 512, 1), float32] span=/model/layers.31/post_attention_layernorm/Add:0:0 */;
  %3055 = sqrt(%3054) /* ty=Tensor[(1, 512, 1), float32] span=/model/layers.31/post_attention_layernorm/Sqrt:0:0 */;
  %3056 = divide(1f /* ty=float32 span=/model/layers.31/post_attention_layernorm/Constant_2:0:0 */, %3055) /* ty=Tensor[(1, 512, 1), float32] span=/model/layers.31/post_attention_layernorm/Div:0:0 */;
  %3057 = multiply(%3051, %3056) /* ty=Tensor[(1, 512, 4096), float32] span=/model/layers.31/post_attention_layernorm/Mul:0:0 */;
  %3058 = cast(%3057, dtype="float32") /* ty=Tensor[(1, 512, 4096), float32] span=/model/layers.31/post_attention_layernorm/Cast_1:0:0 */;
  %3059 = multiply(%model.layers.31.post_attention_layernorm.weight, %3058) /* ty=Tensor[(1, 512, 4096), float32] span=/model/layers.31/post_attention_layernorm/Mul_1:0:0 */;
  %3060 = reshape(%3059, newshape=[-1, 4096]) /* ty=Tensor[(512, 4096), float32] span=/model/layers.31/mlp/gate_proj/MatMul:0:0 */;
  %3061 = transpose(%onnx::MatMul_10277, axes=None) /* ty=Tensor[(14336, 4096), float32] span=/model/layers.31/mlp/gate_proj/MatMul:0:0 */;
  %3062 = nn.dense(%3060, %3061, units=None, out_dtype="float32") /* ty=Tensor[(512, 14336), float32] span=/model/layers.31/mlp/gate_proj/MatMul:0:0 */;
  %3063 = reshape(%3062, newshape=[1, 512, 14336]) /* ty=Tensor[(1, 512, 14336), float32] span=/model/layers.31/mlp/gate_proj/MatMul:0:0 */;
  %3064 = sigmoid(%3063) /* ty=Tensor[(1, 512, 14336), float32] span=/model/layers.31/mlp/act_fn/Sigmoid:0:0 */;
  %3065 = reshape(%3059, newshape=[-1, 4096]) /* ty=Tensor[(512, 4096), float32] span=/model/layers.31/mlp/up_proj/MatMul:0:0 */;
  %3066 = transpose(%onnx::MatMul_10278, axes=None) /* ty=Tensor[(14336, 4096), float32] span=/model/layers.31/mlp/up_proj/MatMul:0:0 */;
  %3067 = nn.dense(%3065, %3066, units=None, out_dtype="float32") /* ty=Tensor[(512, 14336), float32] span=/model/layers.31/mlp/up_proj/MatMul:0:0 */;
  %3068 = multiply(%3063, %3064) /* ty=Tensor[(1, 512, 14336), float32] span=/model/layers.31/mlp/act_fn/Mul:0:0 */;
  %3069 = reshape(%3067, newshape=[1, 512, 14336]) /* ty=Tensor[(1, 512, 14336), float32] span=/model/layers.31/mlp/up_proj/MatMul:0:0 */;
  %3070 = multiply(%3068, %3069) /* ty=Tensor[(1, 512, 14336), float32] span=/model/layers.31/mlp/Mul:0:0 */;
  %3071 = reshape(%3070, newshape=[-1, 14336]) /* ty=Tensor[(512, 14336), float32] span=/model/layers.31/mlp/down_proj/MatMul:0:0 */;
  %3072 = transpose(%onnx::MatMul_10279, axes=None) /* ty=Tensor[(4096, 14336), float32] span=/model/layers.31/mlp/down_proj/MatMul:0:0 */;
  %3073 = nn.dense(%3071, %3072, units=None, out_dtype="float32") /* ty=Tensor[(512, 4096), float32] span=/model/layers.31/mlp/down_proj/MatMul:0:0 */;
  %3074 = reshape(%3073, newshape=[1, 512, 4096]) /* ty=Tensor[(1, 512, 4096), float32] span=/model/layers.31/mlp/down_proj/MatMul:0:0 */;
  %3075 = add(%3051, %3074) /* ty=Tensor[(1, 512, 4096), float32] span=/model/layers.31/Add_1:0:0 */;
  %3076 = cast(%3075, dtype="float32") /* ty=Tensor[(1, 512, 4096), float32] span=/model/norm/Cast:0:0 */;
  %3077 = power(%3076, 2f /* ty=float32 span=/model/norm/Constant:0:0 */) /* ty=Tensor[(1, 512, 4096), float32] span=/model/norm/Pow:0:0 */;
  %3078 = mean(%3077, axis=[-1], keepdims=True) /* ty=Tensor[(1, 512, 1), float32] span=/model/norm/ReduceMean:0:0 */;
  %3079 = add(%3078, 1e-05f /* ty=float32 span=/model/norm/Constant_1:0:0 */) /* ty=Tensor[(1, 512, 1), float32] span=/model/norm/Add:0:0 */;
  %3080 = sqrt(%3079) /* ty=Tensor[(1, 512, 1), float32] span=/model/norm/Sqrt:0:0 */;
  %3081 = divide(1f /* ty=float32 span=/model/norm/Constant_2:0:0 */, %3080) /* ty=Tensor[(1, 512, 1), float32] span=/model/norm/Div:0:0 */;
  %3082 = multiply(%3076, %3081) /* ty=Tensor[(1, 512, 4096), float32] span=/model/norm/Mul:0:0 */;
  %3083 = cast(%3082, dtype="float32") /* ty=Tensor[(1, 512, 4096), float32] span=/model/norm/Cast_1:0:0 */;
  %3084 = multiply(%model.norm.weight, %3083) /* ty=Tensor[(1, 512, 4096), float32] span=/model/norm/Mul_1:0:0 */;
  %3085 = reshape(%3084, newshape=[-1, 4096]) /* ty=Tensor[(512, 4096), float32] span=/lm_head/MatMul:0:0 */;
  %3086 = transpose(%onnx::MatMul_10280, axes=None) /* ty=Tensor[(128256, 4096), float32] span=/lm_head/MatMul:0:0 */;
  %3087 = nn.dense(%3085, %3086, units=None, out_dtype="float32") /* ty=Tensor[(512, 128256), float32] span=/lm_head/MatMul:0:0 */;
  %3088 = reshape(%3087, newshape=[1, 512, 128256]) /* ty=Tensor[(1, 512, 128256), float32] span=/lm_head/MatMul:0:0 */;
  %3089 = cast(%3088, dtype="float32") /* ty=Tensor[(1, 512, 128256), float32] span=/Cast:0:0 */;
  (%3089, %41, %59, %137, %155, %233, %251, %329, %347, %425, %443, %521, %539, %617, %635, %713, %731, %809, %827, %905, %923, %1001, %1019, %1097, %1115, %1193, %1211, %1289, %1307, %1385, %1403, %1481, %1499, %1577, %1595, %1673, %1691, %1769, %1787, %1865, %1883, %1961, %1979, %2057, %2075, %2153, %2171, %2249, %2267, %2345, %2363, %2441, %2459, %2537, %2555, %2633, %2651, %2729, %2747, %2825, %2843, %2921, %2939, %3017, %3035) /* ty=(Tensor[(1, 512, 128256), float32], Tensor[(1, 8, 512, 128), float32], Tensor[(1, 8, 512, 128), float32], Tensor[(1, 8, 512, 128), float32], Tensor[(1, 8, 512, 128), float32], Tensor[(1, 8, 512, 128), float32], Tensor[(1, 8, 512, 128), float32], Tensor[(1, 8, 512, 128), float32], Tensor[(1, 8, 512, 128), float32], Tensor[(1, 8, 512, 128), float32], Tensor[(1, 8, 512, 128), float32], Tensor[(1, 8, 512, 128), float32], Tensor[(1, 8, 512, 128), float32], Tensor[(1, 8, 512, 128), float32], Tensor[(1, 8, 512, 128), float32], Tensor[(1, 8, 512, 128), float32], Tensor[(1, 8, 512, 128), float32], Tensor[(1, 8, 512, 128), float32], Tensor[(1, 8, 512, 128), float32], Tensor[(1, 8, 512, 128), float32], Tensor[(1, 8, 512, 128), float32], Tensor[(1, 8, 512, 128), float32], Tensor[(1, 8, 512, 128), float32], Tensor[(1, 8, 512, 128), float32], Tensor[(1, 8, 512, 128), float32], Tensor[(1, 8, 512, 128), float32], Tensor[(1, 8, 512, 128), float32], Tensor[(1, 8, 512, 128), float32], Tensor[(1, 8, 512, 128), float32], Tensor[(1, 8, 512, 128), float32], Tensor[(1, 8, 512, 128), float32], Tensor[(1, 8, 512, 128), float32], Tensor[(1, 8, 512, 128), float32], Tensor[(1, 8, 512, 128), float32], Tensor[(1, 8, 512, 128), float32], Tensor[(1, 8, 512, 128), float32], Tensor[(1, 8, 512, 128), float32], Tensor[(1, 8, 512, 128), float32], Tensor[(1, 8, 512, 128), float32], Tensor[(1, 8, 512, 128), float32], Tensor[(1, 8, 512, 128), float32], Tensor[(1, 8, 512, 128), float32], Tensor[(1, 8, 512, 128), float32], Tensor[(1, 8, 512, 128), float32], Tensor[(1, 8, 512, 128), float32], Tensor[(1, 8, 512, 128), float32], Tensor[(1, 8, 512, 128), float32], Tensor[(1, 8, 512, 128), float32], Tensor[(1, 8, 512, 128), float32], Tensor[(1, 8, 512, 128), float32], Tensor[(1, 8, 512, 128), float32], Tensor[(1, 8, 512, 128), float32], Tensor[(1, 8, 512, 128), float32], Tensor[(1, 8, 512, 128), float32], Tensor[(1, 8, 512, 128), float32], Tensor[(1, 8, 512, 128), float32], Tensor[(1, 8, 512, 128), float32], Tensor[(1, 8, 512, 128), float32], Tensor[(1, 8, 512, 128), float32], Tensor[(1, 8, 512, 128), float32], Tensor[(1, 8, 512, 128), float32], Tensor[(1, 8, 512, 128), float32], Tensor[(1, 8, 512, 128), float32], Tensor[(1, 8, 512, 128), float32], Tensor[(1, 8, 512, 128), float32]) */
}

